<?xml version="1.0" ?>
<net name="robust" version="10">
	<layers>
		<layer id="0" name="5603560723690" type="Const" version="opset1">
			<data element_type="f16" offset="0" shape="" size="2"/>
			<output>
				<port id="0" precision="FP16"/>
			</output>
		</layer>
		<layer id="1" name="5604560823201" type="Const" version="opset1">
			<data element_type="f16" offset="2" shape="" size="2"/>
			<output>
				<port id="0" precision="FP16"/>
			</output>
		</layer>
		<layer id="2" name="5605560924692" type="Const" version="opset1">
			<data element_type="f16" offset="0" shape="" size="2"/>
			<output>
				<port id="0" precision="FP16"/>
			</output>
		</layer>
		<layer id="3" name="5606561022439" type="Const" version="opset1">
			<data element_type="f16" offset="2" shape="" size="2"/>
			<output>
				<port id="0" precision="FP16"/>
			</output>
		</layer>
		<layer id="4" name="5293529723852" type="Const" version="opset1">
			<data element_type="f16" offset="4" shape="" size="2"/>
			<output>
				<port id="0" precision="FP16"/>
			</output>
		</layer>
		<layer id="5" name="5294529822373" type="Const" version="opset1">
			<data element_type="f16" offset="6" shape="" size="2"/>
			<output>
				<port id="0" precision="FP16"/>
			</output>
		</layer>
		<layer id="6" name="5295529924665" type="Const" version="opset1">
			<data element_type="f16" offset="4" shape="" size="2"/>
			<output>
				<port id="0" precision="FP16"/>
			</output>
		</layer>
		<layer id="7" name="5296530022523" type="Const" version="opset1">
			<data element_type="f16" offset="6" shape="" size="2"/>
			<output>
				<port id="0" precision="FP16"/>
			</output>
		</layer>
		<layer id="8" name="5103510723396" type="Const" version="opset1">
			<data element_type="f16" offset="8" shape="" size="2"/>
			<output>
				<port id="0" precision="FP16"/>
			</output>
		</layer>
		<layer id="9" name="5104510821848" type="Const" version="opset1">
			<data element_type="f16" offset="10" shape="" size="2"/>
			<output>
				<port id="0" precision="FP16"/>
			</output>
		</layer>
		<layer id="10" name="5105510922364" type="Const" version="opset1">
			<data element_type="f16" offset="8" shape="" size="2"/>
			<output>
				<port id="0" precision="FP16"/>
			</output>
		</layer>
		<layer id="11" name="5106511023888" type="Const" version="opset1">
			<data element_type="f16" offset="10" shape="" size="2"/>
			<output>
				<port id="0" precision="FP16"/>
			</output>
		</layer>
		<layer id="12" name="5583558723813" type="Const" version="opset1">
			<data element_type="f16" offset="8" shape="" size="2"/>
			<output>
				<port id="0" precision="FP16"/>
			</output>
		</layer>
		<layer id="13" name="5584558823681" type="Const" version="opset1">
			<data element_type="f16" offset="12" shape="" size="2"/>
			<output>
				<port id="0" precision="FP16"/>
			</output>
		</layer>
		<layer id="14" name="5585558925163" type="Const" version="opset1">
			<data element_type="f16" offset="8" shape="" size="2"/>
			<output>
				<port id="0" precision="FP16"/>
			</output>
		</layer>
		<layer id="15" name="5586559023759" type="Const" version="opset1">
			<data element_type="f16" offset="12" shape="" size="2"/>
			<output>
				<port id="0" precision="FP16"/>
			</output>
		</layer>
		<layer id="16" name="8683868724497" type="Const" version="opset1">
			<data element_type="f16" offset="14" shape="" size="2"/>
			<output>
				<port id="0" precision="FP16"/>
			</output>
		</layer>
		<layer id="17" name="8684868824395" type="Const" version="opset1">
			<data element_type="f16" offset="16" shape="" size="2"/>
			<output>
				<port id="0" precision="FP16"/>
			</output>
		</layer>
		<layer id="18" name="8685868924005" type="Const" version="opset1">
			<data element_type="f16" offset="14" shape="" size="2"/>
			<output>
				<port id="0" precision="FP16"/>
			</output>
		</layer>
		<layer id="19" name="8686869021527" type="Const" version="opset1">
			<data element_type="f16" offset="16" shape="" size="2"/>
			<output>
				<port id="0" precision="FP16"/>
			</output>
		</layer>
		<layer id="20" name="5983598724464" type="Const" version="opset1">
			<data element_type="f16" offset="18" shape="" size="2"/>
			<output>
				<port id="0" precision="FP16"/>
			</output>
		</layer>
		<layer id="21" name="5984598824443" type="Const" version="opset1">
			<data element_type="f16" offset="20" shape="" size="2"/>
			<output>
				<port id="0" precision="FP16"/>
			</output>
		</layer>
		<layer id="22" name="5985598921758" type="Const" version="opset1">
			<data element_type="f16" offset="18" shape="" size="2"/>
			<output>
				<port id="0" precision="FP16"/>
			</output>
		</layer>
		<layer id="23" name="5986599024410" type="Const" version="opset1">
			<data element_type="f16" offset="20" shape="" size="2"/>
			<output>
				<port id="0" precision="FP16"/>
			</output>
		</layer>
		<layer id="24" name="2758276024764" type="Const" version="opset1">
			<data element_type="f16" offset="22" shape="1,4,1,1" size="8"/>
			<output>
				<port id="0" precision="FP16">
					<dim>1</dim>
					<dim>4</dim>
					<dim>1</dim>
					<dim>1</dim>
				</port>
			</output>
		</layer>
		<layer id="25" name="6273627724842" type="Const" version="opset1">
			<data element_type="f16" offset="30" shape="1,4,1,1" size="8"/>
			<output>
				<port id="0" precision="FP16">
					<dim>1</dim>
					<dim>4</dim>
					<dim>1</dim>
					<dim>1</dim>
				</port>
			</output>
		</layer>
		<layer id="26" name="6274627823090" type="Const" version="opset1">
			<data element_type="f16" offset="38" shape="1,4,1,1" size="8"/>
			<output>
				<port id="0" precision="FP16">
					<dim>1</dim>
					<dim>4</dim>
					<dim>1</dim>
					<dim>1</dim>
				</port>
			</output>
		</layer>
		<layer id="27" name="6275627924083" type="Const" version="opset1">
			<data element_type="f16" offset="30" shape="1,4,1,1" size="8"/>
			<output>
				<port id="0" precision="FP16">
					<dim>1</dim>
					<dim>4</dim>
					<dim>1</dim>
					<dim>1</dim>
				</port>
			</output>
		</layer>
		<layer id="28" name="6276628023873" type="Const" version="opset1">
			<data element_type="f16" offset="38" shape="1,4,1,1" size="8"/>
			<output>
				<port id="0" precision="FP16">
					<dim>1</dim>
					<dim>4</dim>
					<dim>1</dim>
					<dim>1</dim>
				</port>
			</output>
		</layer>
		<layer id="29" name="8663866724896" type="Const" version="opset1">
			<data element_type="f16" offset="8" shape="" size="2"/>
			<output>
				<port id="0" precision="FP16"/>
			</output>
		</layer>
		<layer id="30" name="8664866824770" type="Const" version="opset1">
			<data element_type="f16" offset="46" shape="" size="2"/>
			<output>
				<port id="0" precision="FP16"/>
			</output>
		</layer>
		<layer id="31" name="8665866923318" type="Const" version="opset1">
			<data element_type="f16" offset="8" shape="" size="2"/>
			<output>
				<port id="0" precision="FP16"/>
			</output>
		</layer>
		<layer id="32" name="8666867022799" type="Const" version="opset1">
			<data element_type="f16" offset="46" shape="" size="2"/>
			<output>
				<port id="0" precision="FP16"/>
			</output>
		</layer>
		<layer id="33" name="4383438722388" type="Const" version="opset1">
			<data element_type="f16" offset="8" shape="" size="2"/>
			<output>
				<port id="0" precision="FP16"/>
			</output>
		</layer>
		<layer id="34" name="4384438823585" type="Const" version="opset1">
			<data element_type="f16" offset="48" shape="" size="2"/>
			<output>
				<port id="0" precision="FP16"/>
			</output>
		</layer>
		<layer id="35" name="4385438923642" type="Const" version="opset1">
			<data element_type="f16" offset="8" shape="" size="2"/>
			<output>
				<port id="0" precision="FP16"/>
			</output>
		</layer>
		<layer id="36" name="4386439025403" type="Const" version="opset1">
			<data element_type="f16" offset="48" shape="" size="2"/>
			<output>
				<port id="0" precision="FP16"/>
			</output>
		</layer>
		<layer id="37" name="Resize_1/StridedSlice_scales717440298114225067" type="Const" version="opset1">
			<data element_type="f32" offset="50" shape="2" size="8"/>
			<output>
				<port id="0" precision="FP32">
					<dim>2</dim>
				</port>
			</output>
		</layer>
		<layer id="38" name="Resize_1/axis715840616114322853" type="Const" version="opset1">
			<data element_type="i64" offset="58" shape="2" size="16"/>
			<output>
				<port id="0" precision="I64">
					<dim>2</dim>
				</port>
			</output>
		</layer>
		<layer id="39" name="8863886723183" type="Const" version="opset1">
			<data element_type="f16" offset="8" shape="" size="2"/>
			<output>
				<port id="0" precision="FP16"/>
			</output>
		</layer>
		<layer id="40" name="8864886821836" type="Const" version="opset1">
			<data element_type="f16" offset="74" shape="" size="2"/>
			<output>
				<port id="0" precision="FP16"/>
			</output>
		</layer>
		<layer id="41" name="8865886925052" type="Const" version="opset1">
			<data element_type="f16" offset="8" shape="" size="2"/>
			<output>
				<port id="0" precision="FP16"/>
			</output>
		</layer>
		<layer id="42" name="8866887022988" type="Const" version="opset1">
			<data element_type="f16" offset="74" shape="" size="2"/>
			<output>
				<port id="0" precision="FP16"/>
			</output>
		</layer>
		<layer id="43" name="src/reverse_input_channels36042/Split_input_port_1/value3605640700112322739" type="Const" version="opset1">
			<data element_type="i64" offset="76" shape="" size="8"/>
			<output>
				<port id="0" precision="I64"/>
			</output>
		</layer>
		<layer id="44" name="9043904724650" type="Const" version="opset1">
			<data element_type="f16" offset="8" shape="" size="2"/>
			<output>
				<port id="0" precision="FP16"/>
			</output>
		</layer>
		<layer id="45" name="9044904823453" type="Const" version="opset1">
			<data element_type="f16" offset="84" shape="" size="2"/>
			<output>
				<port id="0" precision="FP16"/>
			</output>
		</layer>
		<layer id="46" name="9045904922868" type="Const" version="opset1">
			<data element_type="f16" offset="8" shape="" size="2"/>
			<output>
				<port id="0" precision="FP16"/>
			</output>
		</layer>
		<layer id="47" name="9046905023822" type="Const" version="opset1">
			<data element_type="f16" offset="84" shape="" size="2"/>
			<output>
				<port id="0" precision="FP16"/>
			</output>
		</layer>
		<layer id="48" name="src" type="Parameter" version="opset1">
			<data element_type="f16" shape="1,3,1080,1920"/>
			<output>
				<port id="0" names="src" precision="FP16">
					<dim>1</dim>
					<dim>3</dim>
					<dim>1080</dim>
					<dim>1920</dim>
				</port>
			</output>
		</layer>
		<layer id="49" name="src/reverse_input_channels36042/Split/fq_input_0" type="FakeQuantize" version="opset1">
			<data auto_broadcast="numpy" levels="256"/>
			<input>
				<port id="0">
					<dim>1</dim>
					<dim>3</dim>
					<dim>1080</dim>
					<dim>1920</dim>
				</port>
				<port id="1"/>
				<port id="2"/>
				<port id="3"/>
				<port id="4"/>
			</input>
			<output>
				<port id="5" precision="FP16">
					<dim>1</dim>
					<dim>3</dim>
					<dim>1080</dim>
					<dim>1920</dim>
				</port>
			</output>
		</layer>
		<layer id="50" name="src/reverse_input_channels36042/Split" type="Split" version="opset1">
			<data num_splits="3"/>
			<input>
				<port id="0">
					<dim>1</dim>
					<dim>3</dim>
					<dim>1080</dim>
					<dim>1920</dim>
				</port>
				<port id="1"/>
			</input>
			<output>
				<port id="2" precision="FP16">
					<dim>1</dim>
					<dim>1</dim>
					<dim>1080</dim>
					<dim>1920</dim>
				</port>
				<port id="3" precision="FP16">
					<dim>1</dim>
					<dim>1</dim>
					<dim>1080</dim>
					<dim>1920</dim>
				</port>
				<port id="4" precision="FP16">
					<dim>1</dim>
					<dim>1</dim>
					<dim>1080</dim>
					<dim>1920</dim>
				</port>
			</output>
		</layer>
		<layer id="51" name="src/reverse_input_channels36042/Concat" type="Concat" version="opset1">
			<data axis="1"/>
			<input>
				<port id="0">
					<dim>1</dim>
					<dim>1</dim>
					<dim>1080</dim>
					<dim>1920</dim>
				</port>
				<port id="1">
					<dim>1</dim>
					<dim>1</dim>
					<dim>1080</dim>
					<dim>1920</dim>
				</port>
				<port id="2">
					<dim>1</dim>
					<dim>1</dim>
					<dim>1080</dim>
					<dim>1920</dim>
				</port>
			</input>
			<output>
				<port id="3" precision="FP16">
					<dim>1</dim>
					<dim>3</dim>
					<dim>1080</dim>
					<dim>1920</dim>
				</port>
			</output>
		</layer>
		<layer id="52" name="src/scale_input_port_1/value3843112812181/quantized1480721989" type="Const" version="opset1">
			<data element_type="i8" offset="86" shape="1,3,1,1" size="3"/>
			<output>
				<port id="0" precision="I8">
					<dim>1</dim>
					<dim>3</dim>
					<dim>1</dim>
					<dim>1</dim>
				</port>
			</output>
		</layer>
		<layer id="53" name="src/scale_input_port_1/value3843112812181/quantized/to_f16" type="Convert" version="opset1">
			<data destination_type="f16"/>
			<input>
				<port id="0">
					<dim>1</dim>
					<dim>3</dim>
					<dim>1</dim>
					<dim>1</dim>
				</port>
			</input>
			<output>
				<port id="1" precision="FP16">
					<dim>1</dim>
					<dim>3</dim>
					<dim>1</dim>
					<dim>1</dim>
				</port>
			</output>
		</layer>
		<layer id="54" name="src/scale/fq_input_1/zero_point1482023750" type="Const" version="opset1">
			<data element_type="f16" offset="89" shape="1,1,1,1" size="2"/>
			<output>
				<port id="0" precision="FP16">
					<dim>1</dim>
					<dim>1</dim>
					<dim>1</dim>
					<dim>1</dim>
				</port>
			</output>
		</layer>
		<layer id="55" name="src/scale/fq_input_1/minus_zp" type="Subtract" version="opset1">
			<data auto_broadcast="numpy"/>
			<input>
				<port id="0">
					<dim>1</dim>
					<dim>3</dim>
					<dim>1</dim>
					<dim>1</dim>
				</port>
				<port id="1">
					<dim>1</dim>
					<dim>1</dim>
					<dim>1</dim>
					<dim>1</dim>
				</port>
			</input>
			<output>
				<port id="2" precision="FP16">
					<dim>1</dim>
					<dim>3</dim>
					<dim>1</dim>
					<dim>1</dim>
				</port>
			</output>
		</layer>
		<layer id="56" name="src/scale/fq_input_1/scale1481522631" type="Const" version="opset1">
			<data element_type="f16" offset="91" shape="1,1,1,1" size="2"/>
			<output>
				<port id="0" precision="FP16">
					<dim>1</dim>
					<dim>1</dim>
					<dim>1</dim>
					<dim>1</dim>
				</port>
			</output>
		</layer>
		<layer id="57" name="src/scale/fq_input_1/mulpiply_by_scale" type="Multiply" version="opset1">
			<data auto_broadcast="numpy"/>
			<input>
				<port id="0">
					<dim>1</dim>
					<dim>3</dim>
					<dim>1</dim>
					<dim>1</dim>
				</port>
				<port id="1">
					<dim>1</dim>
					<dim>1</dim>
					<dim>1</dim>
					<dim>1</dim>
				</port>
			</input>
			<output>
				<port id="2" precision="FP16">
					<dim>1</dim>
					<dim>3</dim>
					<dim>1</dim>
					<dim>1</dim>
				</port>
			</output>
		</layer>
		<layer id="58" name="src/scale" type="Multiply" version="opset1">
			<data auto_broadcast="numpy"/>
			<input>
				<port id="0">
					<dim>1</dim>
					<dim>3</dim>
					<dim>1080</dim>
					<dim>1920</dim>
				</port>
				<port id="1">
					<dim>1</dim>
					<dim>3</dim>
					<dim>1</dim>
					<dim>1</dim>
				</port>
			</input>
			<output>
				<port id="2" precision="FP16">
					<dim>1</dim>
					<dim>3</dim>
					<dim>1080</dim>
					<dim>1920</dim>
				</port>
			</output>
		</layer>
		<layer id="59" name="Concat_531/fq_input_0" type="FakeQuantize" version="opset1">
			<data auto_broadcast="numpy" levels="256"/>
			<input>
				<port id="0">
					<dim>1</dim>
					<dim>3</dim>
					<dim>1080</dim>
					<dim>1920</dim>
				</port>
				<port id="1"/>
				<port id="2"/>
				<port id="3"/>
				<port id="4"/>
			</input>
			<output>
				<port id="5" precision="FP16">
					<dim>1</dim>
					<dim>3</dim>
					<dim>1080</dim>
					<dim>1920</dim>
				</port>
			</output>
		</layer>
		<layer id="60" name="Resize_1/ShapeOf" type="ShapeOf" version="opset3">
			<data output_type="i64"/>
			<input>
				<port id="0">
					<dim>1</dim>
					<dim>3</dim>
					<dim>1080</dim>
					<dim>1920</dim>
				</port>
			</input>
			<output>
				<port id="1" precision="I64">
					<dim>4</dim>
				</port>
			</output>
		</layer>
		<layer id="61" name="7163" type="Convert" version="opset1">
			<data destination_type="f32"/>
			<input>
				<port id="0">
					<dim>4</dim>
				</port>
			</input>
			<output>
				<port id="1" precision="FP32">
					<dim>4</dim>
				</port>
			</output>
		</layer>
		<layer id="62" name="1247113221893" type="Const" version="opset1">
			<data element_type="f32" offset="93" shape="4" size="16"/>
			<output>
				<port id="0" names="1247" precision="FP32">
					<dim>4</dim>
				</port>
			</output>
		</layer>
		<layer id="63" name="Resize_1/Mul" type="Multiply" version="opset1">
			<data auto_broadcast="numpy"/>
			<input>
				<port id="0">
					<dim>4</dim>
				</port>
				<port id="1">
					<dim>4</dim>
				</port>
			</input>
			<output>
				<port id="2" precision="FP32">
					<dim>4</dim>
				</port>
			</output>
		</layer>
		<layer id="64" name="Resize_1/Add_input_port_1/value716240958113422781" type="Const" version="opset1">
			<data element_type="f32" offset="109" shape="1" size="4"/>
			<output>
				<port id="0" precision="FP32">
					<dim>1</dim>
				</port>
			</output>
		</layer>
		<layer id="65" name="Resize_1/Add" type="Add" version="opset1">
			<data auto_broadcast="numpy"/>
			<input>
				<port id="0">
					<dim>4</dim>
				</port>
				<port id="1">
					<dim>1</dim>
				</port>
			</input>
			<output>
				<port id="2" precision="FP32">
					<dim>4</dim>
				</port>
			</output>
		</layer>
		<layer id="66" name="Resize_1/Floor" type="Floor" version="opset1">
			<input>
				<port id="0">
					<dim>4</dim>
				</port>
			</input>
			<output>
				<port id="1" precision="FP32">
					<dim>4</dim>
				</port>
			</output>
		</layer>
		<layer id="67" name="7167" type="Convert" version="opset1">
			<data destination_type="i64"/>
			<input>
				<port id="0">
					<dim>4</dim>
				</port>
			</input>
			<output>
				<port id="1" precision="I64">
					<dim>4</dim>
				</port>
			</output>
		</layer>
		<layer id="68" name="Resize_1/StridedSlice_sizes_input_port_1/value7144412221138" type="Const" version="opset1">
			<data element_type="i64" offset="113" shape="1" size="8"/>
			<output>
				<port id="0" precision="I64">
					<dim>1</dim>
				</port>
			</output>
		</layer>
		<layer id="69" name="Resize_1/StridedSlice_sizes_input_port_2/value7146412191139" type="Const" version="opset1">
			<data element_type="i64" offset="121" shape="1" size="8"/>
			<output>
				<port id="0" precision="I64">
					<dim>1</dim>
				</port>
			</output>
		</layer>
		<layer id="70" name="Resize_1/StridedSlice_sizes_input_port_3/value7148410751140" type="Const" version="opset1">
			<data element_type="i64" offset="76" shape="1" size="8"/>
			<output>
				<port id="0" precision="I64">
					<dim>1</dim>
				</port>
			</output>
		</layer>
		<layer id="71" name="Resize_1/StridedSlice_sizes" type="StridedSlice" version="opset1">
			<data begin_mask="0" ellipsis_mask="0" end_mask="0" new_axis_mask="0" shrink_axis_mask="0"/>
			<input>
				<port id="0">
					<dim>4</dim>
				</port>
				<port id="1">
					<dim>1</dim>
				</port>
				<port id="2">
					<dim>1</dim>
				</port>
				<port id="3">
					<dim>1</dim>
				</port>
			</input>
			<output>
				<port id="4" precision="I64">
					<dim>2</dim>
				</port>
			</output>
		</layer>
		<layer id="72" name="Resize_1" type="Interpolate" version="opset4">
			<data antialias="false" coordinate_transformation_mode="pytorch_half_pixel" cube_coeff="-0.75" mode="linear_onnx" nearest_mode="floor" pads_begin="0,0,0,0" pads_end="0,0,0,0" shape_calculation_mode="scales"/>
			<input>
				<port id="0">
					<dim>1</dim>
					<dim>3</dim>
					<dim>1080</dim>
					<dim>1920</dim>
				</port>
				<port id="1">
					<dim>2</dim>
				</port>
				<port id="2">
					<dim>2</dim>
				</port>
				<port id="3">
					<dim>2</dim>
				</port>
			</input>
			<output>
				<port id="4" names="385" precision="FP16">
					<dim>1</dim>
					<dim>3</dim>
					<dim>270</dim>
					<dim>480</dim>
				</port>
			</output>
		</layer>
		<layer id="73" name="AveragePool_287/fq_input_0" type="FakeQuantize" version="opset1">
			<data auto_broadcast="numpy" levels="256"/>
			<input>
				<port id="0">
					<dim>1</dim>
					<dim>3</dim>
					<dim>270</dim>
					<dim>480</dim>
				</port>
				<port id="1"/>
				<port id="2"/>
				<port id="3"/>
				<port id="4"/>
			</input>
			<output>
				<port id="5" precision="FP16">
					<dim>1</dim>
					<dim>3</dim>
					<dim>270</dim>
					<dim>480</dim>
				</port>
			</output>
		</layer>
		<layer id="74" name="ReduceMean_532/axis1145" type="Const" version="opset1">
			<data element_type="i64" offset="76" shape="1" size="8"/>
			<output>
				<port id="0" precision="I64">
					<dim>1</dim>
				</port>
			</output>
		</layer>
		<layer id="75" name="ReduceMean_532" type="ReduceMean" version="opset1">
			<data keep_dims="true"/>
			<input>
				<port id="0">
					<dim>1</dim>
					<dim>3</dim>
					<dim>270</dim>
					<dim>480</dim>
				</port>
				<port id="1">
					<dim>1</dim>
				</port>
			</input>
			<output>
				<port id="2" names="1021" precision="FP16">
					<dim>1</dim>
					<dim>1</dim>
					<dim>270</dim>
					<dim>480</dim>
				</port>
			</output>
		</layer>
		<layer id="76" name="Concat_533/fq_input_1" type="FakeQuantize" version="opset1">
			<data auto_broadcast="numpy" levels="256"/>
			<input>
				<port id="0">
					<dim>1</dim>
					<dim>1</dim>
					<dim>270</dim>
					<dim>480</dim>
				</port>
				<port id="1"/>
				<port id="2"/>
				<port id="3"/>
				<port id="4"/>
			</input>
			<output>
				<port id="5" precision="FP16">
					<dim>1</dim>
					<dim>1</dim>
					<dim>270</dim>
					<dim>480</dim>
				</port>
			</output>
		</layer>
		<layer id="77" name="Concat_533" type="Concat" version="opset1">
			<data axis="1"/>
			<input>
				<port id="0">
					<dim>1</dim>
					<dim>3</dim>
					<dim>270</dim>
					<dim>480</dim>
				</port>
				<port id="1">
					<dim>1</dim>
					<dim>1</dim>
					<dim>270</dim>
					<dim>480</dim>
				</port>
			</input>
			<output>
				<port id="2" names="1022" precision="FP16">
					<dim>1</dim>
					<dim>4</dim>
					<dim>270</dim>
					<dim>480</dim>
				</port>
			</output>
		</layer>
		<layer id="78" name="Split_529/VariadicSplit_input_port_1/value214624386" type="Const" version="opset1">
			<data element_type="i64" offset="129" shape="" size="8"/>
			<output>
				<port id="0" precision="I64"/>
			</output>
		</layer>
		<layer id="79" name="Split_529/VariadicSplit_input_port_2/value214723132" type="Const" version="opset1">
			<data element_type="i64" offset="137" shape="2" size="16"/>
			<output>
				<port id="0" precision="I64">
					<dim>2</dim>
				</port>
			</output>
		</layer>
		<layer id="80" name="8673867722994" type="Const" version="opset1">
			<data element_type="f16" offset="153" shape="" size="2"/>
			<output>
				<port id="0" precision="FP16"/>
			</output>
		</layer>
		<layer id="81" name="8674867822259" type="Const" version="opset1">
			<data element_type="f16" offset="155" shape="" size="2"/>
			<output>
				<port id="0" precision="FP16"/>
			</output>
		</layer>
		<layer id="82" name="8675867923408" type="Const" version="opset1">
			<data element_type="f16" offset="153" shape="" size="2"/>
			<output>
				<port id="0" precision="FP16"/>
			</output>
		</layer>
		<layer id="83" name="8676868024740" type="Const" version="opset1">
			<data element_type="f16" offset="155" shape="" size="2"/>
			<output>
				<port id="0" precision="FP16"/>
			</output>
		</layer>
		<layer id="84" name="8703870723945" type="Const" version="opset1">
			<data element_type="f16" offset="157" shape="" size="2"/>
			<output>
				<port id="0" precision="FP16"/>
			</output>
		</layer>
		<layer id="85" name="8704870822241" type="Const" version="opset1">
			<data element_type="f16" offset="159" shape="" size="2"/>
			<output>
				<port id="0" precision="FP16"/>
			</output>
		</layer>
		<layer id="86" name="8705870925214" type="Const" version="opset1">
			<data element_type="f16" offset="157" shape="" size="2"/>
			<output>
				<port id="0" precision="FP16"/>
			</output>
		</layer>
		<layer id="87" name="8706871022427" type="Const" version="opset1">
			<data element_type="f16" offset="159" shape="" size="2"/>
			<output>
				<port id="0" precision="FP16"/>
			</output>
		</layer>
		<layer id="88" name="4183418724353" type="Const" version="opset1">
			<data element_type="f16" offset="157" shape="" size="2"/>
			<output>
				<port id="0" precision="FP16"/>
			</output>
		</layer>
		<layer id="89" name="4184418822685" type="Const" version="opset1">
			<data element_type="f16" offset="161" shape="" size="2"/>
			<output>
				<port id="0" precision="FP16"/>
			</output>
		</layer>
		<layer id="90" name="4185418924035" type="Const" version="opset1">
			<data element_type="f16" offset="157" shape="" size="2"/>
			<output>
				<port id="0" precision="FP16"/>
			</output>
		</layer>
		<layer id="91" name="4186419022496" type="Const" version="opset1">
			<data element_type="f16" offset="161" shape="" size="2"/>
			<output>
				<port id="0" precision="FP16"/>
			</output>
		</layer>
		<layer id="92" name="8643864723762" type="Const" version="opset1">
			<data element_type="f16" offset="163" shape="" size="2"/>
			<output>
				<port id="0" precision="FP16"/>
			</output>
		</layer>
		<layer id="93" name="8644864823714" type="Const" version="opset1">
			<data element_type="f16" offset="165" shape="" size="2"/>
			<output>
				<port id="0" precision="FP16"/>
			</output>
		</layer>
		<layer id="94" name="8645864922040" type="Const" version="opset1">
			<data element_type="f16" offset="163" shape="" size="2"/>
			<output>
				<port id="0" precision="FP16"/>
			</output>
		</layer>
		<layer id="95" name="8646865024458" type="Const" version="opset1">
			<data element_type="f16" offset="165" shape="" size="2"/>
			<output>
				<port id="0" precision="FP16"/>
			</output>
		</layer>
		<layer id="96" name="Resize_510/StridedSlice_scales731040727209422619" type="Const" version="opset1">
			<data element_type="f32" offset="167" shape="2" size="8"/>
			<output>
				<port id="0" precision="FP32">
					<dim>2</dim>
				</port>
			</output>
		</layer>
		<layer id="97" name="Resize_510/axis729440970209524338" type="Const" version="opset1">
			<data element_type="i64" offset="58" shape="2" size="16"/>
			<output>
				<port id="0" precision="I64">
					<dim>2</dim>
				</port>
			</output>
		</layer>
		<layer id="98" name="8983898723060" type="Const" version="opset1">
			<data element_type="f16" offset="175" shape="" size="2"/>
			<output>
				<port id="0" precision="FP16"/>
			</output>
		</layer>
		<layer id="99" name="8984898823105" type="Const" version="opset1">
			<data element_type="f16" offset="177" shape="" size="2"/>
			<output>
				<port id="0" precision="FP16"/>
			</output>
		</layer>
		<layer id="100" name="8985898925142" type="Const" version="opset1">
			<data element_type="f16" offset="175" shape="" size="2"/>
			<output>
				<port id="0" precision="FP16"/>
			</output>
		</layer>
		<layer id="101" name="8986899024869" type="Const" version="opset1">
			<data element_type="f16" offset="177" shape="" size="2"/>
			<output>
				<port id="0" precision="FP16"/>
			</output>
		</layer>
		<layer id="102" name="5193519723420" type="Const" version="opset1">
			<data element_type="f16" offset="157" shape="" size="2"/>
			<output>
				<port id="0" precision="FP16"/>
			</output>
		</layer>
		<layer id="103" name="5194519823870" type="Const" version="opset1">
			<data element_type="f16" offset="179" shape="" size="2"/>
			<output>
				<port id="0" precision="FP16"/>
			</output>
		</layer>
		<layer id="104" name="5195519924284" type="Const" version="opset1">
			<data element_type="f16" offset="157" shape="" size="2"/>
			<output>
				<port id="0" precision="FP16"/>
			</output>
		</layer>
		<layer id="105" name="5196520022895" type="Const" version="opset1">
			<data element_type="f16" offset="179" shape="" size="2"/>
			<output>
				<port id="0" precision="FP16"/>
			</output>
		</layer>
		<layer id="106" name="ConstantOfShape_494/Broadcast/FillValue202423195" type="Const" version="opset1">
			<data element_type="f16" offset="157" shape="1" size="2"/>
			<output>
				<port id="0" precision="FP16">
					<dim>1</dim>
				</port>
			</output>
		</layer>
		<layer id="107" name="Split_467/VariadicSplit_input_port_1/value201923654" type="Const" version="opset1">
			<data element_type="i64" offset="76" shape="" size="8"/>
			<output>
				<port id="0" precision="I64"/>
			</output>
		</layer>
		<layer id="108" name="Split_467/VariadicSplit_input_port_2/value202023171" type="Const" version="opset1">
			<data element_type="i64" offset="181" shape="2" size="16"/>
			<output>
				<port id="0" precision="I64">
					<dim>2</dim>
				</port>
			</output>
		</layer>
		<layer id="109" name="8573857723846" type="Const" version="opset1">
			<data element_type="f16" offset="157" shape="" size="2"/>
			<output>
				<port id="0" precision="FP16"/>
			</output>
		</layer>
		<layer id="110" name="8574857821974" type="Const" version="opset1">
			<data element_type="f16" offset="197" shape="" size="2"/>
			<output>
				<port id="0" precision="FP16"/>
			</output>
		</layer>
		<layer id="111" name="8575857922733" type="Const" version="opset1">
			<data element_type="f16" offset="157" shape="" size="2"/>
			<output>
				<port id="0" precision="FP16"/>
			</output>
		</layer>
		<layer id="112" name="8576858024101" type="Const" version="opset1">
			<data element_type="f16" offset="197" shape="" size="2"/>
			<output>
				<port id="0" precision="FP16"/>
			</output>
		</layer>
		<layer id="113" name="8523852722049" type="Const" version="opset1">
			<data element_type="f16" offset="199" shape="" size="2"/>
			<output>
				<port id="0" precision="FP16"/>
			</output>
		</layer>
		<layer id="114" name="8524852824095" type="Const" version="opset1">
			<data element_type="f16" offset="201" shape="" size="2"/>
			<output>
				<port id="0" precision="FP16"/>
			</output>
		</layer>
		<layer id="115" name="8525852924122" type="Const" version="opset1">
			<data element_type="f16" offset="199" shape="" size="2"/>
			<output>
				<port id="0" precision="FP16"/>
			</output>
		</layer>
		<layer id="116" name="8526853023336" type="Const" version="opset1">
			<data element_type="f16" offset="201" shape="" size="2"/>
			<output>
				<port id="0" precision="FP16"/>
			</output>
		</layer>
		<layer id="117" name="6213621724119" type="Const" version="opset1">
			<data element_type="f16" offset="203" shape="" size="2"/>
			<output>
				<port id="0" precision="FP16"/>
			</output>
		</layer>
		<layer id="118" name="6214621822367" type="Const" version="opset1">
			<data element_type="f16" offset="205" shape="" size="2"/>
			<output>
				<port id="0" precision="FP16"/>
			</output>
		</layer>
		<layer id="119" name="6215621924065" type="Const" version="opset1">
			<data element_type="f16" offset="203" shape="" size="2"/>
			<output>
				<port id="0" precision="FP16"/>
			</output>
		</layer>
		<layer id="120" name="6216622023075" type="Const" version="opset1">
			<data element_type="f16" offset="205" shape="" size="2"/>
			<output>
				<port id="0" precision="FP16"/>
			</output>
		</layer>
		<layer id="121" name="6333633725475" type="Const" version="opset1">
			<data element_type="f16" offset="157" shape="" size="2"/>
			<output>
				<port id="0" precision="FP16"/>
			</output>
		</layer>
		<layer id="122" name="6334633821704" type="Const" version="opset1">
			<data element_type="f16" offset="207" shape="" size="2"/>
			<output>
				<port id="0" precision="FP16"/>
			</output>
		</layer>
		<layer id="123" name="6335633925358" type="Const" version="opset1">
			<data element_type="f16" offset="157" shape="" size="2"/>
			<output>
				<port id="0" precision="FP16"/>
			</output>
		</layer>
		<layer id="124" name="6336634025430" type="Const" version="opset1">
			<data element_type="f16" offset="207" shape="" size="2"/>
			<output>
				<port id="0" precision="FP16"/>
			</output>
		</layer>
		<layer id="125" name="6223622721671" type="Const" version="opset1">
			<data element_type="f16" offset="209" shape="" size="2"/>
			<output>
				<port id="0" precision="FP16"/>
			</output>
		</layer>
		<layer id="126" name="6224622824155" type="Const" version="opset1">
			<data element_type="f16" offset="211" shape="" size="2"/>
			<output>
				<port id="0" precision="FP16"/>
			</output>
		</layer>
		<layer id="127" name="6225622923753" type="Const" version="opset1">
			<data element_type="f16" offset="209" shape="" size="2"/>
			<output>
				<port id="0" precision="FP16"/>
			</output>
		</layer>
		<layer id="128" name="6226623022532" type="Const" version="opset1">
			<data element_type="f16" offset="211" shape="" size="2"/>
			<output>
				<port id="0" precision="FP16"/>
			</output>
		</layer>
		<layer id="129" name="6253625725451" type="Const" version="opset1">
			<data element_type="f16" offset="213" shape="" size="2"/>
			<output>
				<port id="0" precision="FP16"/>
			</output>
		</layer>
		<layer id="130" name="6254625823117" type="Const" version="opset1">
			<data element_type="f16" offset="215" shape="" size="2"/>
			<output>
				<port id="0" precision="FP16"/>
			</output>
		</layer>
		<layer id="131" name="6255625923744" type="Const" version="opset1">
			<data element_type="f16" offset="213" shape="" size="2"/>
			<output>
				<port id="0" precision="FP16"/>
			</output>
		</layer>
		<layer id="132" name="6256626025229" type="Const" version="opset1">
			<data element_type="f16" offset="215" shape="" size="2"/>
			<output>
				<port id="0" precision="FP16"/>
			</output>
		</layer>
		<layer id="133" name="data_mul_16530114824818" type="Const" version="opset1">
			<data element_type="f16" offset="217" shape="1,3,1,1" size="6"/>
			<output>
				<port id="0" precision="FP16">
					<dim>1</dim>
					<dim>3</dim>
					<dim>1</dim>
					<dim>1</dim>
				</port>
			</output>
		</layer>
		<layer id="134" name="Div_5/Fused_Mul_" type="Multiply" version="opset1">
			<data auto_broadcast="numpy"/>
			<input>
				<port id="0">
					<dim>1</dim>
					<dim>3</dim>
					<dim>270</dim>
					<dim>480</dim>
				</port>
				<port id="1">
					<dim>1</dim>
					<dim>3</dim>
					<dim>1</dim>
					<dim>1</dim>
				</port>
			</input>
			<output>
				<port id="2" precision="FP16">
					<dim>1</dim>
					<dim>3</dim>
					<dim>270</dim>
					<dim>480</dim>
				</port>
			</output>
		</layer>
		<layer id="135" name="data_add_16532115024710" type="Const" version="opset1">
			<data element_type="f16" offset="223" shape="1,3,1,1" size="6"/>
			<output>
				<port id="0" precision="FP16">
					<dim>1</dim>
					<dim>3</dim>
					<dim>1</dim>
					<dim>1</dim>
				</port>
			</output>
		</layer>
		<layer id="136" name="Sub_3/Fused_Add_" type="Add" version="opset1">
			<data auto_broadcast="numpy"/>
			<input>
				<port id="0">
					<dim>1</dim>
					<dim>3</dim>
					<dim>270</dim>
					<dim>480</dim>
				</port>
				<port id="1">
					<dim>1</dim>
					<dim>3</dim>
					<dim>1</dim>
					<dim>1</dim>
				</port>
			</input>
			<output>
				<port id="2" names="389" precision="FP16">
					<dim>1</dim>
					<dim>3</dim>
					<dim>270</dim>
					<dim>480</dim>
				</port>
			</output>
		</layer>
		<layer id="137" name="Conv_6/WithoutBiases/fq_input_0" type="FakeQuantize" version="opset1">
			<data auto_broadcast="numpy" levels="256"/>
			<input>
				<port id="0">
					<dim>1</dim>
					<dim>3</dim>
					<dim>270</dim>
					<dim>480</dim>
				</port>
				<port id="1"/>
				<port id="2"/>
				<port id="3"/>
				<port id="4"/>
			</input>
			<output>
				<port id="5" precision="FP16">
					<dim>1</dim>
					<dim>3</dim>
					<dim>270</dim>
					<dim>480</dim>
				</port>
			</output>
		</layer>
		<layer id="138" name="1086115212192/quantized1483122958" type="Const" version="opset1">
			<data element_type="i8" offset="229" shape="16,3,3,3" size="432"/>
			<output>
				<port id="0" precision="I8">
					<dim>16</dim>
					<dim>3</dim>
					<dim>3</dim>
					<dim>3</dim>
				</port>
			</output>
		</layer>
		<layer id="139" name="1086115212192/quantized/to_f16" type="Convert" version="opset1">
			<data destination_type="f16"/>
			<input>
				<port id="0">
					<dim>16</dim>
					<dim>3</dim>
					<dim>3</dim>
					<dim>3</dim>
				</port>
			</input>
			<output>
				<port id="1" precision="FP16">
					<dim>16</dim>
					<dim>3</dim>
					<dim>3</dim>
					<dim>3</dim>
				</port>
			</output>
		</layer>
		<layer id="140" name="Conv_6/WithoutBiases/fq_weights_1/zero_point1484424584" type="Const" version="opset1">
			<data element_type="f16" offset="661" shape="16,1,1,1" size="32"/>
			<output>
				<port id="0" precision="FP16">
					<dim>16</dim>
					<dim>1</dim>
					<dim>1</dim>
					<dim>1</dim>
				</port>
			</output>
		</layer>
		<layer id="141" name="Conv_6/WithoutBiases/fq_weights_1/minus_zp" type="Subtract" version="opset1">
			<data auto_broadcast="numpy"/>
			<input>
				<port id="0">
					<dim>16</dim>
					<dim>3</dim>
					<dim>3</dim>
					<dim>3</dim>
				</port>
				<port id="1">
					<dim>16</dim>
					<dim>1</dim>
					<dim>1</dim>
					<dim>1</dim>
				</port>
			</input>
			<output>
				<port id="2" precision="FP16">
					<dim>16</dim>
					<dim>3</dim>
					<dim>3</dim>
					<dim>3</dim>
				</port>
			</output>
		</layer>
		<layer id="142" name="Conv_6/WithoutBiases/fq_weights_1/scale1483925046" type="Const" version="opset1">
			<data element_type="f16" offset="693" shape="16,1,1,1" size="32"/>
			<output>
				<port id="0" precision="FP16">
					<dim>16</dim>
					<dim>1</dim>
					<dim>1</dim>
					<dim>1</dim>
				</port>
			</output>
		</layer>
		<layer id="143" name="Conv_6/WithoutBiases/fq_weights_1/mulpiply_by_scale" type="Multiply" version="opset1">
			<data auto_broadcast="numpy"/>
			<input>
				<port id="0">
					<dim>16</dim>
					<dim>3</dim>
					<dim>3</dim>
					<dim>3</dim>
				</port>
				<port id="1">
					<dim>16</dim>
					<dim>1</dim>
					<dim>1</dim>
					<dim>1</dim>
				</port>
			</input>
			<output>
				<port id="2" precision="FP16">
					<dim>16</dim>
					<dim>3</dim>
					<dim>3</dim>
					<dim>3</dim>
				</port>
			</output>
		</layer>
		<layer id="144" name="Conv_6/WithoutBiases" type="Convolution" version="opset1">
			<data auto_pad="explicit" dilations="1,1" pads_begin="1,1" pads_end="1,1" strides="2,2"/>
			<input>
				<port id="0">
					<dim>1</dim>
					<dim>3</dim>
					<dim>270</dim>
					<dim>480</dim>
				</port>
				<port id="1">
					<dim>16</dim>
					<dim>3</dim>
					<dim>3</dim>
					<dim>3</dim>
				</port>
			</input>
			<output>
				<port id="2" precision="FP16">
					<dim>1</dim>
					<dim>16</dim>
					<dim>135</dim>
					<dim>240</dim>
				</port>
			</output>
		</layer>
		<layer id="145" name="Conv_6/Dims9289115425247" type="Const" version="opset1">
			<data element_type="f16" offset="725" shape="1,16,1,1" size="32"/>
			<output>
				<port id="0" precision="FP16">
					<dim>1</dim>
					<dim>16</dim>
					<dim>1</dim>
					<dim>1</dim>
				</port>
			</output>
		</layer>
		<layer id="146" name="Conv_6" type="Add" version="opset1">
			<data auto_broadcast="numpy"/>
			<input>
				<port id="0">
					<dim>1</dim>
					<dim>16</dim>
					<dim>135</dim>
					<dim>240</dim>
				</port>
				<port id="1">
					<dim>1</dim>
					<dim>16</dim>
					<dim>1</dim>
					<dim>1</dim>
				</port>
			</input>
			<output>
				<port id="2" names="1085" precision="FP16">
					<dim>1</dim>
					<dim>16</dim>
					<dim>135</dim>
					<dim>240</dim>
				</port>
			</output>
		</layer>
		<layer id="147" name="Constant_7115621698" type="Const" version="opset1">
			<data element_type="f16" offset="757" shape="1,1,1,1" size="2"/>
			<output>
				<port id="0" names="392" precision="FP16">
					<dim>1</dim>
					<dim>1</dim>
					<dim>1</dim>
					<dim>1</dim>
				</port>
			</output>
		</layer>
		<layer id="148" name="Add_8" type="Add" version="opset1">
			<data auto_broadcast="numpy"/>
			<input>
				<port id="0">
					<dim>1</dim>
					<dim>16</dim>
					<dim>135</dim>
					<dim>240</dim>
				</port>
				<port id="1">
					<dim>1</dim>
					<dim>1</dim>
					<dim>1</dim>
					<dim>1</dim>
				</port>
			</input>
			<output>
				<port id="2" names="393" precision="FP16">
					<dim>1</dim>
					<dim>16</dim>
					<dim>135</dim>
					<dim>240</dim>
				</port>
			</output>
		</layer>
		<layer id="149" name="Clip_11" type="Clamp" version="opset1">
			<data max="6" min="0"/>
			<input>
				<port id="0">
					<dim>1</dim>
					<dim>16</dim>
					<dim>135</dim>
					<dim>240</dim>
				</port>
			</input>
			<output>
				<port id="1" names="396" precision="FP16">
					<dim>1</dim>
					<dim>16</dim>
					<dim>135</dim>
					<dim>240</dim>
				</port>
			</output>
		</layer>
		<layer id="150" name="Constant_12115924014" type="Const" version="opset1">
			<data element_type="f16" offset="759" shape="1,1,1,1" size="2"/>
			<output>
				<port id="0" names="397" precision="FP16">
					<dim>1</dim>
					<dim>1</dim>
					<dim>1</dim>
					<dim>1</dim>
				</port>
			</output>
		</layer>
		<layer id="151" name="Div_13" type="Multiply" version="opset1">
			<data auto_broadcast="numpy"/>
			<input>
				<port id="0">
					<dim>1</dim>
					<dim>16</dim>
					<dim>135</dim>
					<dim>240</dim>
				</port>
				<port id="1">
					<dim>1</dim>
					<dim>1</dim>
					<dim>1</dim>
					<dim>1</dim>
				</port>
			</input>
			<output>
				<port id="2" names="398" precision="FP16">
					<dim>1</dim>
					<dim>16</dim>
					<dim>135</dim>
					<dim>240</dim>
				</port>
			</output>
		</layer>
		<layer id="152" name="Mul_14" type="Multiply" version="opset1">
			<data auto_broadcast="numpy"/>
			<input>
				<port id="0">
					<dim>1</dim>
					<dim>16</dim>
					<dim>135</dim>
					<dim>240</dim>
				</port>
				<port id="1">
					<dim>1</dim>
					<dim>16</dim>
					<dim>135</dim>
					<dim>240</dim>
				</port>
			</input>
			<output>
				<port id="2" names="399" precision="FP16">
					<dim>1</dim>
					<dim>16</dim>
					<dim>135</dim>
					<dim>240</dim>
				</port>
			</output>
		</layer>
		<layer id="153" name="Add_18/fq_input_1" type="FakeQuantize" version="opset1">
			<data auto_broadcast="numpy" levels="256"/>
			<input>
				<port id="0">
					<dim>1</dim>
					<dim>16</dim>
					<dim>135</dim>
					<dim>240</dim>
				</port>
				<port id="1"/>
				<port id="2"/>
				<port id="3"/>
				<port id="4"/>
			</input>
			<output>
				<port id="5" precision="FP16">
					<dim>1</dim>
					<dim>16</dim>
					<dim>135</dim>
					<dim>240</dim>
				</port>
			</output>
		</layer>
		<layer id="154" name="18774/value1877623042" type="Const" version="opset1">
			<data element_type="i64" offset="761" shape="5" size="40"/>
			<output>
				<port id="0" precision="I64">
					<dim>5</dim>
				</port>
			</output>
		</layer>
		<layer id="155" name="1089116212196/quantized1442323480" type="Const" version="opset1">
			<data element_type="i8" offset="801" shape="16,1,3,3" size="144"/>
			<output>
				<port id="0" precision="I8">
					<dim>16</dim>
					<dim>1</dim>
					<dim>3</dim>
					<dim>3</dim>
				</port>
			</output>
		</layer>
		<layer id="156" name="1089116212196/quantized/to_f16" type="Convert" version="opset1">
			<data destination_type="f16"/>
			<input>
				<port id="0">
					<dim>16</dim>
					<dim>1</dim>
					<dim>3</dim>
					<dim>3</dim>
				</port>
			</input>
			<output>
				<port id="1" precision="FP16">
					<dim>16</dim>
					<dim>1</dim>
					<dim>3</dim>
					<dim>3</dim>
				</port>
			</output>
		</layer>
		<layer id="157" name="Conv_15/WithoutBiases/fq_weights_1/zero_point1443622106" type="Const" version="opset1">
			<data element_type="f16" offset="945" shape="16,1,1,1" size="32"/>
			<output>
				<port id="0" precision="FP16">
					<dim>16</dim>
					<dim>1</dim>
					<dim>1</dim>
					<dim>1</dim>
				</port>
			</output>
		</layer>
		<layer id="158" name="Conv_15/WithoutBiases/fq_weights_1/minus_zp" type="Subtract" version="opset1">
			<data auto_broadcast="numpy"/>
			<input>
				<port id="0">
					<dim>16</dim>
					<dim>1</dim>
					<dim>3</dim>
					<dim>3</dim>
				</port>
				<port id="1">
					<dim>16</dim>
					<dim>1</dim>
					<dim>1</dim>
					<dim>1</dim>
				</port>
			</input>
			<output>
				<port id="2" precision="FP16">
					<dim>16</dim>
					<dim>1</dim>
					<dim>3</dim>
					<dim>3</dim>
				</port>
			</output>
		</layer>
		<layer id="159" name="Conv_15/WithoutBiases/fq_weights_1/scale1443125382" type="Const" version="opset1">
			<data element_type="f16" offset="977" shape="16,1,1,1" size="32"/>
			<output>
				<port id="0" precision="FP16">
					<dim>16</dim>
					<dim>1</dim>
					<dim>1</dim>
					<dim>1</dim>
				</port>
			</output>
		</layer>
		<layer id="160" name="Conv_15/WithoutBiases/fq_weights_1/mulpiply_by_scale" type="Multiply" version="opset1">
			<data auto_broadcast="numpy"/>
			<input>
				<port id="0">
					<dim>16</dim>
					<dim>1</dim>
					<dim>3</dim>
					<dim>3</dim>
				</port>
				<port id="1">
					<dim>16</dim>
					<dim>1</dim>
					<dim>1</dim>
					<dim>1</dim>
				</port>
			</input>
			<output>
				<port id="2" precision="FP16">
					<dim>16</dim>
					<dim>1</dim>
					<dim>3</dim>
					<dim>3</dim>
				</port>
			</output>
		</layer>
		<layer id="161" name="18774" type="Reshape" version="opset1">
			<data special_zero="true"/>
			<input>
				<port id="0">
					<dim>16</dim>
					<dim>1</dim>
					<dim>3</dim>
					<dim>3</dim>
				</port>
				<port id="1">
					<dim>5</dim>
				</port>
			</input>
			<output>
				<port id="2" precision="FP16">
					<dim>16</dim>
					<dim>1</dim>
					<dim>1</dim>
					<dim>3</dim>
					<dim>3</dim>
				</port>
			</output>
		</layer>
		<layer id="162" name="Conv_15/WithoutBiases" type="GroupConvolution" version="opset1">
			<data auto_pad="explicit" dilations="1,1" pads_begin="1,1" pads_end="1,1" strides="1,1"/>
			<input>
				<port id="0">
					<dim>1</dim>
					<dim>16</dim>
					<dim>135</dim>
					<dim>240</dim>
				</port>
				<port id="1">
					<dim>16</dim>
					<dim>1</dim>
					<dim>1</dim>
					<dim>3</dim>
					<dim>3</dim>
				</port>
			</input>
			<output>
				<port id="2" precision="FP16">
					<dim>1</dim>
					<dim>16</dim>
					<dim>135</dim>
					<dim>240</dim>
				</port>
			</output>
		</layer>
		<layer id="163" name="Conv_15/Dims9139116421602" type="Const" version="opset1">
			<data element_type="f16" offset="1009" shape="1,16,1,1" size="32"/>
			<output>
				<port id="0" precision="FP16">
					<dim>1</dim>
					<dim>16</dim>
					<dim>1</dim>
					<dim>1</dim>
				</port>
			</output>
		</layer>
		<layer id="164" name="Conv_15" type="Add" version="opset1">
			<data auto_broadcast="numpy"/>
			<input>
				<port id="0">
					<dim>1</dim>
					<dim>16</dim>
					<dim>135</dim>
					<dim>240</dim>
				</port>
				<port id="1">
					<dim>1</dim>
					<dim>16</dim>
					<dim>1</dim>
					<dim>1</dim>
				</port>
			</input>
			<output>
				<port id="2" names="1088" precision="FP16">
					<dim>1</dim>
					<dim>16</dim>
					<dim>135</dim>
					<dim>240</dim>
				</port>
			</output>
		</layer>
		<layer id="165" name="Relu_16" type="ReLU" version="opset1">
			<input>
				<port id="0">
					<dim>1</dim>
					<dim>16</dim>
					<dim>135</dim>
					<dim>240</dim>
				</port>
			</input>
			<output>
				<port id="1" names="402" precision="FP16">
					<dim>1</dim>
					<dim>16</dim>
					<dim>135</dim>
					<dim>240</dim>
				</port>
			</output>
		</layer>
		<layer id="166" name="Conv_17/WithoutBiases/fq_input_0" type="FakeQuantize" version="opset1">
			<data auto_broadcast="numpy" levels="256"/>
			<input>
				<port id="0">
					<dim>1</dim>
					<dim>16</dim>
					<dim>135</dim>
					<dim>240</dim>
				</port>
				<port id="1"/>
				<port id="2"/>
				<port id="3"/>
				<port id="4"/>
			</input>
			<output>
				<port id="5" precision="FP16">
					<dim>1</dim>
					<dim>16</dim>
					<dim>135</dim>
					<dim>240</dim>
				</port>
			</output>
		</layer>
		<layer id="167" name="1092116712198/quantized1413521701" type="Const" version="opset1">
			<data element_type="i8" offset="1041" shape="16,16,1,1" size="256"/>
			<output>
				<port id="0" precision="I8">
					<dim>16</dim>
					<dim>16</dim>
					<dim>1</dim>
					<dim>1</dim>
				</port>
			</output>
		</layer>
		<layer id="168" name="1092116712198/quantized/to_f16" type="Convert" version="opset1">
			<data destination_type="f16"/>
			<input>
				<port id="0">
					<dim>16</dim>
					<dim>16</dim>
					<dim>1</dim>
					<dim>1</dim>
				</port>
			</input>
			<output>
				<port id="1" precision="FP16">
					<dim>16</dim>
					<dim>16</dim>
					<dim>1</dim>
					<dim>1</dim>
				</port>
			</output>
		</layer>
		<layer id="169" name="Conv_17/WithoutBiases/fq_weights_1/zero_point1414825328" type="Const" version="opset1">
			<data element_type="f16" offset="1297" shape="16,1,1,1" size="32"/>
			<output>
				<port id="0" precision="FP16">
					<dim>16</dim>
					<dim>1</dim>
					<dim>1</dim>
					<dim>1</dim>
				</port>
			</output>
		</layer>
		<layer id="170" name="Conv_17/WithoutBiases/fq_weights_1/minus_zp" type="Subtract" version="opset1">
			<data auto_broadcast="numpy"/>
			<input>
				<port id="0">
					<dim>16</dim>
					<dim>16</dim>
					<dim>1</dim>
					<dim>1</dim>
				</port>
				<port id="1">
					<dim>16</dim>
					<dim>1</dim>
					<dim>1</dim>
					<dim>1</dim>
				</port>
			</input>
			<output>
				<port id="2" precision="FP16">
					<dim>16</dim>
					<dim>16</dim>
					<dim>1</dim>
					<dim>1</dim>
				</port>
			</output>
		</layer>
		<layer id="171" name="Conv_17/WithoutBiases/fq_weights_1/scale1414322382" type="Const" version="opset1">
			<data element_type="f16" offset="1329" shape="16,1,1,1" size="32"/>
			<output>
				<port id="0" precision="FP16">
					<dim>16</dim>
					<dim>1</dim>
					<dim>1</dim>
					<dim>1</dim>
				</port>
			</output>
		</layer>
		<layer id="172" name="Conv_17/WithoutBiases/fq_weights_1/mulpiply_by_scale" type="Multiply" version="opset1">
			<data auto_broadcast="numpy"/>
			<input>
				<port id="0">
					<dim>16</dim>
					<dim>16</dim>
					<dim>1</dim>
					<dim>1</dim>
				</port>
				<port id="1">
					<dim>16</dim>
					<dim>1</dim>
					<dim>1</dim>
					<dim>1</dim>
				</port>
			</input>
			<output>
				<port id="2" precision="FP16">
					<dim>16</dim>
					<dim>16</dim>
					<dim>1</dim>
					<dim>1</dim>
				</port>
			</output>
		</layer>
		<layer id="173" name="Conv_17/WithoutBiases" type="Convolution" version="opset1">
			<data auto_pad="explicit" dilations="1,1" pads_begin="0,0" pads_end="0,0" strides="1,1"/>
			<input>
				<port id="0">
					<dim>1</dim>
					<dim>16</dim>
					<dim>135</dim>
					<dim>240</dim>
				</port>
				<port id="1">
					<dim>16</dim>
					<dim>16</dim>
					<dim>1</dim>
					<dim>1</dim>
				</port>
			</input>
			<output>
				<port id="2" precision="FP16">
					<dim>1</dim>
					<dim>16</dim>
					<dim>135</dim>
					<dim>240</dim>
				</port>
			</output>
		</layer>
		<layer id="174" name="Conv_17/Dims9061116923960" type="Const" version="opset1">
			<data element_type="f16" offset="1361" shape="1,16,1,1" size="32"/>
			<output>
				<port id="0" precision="FP16">
					<dim>1</dim>
					<dim>16</dim>
					<dim>1</dim>
					<dim>1</dim>
				</port>
			</output>
		</layer>
		<layer id="175" name="Conv_17" type="Add" version="opset1">
			<data auto_broadcast="numpy"/>
			<input>
				<port id="0">
					<dim>1</dim>
					<dim>16</dim>
					<dim>135</dim>
					<dim>240</dim>
				</port>
				<port id="1">
					<dim>1</dim>
					<dim>16</dim>
					<dim>1</dim>
					<dim>1</dim>
				</port>
			</input>
			<output>
				<port id="2" names="1091" precision="FP16">
					<dim>1</dim>
					<dim>16</dim>
					<dim>135</dim>
					<dim>240</dim>
				</port>
			</output>
		</layer>
		<layer id="176" name="Add_18/fq_input_0" type="FakeQuantize" version="opset1">
			<data auto_broadcast="numpy" levels="256"/>
			<input>
				<port id="0">
					<dim>1</dim>
					<dim>16</dim>
					<dim>135</dim>
					<dim>240</dim>
				</port>
				<port id="1"/>
				<port id="2"/>
				<port id="3"/>
				<port id="4"/>
			</input>
			<output>
				<port id="5" precision="FP16">
					<dim>1</dim>
					<dim>16</dim>
					<dim>135</dim>
					<dim>240</dim>
				</port>
			</output>
		</layer>
		<layer id="177" name="Add_18" type="Add" version="opset1">
			<data auto_broadcast="numpy"/>
			<input>
				<port id="0">
					<dim>1</dim>
					<dim>16</dim>
					<dim>135</dim>
					<dim>240</dim>
				</port>
				<port id="1">
					<dim>1</dim>
					<dim>16</dim>
					<dim>135</dim>
					<dim>240</dim>
				</port>
			</input>
			<output>
				<port id="2" names="405" precision="FP16">
					<dim>1</dim>
					<dim>16</dim>
					<dim>135</dim>
					<dim>240</dim>
				</port>
			</output>
		</layer>
		<layer id="178" name="Concat_464/fq_input_1" type="FakeQuantize" version="opset1">
			<data auto_broadcast="numpy" levels="256"/>
			<input>
				<port id="0">
					<dim>1</dim>
					<dim>16</dim>
					<dim>135</dim>
					<dim>240</dim>
				</port>
				<port id="1"/>
				<port id="2"/>
				<port id="3"/>
				<port id="4"/>
			</input>
			<output>
				<port id="5" precision="FP16">
					<dim>1</dim>
					<dim>16</dim>
					<dim>135</dim>
					<dim>240</dim>
				</port>
			</output>
		</layer>
		<layer id="179" name="8553855724725" type="Const" version="opset1">
			<data element_type="f16" offset="1393" shape="" size="2"/>
			<output>
				<port id="0" precision="FP16"/>
			</output>
		</layer>
		<layer id="180" name="8554855825364" type="Const" version="opset1">
			<data element_type="f16" offset="1395" shape="" size="2"/>
			<output>
				<port id="0" precision="FP16"/>
			</output>
		</layer>
		<layer id="181" name="8555855923474" type="Const" version="opset1">
			<data element_type="f16" offset="1393" shape="" size="2"/>
			<output>
				<port id="0" precision="FP16"/>
			</output>
		</layer>
		<layer id="182" name="8556856022934" type="Const" version="opset1">
			<data element_type="f16" offset="1395" shape="" size="2"/>
			<output>
				<port id="0" precision="FP16"/>
			</output>
		</layer>
		<layer id="183" name="Resize_451/StridedSlice_scales727641228197623393" type="Const" version="opset1">
			<data element_type="f32" offset="167" shape="2" size="8"/>
			<output>
				<port id="0" precision="FP32">
					<dim>2</dim>
				</port>
			</output>
		</layer>
		<layer id="184" name="Resize_451/axis726041123197725295" type="Const" version="opset1">
			<data element_type="i64" offset="58" shape="2" size="16"/>
			<output>
				<port id="0" precision="I64">
					<dim>2</dim>
				</port>
			</output>
		</layer>
		<layer id="185" name="8953895724401" type="Const" version="opset1">
			<data element_type="f16" offset="1397" shape="" size="2"/>
			<output>
				<port id="0" precision="FP16"/>
			</output>
		</layer>
		<layer id="186" name="8954895822442" type="Const" version="opset1">
			<data element_type="f16" offset="1399" shape="" size="2"/>
			<output>
				<port id="0" precision="FP16"/>
			</output>
		</layer>
		<layer id="187" name="8955895922268" type="Const" version="opset1">
			<data element_type="f16" offset="1397" shape="" size="2"/>
			<output>
				<port id="0" precision="FP16"/>
			</output>
		</layer>
		<layer id="188" name="8956896021842" type="Const" version="opset1">
			<data element_type="f16" offset="1399" shape="" size="2"/>
			<output>
				<port id="0" precision="FP16"/>
			</output>
		</layer>
		<layer id="189" name="4623462725298" type="Const" version="opset1">
			<data element_type="f16" offset="157" shape="" size="2"/>
			<output>
				<port id="0" precision="FP16"/>
			</output>
		</layer>
		<layer id="190" name="4624462823672" type="Const" version="opset1">
			<data element_type="f16" offset="179" shape="" size="2"/>
			<output>
				<port id="0" precision="FP16"/>
			</output>
		</layer>
		<layer id="191" name="4625462922028" type="Const" version="opset1">
			<data element_type="f16" offset="157" shape="" size="2"/>
			<output>
				<port id="0" precision="FP16"/>
			</output>
		</layer>
		<layer id="192" name="4626463024161" type="Const" version="opset1">
			<data element_type="f16" offset="179" shape="" size="2"/>
			<output>
				<port id="0" precision="FP16"/>
			</output>
		</layer>
		<layer id="193" name="ConstantOfShape_435/Broadcast/FillValue190623558" type="Const" version="opset1">
			<data element_type="f16" offset="157" shape="1" size="2"/>
			<output>
				<port id="0" precision="FP16">
					<dim>1</dim>
				</port>
			</output>
		</layer>
		<layer id="194" name="Split_408/VariadicSplit_input_port_1/value190124605" type="Const" version="opset1">
			<data element_type="i64" offset="76" shape="" size="8"/>
			<output>
				<port id="0" precision="I64"/>
			</output>
		</layer>
		<layer id="195" name="Split_408/VariadicSplit_input_port_2/value190223969" type="Const" version="opset1">
			<data element_type="i64" offset="1401" shape="2" size="16"/>
			<output>
				<port id="0" precision="I64">
					<dim>2</dim>
				</port>
			</output>
		</layer>
		<layer id="196" name="8473847721938" type="Const" version="opset1">
			<data element_type="f16" offset="157" shape="" size="2"/>
			<output>
				<port id="0" precision="FP16"/>
			</output>
		</layer>
		<layer id="197" name="8474847822286" type="Const" version="opset1">
			<data element_type="f16" offset="1417" shape="" size="2"/>
			<output>
				<port id="0" precision="FP16"/>
			</output>
		</layer>
		<layer id="198" name="8475847922817" type="Const" version="opset1">
			<data element_type="f16" offset="157" shape="" size="2"/>
			<output>
				<port id="0" precision="FP16"/>
			</output>
		</layer>
		<layer id="199" name="8476848024419" type="Const" version="opset1">
			<data element_type="f16" offset="1417" shape="" size="2"/>
			<output>
				<port id="0" precision="FP16"/>
			</output>
		</layer>
		<layer id="200" name="8423842724938" type="Const" version="opset1">
			<data element_type="f16" offset="1419" shape="" size="2"/>
			<output>
				<port id="0" precision="FP16"/>
			</output>
		</layer>
		<layer id="201" name="8424842825028" type="Const" version="opset1">
			<data element_type="f16" offset="1421" shape="" size="2"/>
			<output>
				<port id="0" precision="FP16"/>
			</output>
		</layer>
		<layer id="202" name="8425842925478" type="Const" version="opset1">
			<data element_type="f16" offset="1419" shape="" size="2"/>
			<output>
				<port id="0" precision="FP16"/>
			</output>
		</layer>
		<layer id="203" name="8426843024989" type="Const" version="opset1">
			<data element_type="f16" offset="1421" shape="" size="2"/>
			<output>
				<port id="0" precision="FP16"/>
			</output>
		</layer>
		<layer id="204" name="5843584722751" type="Const" version="opset1">
			<data element_type="f16" offset="1423" shape="" size="2"/>
			<output>
				<port id="0" precision="FP16"/>
			</output>
		</layer>
		<layer id="205" name="5844584824320" type="Const" version="opset1">
			<data element_type="f16" offset="1425" shape="" size="2"/>
			<output>
				<port id="0" precision="FP16"/>
			</output>
		</layer>
		<layer id="206" name="5845584922883" type="Const" version="opset1">
			<data element_type="f16" offset="1423" shape="" size="2"/>
			<output>
				<port id="0" precision="FP16"/>
			</output>
		</layer>
		<layer id="207" name="5846585023483" type="Const" version="opset1">
			<data element_type="f16" offset="1425" shape="" size="2"/>
			<output>
				<port id="0" precision="FP16"/>
			</output>
		</layer>
		<layer id="208" name="4723472724023" type="Const" version="opset1">
			<data element_type="f16" offset="157" shape="" size="2"/>
			<output>
				<port id="0" precision="FP16"/>
			</output>
		</layer>
		<layer id="209" name="4724472825118" type="Const" version="opset1">
			<data element_type="f16" offset="1427" shape="" size="2"/>
			<output>
				<port id="0" precision="FP16"/>
			</output>
		</layer>
		<layer id="210" name="4725472921866" type="Const" version="opset1">
			<data element_type="f16" offset="157" shape="" size="2"/>
			<output>
				<port id="0" precision="FP16"/>
			</output>
		</layer>
		<layer id="211" name="4726473023891" type="Const" version="opset1">
			<data element_type="f16" offset="1427" shape="" size="2"/>
			<output>
				<port id="0" precision="FP16"/>
			</output>
		</layer>
		<layer id="212" name="3893389724182" type="Const" version="opset1">
			<data element_type="f16" offset="1429" shape="1,72,1,1" size="144"/>
			<output>
				<port id="0" precision="FP16">
					<dim>1</dim>
					<dim>72</dim>
					<dim>1</dim>
					<dim>1</dim>
				</port>
			</output>
		</layer>
		<layer id="213" name="3894389824347" type="Const" version="opset1">
			<data element_type="f16" offset="1573" shape="1,72,1,1" size="144"/>
			<output>
				<port id="0" precision="FP16">
					<dim>1</dim>
					<dim>72</dim>
					<dim>1</dim>
					<dim>1</dim>
				</port>
			</output>
		</layer>
		<layer id="214" name="3895389923525" type="Const" version="opset1">
			<data element_type="f16" offset="1429" shape="1,72,1,1" size="144"/>
			<output>
				<port id="0" precision="FP16">
					<dim>1</dim>
					<dim>72</dim>
					<dim>1</dim>
					<dim>1</dim>
				</port>
			</output>
		</layer>
		<layer id="215" name="3896390023774" type="Const" version="opset1">
			<data element_type="f16" offset="1573" shape="1,72,1,1" size="144"/>
			<output>
				<port id="0" precision="FP16">
					<dim>1</dim>
					<dim>72</dim>
					<dim>1</dim>
					<dim>1</dim>
				</port>
			</output>
		</layer>
		<layer id="216" name="5853585724980" type="Const" version="opset1">
			<data element_type="f16" offset="1717" shape="" size="2"/>
			<output>
				<port id="0" precision="FP16"/>
			</output>
		</layer>
		<layer id="217" name="5854585822391" type="Const" version="opset1">
			<data element_type="f16" offset="1719" shape="" size="2"/>
			<output>
				<port id="0" precision="FP16"/>
			</output>
		</layer>
		<layer id="218" name="5855585924995" type="Const" version="opset1">
			<data element_type="f16" offset="1717" shape="" size="2"/>
			<output>
				<port id="0" precision="FP16"/>
			</output>
		</layer>
		<layer id="219" name="5856586024734" type="Const" version="opset1">
			<data element_type="f16" offset="1719" shape="" size="2"/>
			<output>
				<port id="0" precision="FP16"/>
			</output>
		</layer>
		<layer id="220" name="5733573722841" type="Const" version="opset1">
			<data element_type="f16" offset="157" shape="" size="2"/>
			<output>
				<port id="0" precision="FP16"/>
			</output>
		</layer>
		<layer id="221" name="5734573824845" type="Const" version="opset1">
			<data element_type="f16" offset="1721" shape="" size="2"/>
			<output>
				<port id="0" precision="FP16"/>
			</output>
		</layer>
		<layer id="222" name="5735573924590" type="Const" version="opset1">
			<data element_type="f16" offset="157" shape="" size="2"/>
			<output>
				<port id="0" precision="FP16"/>
			</output>
		</layer>
		<layer id="223" name="5736574022148" type="Const" version="opset1">
			<data element_type="f16" offset="1721" shape="" size="2"/>
			<output>
				<port id="0" precision="FP16"/>
			</output>
		</layer>
		<layer id="224" name="4853485721845" type="Const" version="opset1">
			<data element_type="f16" offset="1723" shape="1,64,1,1" size="128"/>
			<output>
				<port id="0" precision="FP16">
					<dim>1</dim>
					<dim>64</dim>
					<dim>1</dim>
					<dim>1</dim>
				</port>
			</output>
		</layer>
		<layer id="225" name="4854485823462" type="Const" version="opset1">
			<data element_type="f16" offset="1851" shape="1,64,1,1" size="128"/>
			<output>
				<port id="0" precision="FP16">
					<dim>1</dim>
					<dim>64</dim>
					<dim>1</dim>
					<dim>1</dim>
				</port>
			</output>
		</layer>
		<layer id="226" name="4855485923627" type="Const" version="opset1">
			<data element_type="f16" offset="1723" shape="1,64,1,1" size="128"/>
			<output>
				<port id="0" precision="FP16">
					<dim>1</dim>
					<dim>64</dim>
					<dim>1</dim>
					<dim>1</dim>
				</port>
			</output>
		</layer>
		<layer id="227" name="4856486024677" type="Const" version="opset1">
			<data element_type="f16" offset="1851" shape="1,64,1,1" size="128"/>
			<output>
				<port id="0" precision="FP16">
					<dim>1</dim>
					<dim>64</dim>
					<dim>1</dim>
					<dim>1</dim>
				</port>
			</output>
		</layer>
		<layer id="228" name="1095117212200/quantized1473524494" type="Const" version="opset1">
			<data element_type="i8" offset="1979" shape="64,16,1,1" size="1024"/>
			<output>
				<port id="0" precision="I8">
					<dim>64</dim>
					<dim>16</dim>
					<dim>1</dim>
					<dim>1</dim>
				</port>
			</output>
		</layer>
		<layer id="229" name="1095117212200/quantized/to_f16" type="Convert" version="opset1">
			<data destination_type="f16"/>
			<input>
				<port id="0">
					<dim>64</dim>
					<dim>16</dim>
					<dim>1</dim>
					<dim>1</dim>
				</port>
			</input>
			<output>
				<port id="1" precision="FP16">
					<dim>64</dim>
					<dim>16</dim>
					<dim>1</dim>
					<dim>1</dim>
				</port>
			</output>
		</layer>
		<layer id="230" name="Conv_19/WithoutBiases/fq_weights_1/zero_point1474823723" type="Const" version="opset1">
			<data element_type="f16" offset="3003" shape="64,1,1,1" size="128"/>
			<output>
				<port id="0" precision="FP16">
					<dim>64</dim>
					<dim>1</dim>
					<dim>1</dim>
					<dim>1</dim>
				</port>
			</output>
		</layer>
		<layer id="231" name="Conv_19/WithoutBiases/fq_weights_1/minus_zp" type="Subtract" version="opset1">
			<data auto_broadcast="numpy"/>
			<input>
				<port id="0">
					<dim>64</dim>
					<dim>16</dim>
					<dim>1</dim>
					<dim>1</dim>
				</port>
				<port id="1">
					<dim>64</dim>
					<dim>1</dim>
					<dim>1</dim>
					<dim>1</dim>
				</port>
			</input>
			<output>
				<port id="2" precision="FP16">
					<dim>64</dim>
					<dim>16</dim>
					<dim>1</dim>
					<dim>1</dim>
				</port>
			</output>
		</layer>
		<layer id="232" name="Conv_19/WithoutBiases/fq_weights_1/scale1474324047" type="Const" version="opset1">
			<data element_type="f16" offset="3131" shape="64,1,1,1" size="128"/>
			<output>
				<port id="0" precision="FP16">
					<dim>64</dim>
					<dim>1</dim>
					<dim>1</dim>
					<dim>1</dim>
				</port>
			</output>
		</layer>
		<layer id="233" name="Conv_19/WithoutBiases/fq_weights_1/mulpiply_by_scale" type="Multiply" version="opset1">
			<data auto_broadcast="numpy"/>
			<input>
				<port id="0">
					<dim>64</dim>
					<dim>16</dim>
					<dim>1</dim>
					<dim>1</dim>
				</port>
				<port id="1">
					<dim>64</dim>
					<dim>1</dim>
					<dim>1</dim>
					<dim>1</dim>
				</port>
			</input>
			<output>
				<port id="2" precision="FP16">
					<dim>64</dim>
					<dim>16</dim>
					<dim>1</dim>
					<dim>1</dim>
				</port>
			</output>
		</layer>
		<layer id="234" name="Conv_19/WithoutBiases" type="Convolution" version="opset1">
			<data auto_pad="explicit" dilations="1,1" pads_begin="0,0" pads_end="0,0" strides="1,1"/>
			<input>
				<port id="0">
					<dim>1</dim>
					<dim>16</dim>
					<dim>135</dim>
					<dim>240</dim>
				</port>
				<port id="1">
					<dim>64</dim>
					<dim>16</dim>
					<dim>1</dim>
					<dim>1</dim>
				</port>
			</input>
			<output>
				<port id="2" precision="FP16">
					<dim>1</dim>
					<dim>64</dim>
					<dim>135</dim>
					<dim>240</dim>
				</port>
			</output>
		</layer>
		<layer id="235" name="Conv_19/Dims9193117424833" type="Const" version="opset1">
			<data element_type="f16" offset="3259" shape="1,64,1,1" size="128"/>
			<output>
				<port id="0" precision="FP16">
					<dim>1</dim>
					<dim>64</dim>
					<dim>1</dim>
					<dim>1</dim>
				</port>
			</output>
		</layer>
		<layer id="236" name="Conv_19" type="Add" version="opset1">
			<data auto_broadcast="numpy"/>
			<input>
				<port id="0">
					<dim>1</dim>
					<dim>64</dim>
					<dim>135</dim>
					<dim>240</dim>
				</port>
				<port id="1">
					<dim>1</dim>
					<dim>64</dim>
					<dim>1</dim>
					<dim>1</dim>
				</port>
			</input>
			<output>
				<port id="2" names="1094" precision="FP16">
					<dim>1</dim>
					<dim>64</dim>
					<dim>135</dim>
					<dim>240</dim>
				</port>
			</output>
		</layer>
		<layer id="237" name="Relu_20" type="ReLU" version="opset1">
			<input>
				<port id="0">
					<dim>1</dim>
					<dim>64</dim>
					<dim>135</dim>
					<dim>240</dim>
				</port>
			</input>
			<output>
				<port id="1" names="408" precision="FP16">
					<dim>1</dim>
					<dim>64</dim>
					<dim>135</dim>
					<dim>240</dim>
				</port>
			</output>
		</layer>
		<layer id="238" name="Conv_21/WithoutBiases/fq_input_0" type="FakeQuantize" version="opset1">
			<data auto_broadcast="numpy" levels="256"/>
			<input>
				<port id="0">
					<dim>1</dim>
					<dim>64</dim>
					<dim>135</dim>
					<dim>240</dim>
				</port>
				<port id="1">
					<dim>1</dim>
					<dim>64</dim>
					<dim>1</dim>
					<dim>1</dim>
				</port>
				<port id="2">
					<dim>1</dim>
					<dim>64</dim>
					<dim>1</dim>
					<dim>1</dim>
				</port>
				<port id="3">
					<dim>1</dim>
					<dim>64</dim>
					<dim>1</dim>
					<dim>1</dim>
				</port>
				<port id="4">
					<dim>1</dim>
					<dim>64</dim>
					<dim>1</dim>
					<dim>1</dim>
				</port>
			</input>
			<output>
				<port id="5" precision="FP16">
					<dim>1</dim>
					<dim>64</dim>
					<dim>135</dim>
					<dim>240</dim>
				</port>
			</output>
		</layer>
		<layer id="239" name="18778/value1878022037" type="Const" version="opset1">
			<data element_type="i64" offset="3387" shape="5" size="40"/>
			<output>
				<port id="0" precision="I64">
					<dim>5</dim>
				</port>
			</output>
		</layer>
		<layer id="240" name="1098117712202/quantized1389525073" type="Const" version="opset1">
			<data element_type="i8" offset="3427" shape="64,1,3,3" size="576"/>
			<output>
				<port id="0" precision="I8">
					<dim>64</dim>
					<dim>1</dim>
					<dim>3</dim>
					<dim>3</dim>
				</port>
			</output>
		</layer>
		<layer id="241" name="1098117712202/quantized/to_f16" type="Convert" version="opset1">
			<data destination_type="f16"/>
			<input>
				<port id="0">
					<dim>64</dim>
					<dim>1</dim>
					<dim>3</dim>
					<dim>3</dim>
				</port>
			</input>
			<output>
				<port id="1" precision="FP16">
					<dim>64</dim>
					<dim>1</dim>
					<dim>3</dim>
					<dim>3</dim>
				</port>
			</output>
		</layer>
		<layer id="242" name="Conv_21/WithoutBiases/fq_weights_1/zero_point1390823414" type="Const" version="opset1">
			<data element_type="f16" offset="4003" shape="64,1,1,1" size="128"/>
			<output>
				<port id="0" precision="FP16">
					<dim>64</dim>
					<dim>1</dim>
					<dim>1</dim>
					<dim>1</dim>
				</port>
			</output>
		</layer>
		<layer id="243" name="Conv_21/WithoutBiases/fq_weights_1/minus_zp" type="Subtract" version="opset1">
			<data auto_broadcast="numpy"/>
			<input>
				<port id="0">
					<dim>64</dim>
					<dim>1</dim>
					<dim>3</dim>
					<dim>3</dim>
				</port>
				<port id="1">
					<dim>64</dim>
					<dim>1</dim>
					<dim>1</dim>
					<dim>1</dim>
				</port>
			</input>
			<output>
				<port id="2" precision="FP16">
					<dim>64</dim>
					<dim>1</dim>
					<dim>3</dim>
					<dim>3</dim>
				</port>
			</output>
		</layer>
		<layer id="244" name="Conv_21/WithoutBiases/fq_weights_1/scale1390323576" type="Const" version="opset1">
			<data element_type="f16" offset="4131" shape="64,1,1,1" size="128"/>
			<output>
				<port id="0" precision="FP16">
					<dim>64</dim>
					<dim>1</dim>
					<dim>1</dim>
					<dim>1</dim>
				</port>
			</output>
		</layer>
		<layer id="245" name="Conv_21/WithoutBiases/fq_weights_1/mulpiply_by_scale" type="Multiply" version="opset1">
			<data auto_broadcast="numpy"/>
			<input>
				<port id="0">
					<dim>64</dim>
					<dim>1</dim>
					<dim>3</dim>
					<dim>3</dim>
				</port>
				<port id="1">
					<dim>64</dim>
					<dim>1</dim>
					<dim>1</dim>
					<dim>1</dim>
				</port>
			</input>
			<output>
				<port id="2" precision="FP16">
					<dim>64</dim>
					<dim>1</dim>
					<dim>3</dim>
					<dim>3</dim>
				</port>
			</output>
		</layer>
		<layer id="246" name="18778" type="Reshape" version="opset1">
			<data special_zero="true"/>
			<input>
				<port id="0">
					<dim>64</dim>
					<dim>1</dim>
					<dim>3</dim>
					<dim>3</dim>
				</port>
				<port id="1">
					<dim>5</dim>
				</port>
			</input>
			<output>
				<port id="2" precision="FP16">
					<dim>64</dim>
					<dim>1</dim>
					<dim>1</dim>
					<dim>3</dim>
					<dim>3</dim>
				</port>
			</output>
		</layer>
		<layer id="247" name="Conv_21/WithoutBiases" type="GroupConvolution" version="opset1">
			<data auto_pad="explicit" dilations="1,1" pads_begin="1,1" pads_end="1,1" strides="2,2"/>
			<input>
				<port id="0">
					<dim>1</dim>
					<dim>64</dim>
					<dim>135</dim>
					<dim>240</dim>
				</port>
				<port id="1">
					<dim>64</dim>
					<dim>1</dim>
					<dim>1</dim>
					<dim>3</dim>
					<dim>3</dim>
				</port>
			</input>
			<output>
				<port id="2" precision="FP16">
					<dim>1</dim>
					<dim>64</dim>
					<dim>68</dim>
					<dim>120</dim>
				</port>
			</output>
		</layer>
		<layer id="248" name="Conv_21/Dims9175117923486" type="Const" version="opset1">
			<data element_type="f16" offset="4259" shape="1,64,1,1" size="128"/>
			<output>
				<port id="0" precision="FP16">
					<dim>1</dim>
					<dim>64</dim>
					<dim>1</dim>
					<dim>1</dim>
				</port>
			</output>
		</layer>
		<layer id="249" name="Conv_21" type="Add" version="opset1">
			<data auto_broadcast="numpy"/>
			<input>
				<port id="0">
					<dim>1</dim>
					<dim>64</dim>
					<dim>68</dim>
					<dim>120</dim>
				</port>
				<port id="1">
					<dim>1</dim>
					<dim>64</dim>
					<dim>1</dim>
					<dim>1</dim>
				</port>
			</input>
			<output>
				<port id="2" names="1097" precision="FP16">
					<dim>1</dim>
					<dim>64</dim>
					<dim>68</dim>
					<dim>120</dim>
				</port>
			</output>
		</layer>
		<layer id="250" name="Relu_22" type="ReLU" version="opset1">
			<input>
				<port id="0">
					<dim>1</dim>
					<dim>64</dim>
					<dim>68</dim>
					<dim>120</dim>
				</port>
			</input>
			<output>
				<port id="1" names="411" precision="FP16">
					<dim>1</dim>
					<dim>64</dim>
					<dim>68</dim>
					<dim>120</dim>
				</port>
			</output>
		</layer>
		<layer id="251" name="Conv_23/WithoutBiases/fq_input_0" type="FakeQuantize" version="opset1">
			<data auto_broadcast="numpy" levels="256"/>
			<input>
				<port id="0">
					<dim>1</dim>
					<dim>64</dim>
					<dim>68</dim>
					<dim>120</dim>
				</port>
				<port id="1"/>
				<port id="2"/>
				<port id="3"/>
				<port id="4"/>
			</input>
			<output>
				<port id="5" precision="FP16">
					<dim>1</dim>
					<dim>64</dim>
					<dim>68</dim>
					<dim>120</dim>
				</port>
			</output>
		</layer>
		<layer id="252" name="1101118212204/quantized1471125424" type="Const" version="opset1">
			<data element_type="i8" offset="4387" shape="24,64,1,1" size="1536"/>
			<output>
				<port id="0" precision="I8">
					<dim>24</dim>
					<dim>64</dim>
					<dim>1</dim>
					<dim>1</dim>
				</port>
			</output>
		</layer>
		<layer id="253" name="1101118212204/quantized/to_f16" type="Convert" version="opset1">
			<data destination_type="f16"/>
			<input>
				<port id="0">
					<dim>24</dim>
					<dim>64</dim>
					<dim>1</dim>
					<dim>1</dim>
				</port>
			</input>
			<output>
				<port id="1" precision="FP16">
					<dim>24</dim>
					<dim>64</dim>
					<dim>1</dim>
					<dim>1</dim>
				</port>
			</output>
		</layer>
		<layer id="254" name="Conv_23/WithoutBiases/fq_weights_1/zero_point1472422379" type="Const" version="opset1">
			<data element_type="f16" offset="5923" shape="24,1,1,1" size="48"/>
			<output>
				<port id="0" precision="FP16">
					<dim>24</dim>
					<dim>1</dim>
					<dim>1</dim>
					<dim>1</dim>
				</port>
			</output>
		</layer>
		<layer id="255" name="Conv_23/WithoutBiases/fq_weights_1/minus_zp" type="Subtract" version="opset1">
			<data auto_broadcast="numpy"/>
			<input>
				<port id="0">
					<dim>24</dim>
					<dim>64</dim>
					<dim>1</dim>
					<dim>1</dim>
				</port>
				<port id="1">
					<dim>24</dim>
					<dim>1</dim>
					<dim>1</dim>
					<dim>1</dim>
				</port>
			</input>
			<output>
				<port id="2" precision="FP16">
					<dim>24</dim>
					<dim>64</dim>
					<dim>1</dim>
					<dim>1</dim>
				</port>
			</output>
		</layer>
		<layer id="256" name="Conv_23/WithoutBiases/fq_weights_1/scale1471922337" type="Const" version="opset1">
			<data element_type="f16" offset="5971" shape="24,1,1,1" size="48"/>
			<output>
				<port id="0" precision="FP16">
					<dim>24</dim>
					<dim>1</dim>
					<dim>1</dim>
					<dim>1</dim>
				</port>
			</output>
		</layer>
		<layer id="257" name="Conv_23/WithoutBiases/fq_weights_1/mulpiply_by_scale" type="Multiply" version="opset1">
			<data auto_broadcast="numpy"/>
			<input>
				<port id="0">
					<dim>24</dim>
					<dim>64</dim>
					<dim>1</dim>
					<dim>1</dim>
				</port>
				<port id="1">
					<dim>24</dim>
					<dim>1</dim>
					<dim>1</dim>
					<dim>1</dim>
				</port>
			</input>
			<output>
				<port id="2" precision="FP16">
					<dim>24</dim>
					<dim>64</dim>
					<dim>1</dim>
					<dim>1</dim>
				</port>
			</output>
		</layer>
		<layer id="258" name="Conv_23/WithoutBiases" type="Convolution" version="opset1">
			<data auto_pad="explicit" dilations="1,1" pads_begin="0,0" pads_end="0,0" strides="1,1"/>
			<input>
				<port id="0">
					<dim>1</dim>
					<dim>64</dim>
					<dim>68</dim>
					<dim>120</dim>
				</port>
				<port id="1">
					<dim>24</dim>
					<dim>64</dim>
					<dim>1</dim>
					<dim>1</dim>
				</port>
			</input>
			<output>
				<port id="2" precision="FP16">
					<dim>1</dim>
					<dim>24</dim>
					<dim>68</dim>
					<dim>120</dim>
				</port>
			</output>
		</layer>
		<layer id="259" name="Conv_23/Dims9337118425193" type="Const" version="opset1">
			<data element_type="f16" offset="6019" shape="1,24,1,1" size="48"/>
			<output>
				<port id="0" precision="FP16">
					<dim>1</dim>
					<dim>24</dim>
					<dim>1</dim>
					<dim>1</dim>
				</port>
			</output>
		</layer>
		<layer id="260" name="Conv_23" type="Add" version="opset1">
			<data auto_broadcast="numpy"/>
			<input>
				<port id="0">
					<dim>1</dim>
					<dim>24</dim>
					<dim>68</dim>
					<dim>120</dim>
				</port>
				<port id="1">
					<dim>1</dim>
					<dim>24</dim>
					<dim>1</dim>
					<dim>1</dim>
				</port>
			</input>
			<output>
				<port id="2" names="1100" precision="FP16">
					<dim>1</dim>
					<dim>24</dim>
					<dim>68</dim>
					<dim>120</dim>
				</port>
			</output>
		</layer>
		<layer id="261" name="Add_29/fq_input_1" type="FakeQuantize" version="opset1">
			<data auto_broadcast="numpy" levels="256"/>
			<input>
				<port id="0">
					<dim>1</dim>
					<dim>24</dim>
					<dim>68</dim>
					<dim>120</dim>
				</port>
				<port id="1"/>
				<port id="2"/>
				<port id="3"/>
				<port id="4"/>
			</input>
			<output>
				<port id="5" precision="FP16">
					<dim>1</dim>
					<dim>24</dim>
					<dim>68</dim>
					<dim>120</dim>
				</port>
			</output>
		</layer>
		<layer id="262" name="1104118612206/quantized1403924437" type="Const" version="opset1">
			<data element_type="i8" offset="6067" shape="72,24,1,1" size="1728"/>
			<output>
				<port id="0" precision="I8">
					<dim>72</dim>
					<dim>24</dim>
					<dim>1</dim>
					<dim>1</dim>
				</port>
			</output>
		</layer>
		<layer id="263" name="1104118612206/quantized/to_f16" type="Convert" version="opset1">
			<data destination_type="f16"/>
			<input>
				<port id="0">
					<dim>72</dim>
					<dim>24</dim>
					<dim>1</dim>
					<dim>1</dim>
				</port>
			</input>
			<output>
				<port id="1" precision="FP16">
					<dim>72</dim>
					<dim>24</dim>
					<dim>1</dim>
					<dim>1</dim>
				</port>
			</output>
		</layer>
		<layer id="264" name="Conv_24/WithoutBiases/fq_weights_1/zero_point1405221980" type="Const" version="opset1">
			<data element_type="f16" offset="7795" shape="72,1,1,1" size="144"/>
			<output>
				<port id="0" precision="FP16">
					<dim>72</dim>
					<dim>1</dim>
					<dim>1</dim>
					<dim>1</dim>
				</port>
			</output>
		</layer>
		<layer id="265" name="Conv_24/WithoutBiases/fq_weights_1/minus_zp" type="Subtract" version="opset1">
			<data auto_broadcast="numpy"/>
			<input>
				<port id="0">
					<dim>72</dim>
					<dim>24</dim>
					<dim>1</dim>
					<dim>1</dim>
				</port>
				<port id="1">
					<dim>72</dim>
					<dim>1</dim>
					<dim>1</dim>
					<dim>1</dim>
				</port>
			</input>
			<output>
				<port id="2" precision="FP16">
					<dim>72</dim>
					<dim>24</dim>
					<dim>1</dim>
					<dim>1</dim>
				</port>
			</output>
		</layer>
		<layer id="266" name="Conv_24/WithoutBiases/fq_weights_1/scale1404724377" type="Const" version="opset1">
			<data element_type="f16" offset="7939" shape="72,1,1,1" size="144"/>
			<output>
				<port id="0" precision="FP16">
					<dim>72</dim>
					<dim>1</dim>
					<dim>1</dim>
					<dim>1</dim>
				</port>
			</output>
		</layer>
		<layer id="267" name="Conv_24/WithoutBiases/fq_weights_1/mulpiply_by_scale" type="Multiply" version="opset1">
			<data auto_broadcast="numpy"/>
			<input>
				<port id="0">
					<dim>72</dim>
					<dim>24</dim>
					<dim>1</dim>
					<dim>1</dim>
				</port>
				<port id="1">
					<dim>72</dim>
					<dim>1</dim>
					<dim>1</dim>
					<dim>1</dim>
				</port>
			</input>
			<output>
				<port id="2" precision="FP16">
					<dim>72</dim>
					<dim>24</dim>
					<dim>1</dim>
					<dim>1</dim>
				</port>
			</output>
		</layer>
		<layer id="268" name="Conv_24/WithoutBiases" type="Convolution" version="opset1">
			<data auto_pad="explicit" dilations="1,1" pads_begin="0,0" pads_end="0,0" strides="1,1"/>
			<input>
				<port id="0">
					<dim>1</dim>
					<dim>24</dim>
					<dim>68</dim>
					<dim>120</dim>
				</port>
				<port id="1">
					<dim>72</dim>
					<dim>24</dim>
					<dim>1</dim>
					<dim>1</dim>
				</port>
			</input>
			<output>
				<port id="2" precision="FP16">
					<dim>1</dim>
					<dim>72</dim>
					<dim>68</dim>
					<dim>120</dim>
				</port>
			</output>
		</layer>
		<layer id="269" name="Conv_24/Dims9307118823675" type="Const" version="opset1">
			<data element_type="f16" offset="8083" shape="1,72,1,1" size="144"/>
			<output>
				<port id="0" precision="FP16">
					<dim>1</dim>
					<dim>72</dim>
					<dim>1</dim>
					<dim>1</dim>
				</port>
			</output>
		</layer>
		<layer id="270" name="Conv_24" type="Add" version="opset1">
			<data auto_broadcast="numpy"/>
			<input>
				<port id="0">
					<dim>1</dim>
					<dim>72</dim>
					<dim>68</dim>
					<dim>120</dim>
				</port>
				<port id="1">
					<dim>1</dim>
					<dim>72</dim>
					<dim>1</dim>
					<dim>1</dim>
				</port>
			</input>
			<output>
				<port id="2" names="1103" precision="FP16">
					<dim>1</dim>
					<dim>72</dim>
					<dim>68</dim>
					<dim>120</dim>
				</port>
			</output>
		</layer>
		<layer id="271" name="Relu_25" type="ReLU" version="opset1">
			<input>
				<port id="0">
					<dim>1</dim>
					<dim>72</dim>
					<dim>68</dim>
					<dim>120</dim>
				</port>
			</input>
			<output>
				<port id="1" names="416" precision="FP16">
					<dim>1</dim>
					<dim>72</dim>
					<dim>68</dim>
					<dim>120</dim>
				</port>
			</output>
		</layer>
		<layer id="272" name="Conv_26/WithoutBiases/fq_input_0" type="FakeQuantize" version="opset1">
			<data auto_broadcast="numpy" levels="256"/>
			<input>
				<port id="0">
					<dim>1</dim>
					<dim>72</dim>
					<dim>68</dim>
					<dim>120</dim>
				</port>
				<port id="1">
					<dim>1</dim>
					<dim>72</dim>
					<dim>1</dim>
					<dim>1</dim>
				</port>
				<port id="2">
					<dim>1</dim>
					<dim>72</dim>
					<dim>1</dim>
					<dim>1</dim>
				</port>
				<port id="3">
					<dim>1</dim>
					<dim>72</dim>
					<dim>1</dim>
					<dim>1</dim>
				</port>
				<port id="4">
					<dim>1</dim>
					<dim>72</dim>
					<dim>1</dim>
					<dim>1</dim>
				</port>
			</input>
			<output>
				<port id="5" precision="FP16">
					<dim>1</dim>
					<dim>72</dim>
					<dim>68</dim>
					<dim>120</dim>
				</port>
			</output>
		</layer>
		<layer id="273" name="18782/value1878424296" type="Const" version="opset1">
			<data element_type="i64" offset="8227" shape="5" size="40"/>
			<output>
				<port id="0" precision="I64">
					<dim>5</dim>
				</port>
			</output>
		</layer>
		<layer id="274" name="1107119112208/quantized1533522775" type="Const" version="opset1">
			<data element_type="i8" offset="8267" shape="72,1,3,3" size="648"/>
			<output>
				<port id="0" precision="I8">
					<dim>72</dim>
					<dim>1</dim>
					<dim>3</dim>
					<dim>3</dim>
				</port>
			</output>
		</layer>
		<layer id="275" name="1107119112208/quantized/to_f16" type="Convert" version="opset1">
			<data destination_type="f16"/>
			<input>
				<port id="0">
					<dim>72</dim>
					<dim>1</dim>
					<dim>3</dim>
					<dim>3</dim>
				</port>
			</input>
			<output>
				<port id="1" precision="FP16">
					<dim>72</dim>
					<dim>1</dim>
					<dim>3</dim>
					<dim>3</dim>
				</port>
			</output>
		</layer>
		<layer id="276" name="Conv_26/WithoutBiases/fq_weights_1/zero_point1534822778" type="Const" version="opset1">
			<data element_type="f16" offset="8915" shape="72,1,1,1" size="144"/>
			<output>
				<port id="0" precision="FP16">
					<dim>72</dim>
					<dim>1</dim>
					<dim>1</dim>
					<dim>1</dim>
				</port>
			</output>
		</layer>
		<layer id="277" name="Conv_26/WithoutBiases/fq_weights_1/minus_zp" type="Subtract" version="opset1">
			<data auto_broadcast="numpy"/>
			<input>
				<port id="0">
					<dim>72</dim>
					<dim>1</dim>
					<dim>3</dim>
					<dim>3</dim>
				</port>
				<port id="1">
					<dim>72</dim>
					<dim>1</dim>
					<dim>1</dim>
					<dim>1</dim>
				</port>
			</input>
			<output>
				<port id="2" precision="FP16">
					<dim>72</dim>
					<dim>1</dim>
					<dim>3</dim>
					<dim>3</dim>
				</port>
			</output>
		</layer>
		<layer id="278" name="Conv_26/WithoutBiases/fq_weights_1/scale1534322502" type="Const" version="opset1">
			<data element_type="f16" offset="9059" shape="72,1,1,1" size="144"/>
			<output>
				<port id="0" precision="FP16">
					<dim>72</dim>
					<dim>1</dim>
					<dim>1</dim>
					<dim>1</dim>
				</port>
			</output>
		</layer>
		<layer id="279" name="Conv_26/WithoutBiases/fq_weights_1/mulpiply_by_scale" type="Multiply" version="opset1">
			<data auto_broadcast="numpy"/>
			<input>
				<port id="0">
					<dim>72</dim>
					<dim>1</dim>
					<dim>3</dim>
					<dim>3</dim>
				</port>
				<port id="1">
					<dim>72</dim>
					<dim>1</dim>
					<dim>1</dim>
					<dim>1</dim>
				</port>
			</input>
			<output>
				<port id="2" precision="FP16">
					<dim>72</dim>
					<dim>1</dim>
					<dim>3</dim>
					<dim>3</dim>
				</port>
			</output>
		</layer>
		<layer id="280" name="18782" type="Reshape" version="opset1">
			<data special_zero="true"/>
			<input>
				<port id="0">
					<dim>72</dim>
					<dim>1</dim>
					<dim>3</dim>
					<dim>3</dim>
				</port>
				<port id="1">
					<dim>5</dim>
				</port>
			</input>
			<output>
				<port id="2" precision="FP16">
					<dim>72</dim>
					<dim>1</dim>
					<dim>1</dim>
					<dim>3</dim>
					<dim>3</dim>
				</port>
			</output>
		</layer>
		<layer id="281" name="Conv_26/WithoutBiases" type="GroupConvolution" version="opset1">
			<data auto_pad="explicit" dilations="1,1" pads_begin="1,1" pads_end="1,1" strides="1,1"/>
			<input>
				<port id="0">
					<dim>1</dim>
					<dim>72</dim>
					<dim>68</dim>
					<dim>120</dim>
				</port>
				<port id="1">
					<dim>72</dim>
					<dim>1</dim>
					<dim>1</dim>
					<dim>3</dim>
					<dim>3</dim>
				</port>
			</input>
			<output>
				<port id="2" precision="FP16">
					<dim>1</dim>
					<dim>72</dim>
					<dim>68</dim>
					<dim>120</dim>
				</port>
			</output>
		</layer>
		<layer id="282" name="Conv_26/Dims8905119322766" type="Const" version="opset1">
			<data element_type="f16" offset="9203" shape="1,72,1,1" size="144"/>
			<output>
				<port id="0" precision="FP16">
					<dim>1</dim>
					<dim>72</dim>
					<dim>1</dim>
					<dim>1</dim>
				</port>
			</output>
		</layer>
		<layer id="283" name="Conv_26" type="Add" version="opset1">
			<data auto_broadcast="numpy"/>
			<input>
				<port id="0">
					<dim>1</dim>
					<dim>72</dim>
					<dim>68</dim>
					<dim>120</dim>
				</port>
				<port id="1">
					<dim>1</dim>
					<dim>72</dim>
					<dim>1</dim>
					<dim>1</dim>
				</port>
			</input>
			<output>
				<port id="2" names="1106" precision="FP16">
					<dim>1</dim>
					<dim>72</dim>
					<dim>68</dim>
					<dim>120</dim>
				</port>
			</output>
		</layer>
		<layer id="284" name="Relu_27" type="ReLU" version="opset1">
			<input>
				<port id="0">
					<dim>1</dim>
					<dim>72</dim>
					<dim>68</dim>
					<dim>120</dim>
				</port>
			</input>
			<output>
				<port id="1" names="419" precision="FP16">
					<dim>1</dim>
					<dim>72</dim>
					<dim>68</dim>
					<dim>120</dim>
				</port>
			</output>
		</layer>
		<layer id="285" name="Conv_28/WithoutBiases/fq_input_0" type="FakeQuantize" version="opset1">
			<data auto_broadcast="numpy" levels="256"/>
			<input>
				<port id="0">
					<dim>1</dim>
					<dim>72</dim>
					<dim>68</dim>
					<dim>120</dim>
				</port>
				<port id="1"/>
				<port id="2"/>
				<port id="3"/>
				<port id="4"/>
			</input>
			<output>
				<port id="5" precision="FP16">
					<dim>1</dim>
					<dim>72</dim>
					<dim>68</dim>
					<dim>120</dim>
				</port>
			</output>
		</layer>
		<layer id="286" name="1110119612210/quantized1394324323" type="Const" version="opset1">
			<data element_type="i8" offset="9347" shape="24,72,1,1" size="1728"/>
			<output>
				<port id="0" precision="I8">
					<dim>24</dim>
					<dim>72</dim>
					<dim>1</dim>
					<dim>1</dim>
				</port>
			</output>
		</layer>
		<layer id="287" name="1110119612210/quantized/to_f16" type="Convert" version="opset1">
			<data destination_type="f16"/>
			<input>
				<port id="0">
					<dim>24</dim>
					<dim>72</dim>
					<dim>1</dim>
					<dim>1</dim>
				</port>
			</input>
			<output>
				<port id="1" precision="FP16">
					<dim>24</dim>
					<dim>72</dim>
					<dim>1</dim>
					<dim>1</dim>
				</port>
			</output>
		</layer>
		<layer id="288" name="Conv_28/WithoutBiases/fq_weights_1/zero_point1395624257" type="Const" version="opset1">
			<data element_type="f16" offset="11075" shape="24,1,1,1" size="48"/>
			<output>
				<port id="0" precision="FP16">
					<dim>24</dim>
					<dim>1</dim>
					<dim>1</dim>
					<dim>1</dim>
				</port>
			</output>
		</layer>
		<layer id="289" name="Conv_28/WithoutBiases/fq_weights_1/minus_zp" type="Subtract" version="opset1">
			<data auto_broadcast="numpy"/>
			<input>
				<port id="0">
					<dim>24</dim>
					<dim>72</dim>
					<dim>1</dim>
					<dim>1</dim>
				</port>
				<port id="1">
					<dim>24</dim>
					<dim>1</dim>
					<dim>1</dim>
					<dim>1</dim>
				</port>
			</input>
			<output>
				<port id="2" precision="FP16">
					<dim>24</dim>
					<dim>72</dim>
					<dim>1</dim>
					<dim>1</dim>
				</port>
			</output>
		</layer>
		<layer id="290" name="Conv_28/WithoutBiases/fq_weights_1/scale1395123180" type="Const" version="opset1">
			<data element_type="f16" offset="11123" shape="24,1,1,1" size="48"/>
			<output>
				<port id="0" precision="FP16">
					<dim>24</dim>
					<dim>1</dim>
					<dim>1</dim>
					<dim>1</dim>
				</port>
			</output>
		</layer>
		<layer id="291" name="Conv_28/WithoutBiases/fq_weights_1/mulpiply_by_scale" type="Multiply" version="opset1">
			<data auto_broadcast="numpy"/>
			<input>
				<port id="0">
					<dim>24</dim>
					<dim>72</dim>
					<dim>1</dim>
					<dim>1</dim>
				</port>
				<port id="1">
					<dim>24</dim>
					<dim>1</dim>
					<dim>1</dim>
					<dim>1</dim>
				</port>
			</input>
			<output>
				<port id="2" precision="FP16">
					<dim>24</dim>
					<dim>72</dim>
					<dim>1</dim>
					<dim>1</dim>
				</port>
			</output>
		</layer>
		<layer id="292" name="Conv_28/WithoutBiases" type="Convolution" version="opset1">
			<data auto_pad="explicit" dilations="1,1" pads_begin="0,0" pads_end="0,0" strides="1,1"/>
			<input>
				<port id="0">
					<dim>1</dim>
					<dim>72</dim>
					<dim>68</dim>
					<dim>120</dim>
				</port>
				<port id="1">
					<dim>24</dim>
					<dim>72</dim>
					<dim>1</dim>
					<dim>1</dim>
				</port>
			</input>
			<output>
				<port id="2" precision="FP16">
					<dim>1</dim>
					<dim>24</dim>
					<dim>68</dim>
					<dim>120</dim>
				</port>
			</output>
		</layer>
		<layer id="293" name="Conv_28/Dims9067119821881" type="Const" version="opset1">
			<data element_type="f16" offset="11171" shape="1,24,1,1" size="48"/>
			<output>
				<port id="0" precision="FP16">
					<dim>1</dim>
					<dim>24</dim>
					<dim>1</dim>
					<dim>1</dim>
				</port>
			</output>
		</layer>
		<layer id="294" name="Conv_28" type="Add" version="opset1">
			<data auto_broadcast="numpy"/>
			<input>
				<port id="0">
					<dim>1</dim>
					<dim>24</dim>
					<dim>68</dim>
					<dim>120</dim>
				</port>
				<port id="1">
					<dim>1</dim>
					<dim>24</dim>
					<dim>1</dim>
					<dim>1</dim>
				</port>
			</input>
			<output>
				<port id="2" names="1109" precision="FP16">
					<dim>1</dim>
					<dim>24</dim>
					<dim>68</dim>
					<dim>120</dim>
				</port>
			</output>
		</layer>
		<layer id="295" name="Add_29/fq_input_0" type="FakeQuantize" version="opset1">
			<data auto_broadcast="numpy" levels="256"/>
			<input>
				<port id="0">
					<dim>1</dim>
					<dim>24</dim>
					<dim>68</dim>
					<dim>120</dim>
				</port>
				<port id="1"/>
				<port id="2"/>
				<port id="3"/>
				<port id="4"/>
			</input>
			<output>
				<port id="5" precision="FP16">
					<dim>1</dim>
					<dim>24</dim>
					<dim>68</dim>
					<dim>120</dim>
				</port>
			</output>
		</layer>
		<layer id="296" name="Add_29" type="Add" version="opset1">
			<data auto_broadcast="numpy"/>
			<input>
				<port id="0">
					<dim>1</dim>
					<dim>24</dim>
					<dim>68</dim>
					<dim>120</dim>
				</port>
				<port id="1">
					<dim>1</dim>
					<dim>24</dim>
					<dim>68</dim>
					<dim>120</dim>
				</port>
			</input>
			<output>
				<port id="2" names="422" precision="FP16">
					<dim>1</dim>
					<dim>24</dim>
					<dim>68</dim>
					<dim>120</dim>
				</port>
			</output>
		</layer>
		<layer id="297" name="Concat_405/fq_input_1" type="FakeQuantize" version="opset1">
			<data auto_broadcast="numpy" levels="256"/>
			<input>
				<port id="0">
					<dim>1</dim>
					<dim>24</dim>
					<dim>68</dim>
					<dim>120</dim>
				</port>
				<port id="1"/>
				<port id="2"/>
				<port id="3"/>
				<port id="4"/>
			</input>
			<output>
				<port id="5" precision="FP16">
					<dim>1</dim>
					<dim>24</dim>
					<dim>68</dim>
					<dim>120</dim>
				</port>
			</output>
		</layer>
		<layer id="298" name="8453845725412" type="Const" version="opset1">
			<data element_type="f16" offset="11219" shape="" size="2"/>
			<output>
				<port id="0" precision="FP16"/>
			</output>
		</layer>
		<layer id="299" name="8454845823747" type="Const" version="opset1">
			<data element_type="f16" offset="11221" shape="" size="2"/>
			<output>
				<port id="0" precision="FP16"/>
			</output>
		</layer>
		<layer id="300" name="8455845921683" type="Const" version="opset1">
			<data element_type="f16" offset="11219" shape="" size="2"/>
			<output>
				<port id="0" precision="FP16"/>
			</output>
		</layer>
		<layer id="301" name="8456846023360" type="Const" version="opset1">
			<data element_type="f16" offset="11221" shape="" size="2"/>
			<output>
				<port id="0" precision="FP16"/>
			</output>
		</layer>
		<layer id="302" name="Resize_392/StridedSlice_scales724241165185824461" type="Const" version="opset1">
			<data element_type="f32" offset="167" shape="2" size="8"/>
			<output>
				<port id="0" precision="FP32">
					<dim>2</dim>
				</port>
			</output>
		</layer>
		<layer id="303" name="Resize_392/axis722640541185922199" type="Const" version="opset1">
			<data element_type="i64" offset="58" shape="2" size="16"/>
			<output>
				<port id="0" precision="I64">
					<dim>2</dim>
				</port>
			</output>
		</layer>
		<layer id="304" name="8923892724773" type="Const" version="opset1">
			<data element_type="f16" offset="1397" shape="" size="2"/>
			<output>
				<port id="0" precision="FP16"/>
			</output>
		</layer>
		<layer id="305" name="8924892823840" type="Const" version="opset1">
			<data element_type="f16" offset="1399" shape="" size="2"/>
			<output>
				<port id="0" precision="FP16"/>
			</output>
		</layer>
		<layer id="306" name="8925892922907" type="Const" version="opset1">
			<data element_type="f16" offset="1397" shape="" size="2"/>
			<output>
				<port id="0" precision="FP16"/>
			</output>
		</layer>
		<layer id="307" name="8926893023054" type="Const" version="opset1">
			<data element_type="f16" offset="1399" shape="" size="2"/>
			<output>
				<port id="0" precision="FP16"/>
			</output>
		</layer>
		<layer id="308" name="5923592722253" type="Const" version="opset1">
			<data element_type="f16" offset="157" shape="" size="2"/>
			<output>
				<port id="0" precision="FP16"/>
			</output>
		</layer>
		<layer id="309" name="5924592825391" type="Const" version="opset1">
			<data element_type="f16" offset="179" shape="" size="2"/>
			<output>
				<port id="0" precision="FP16"/>
			</output>
		</layer>
		<layer id="310" name="5925592923927" type="Const" version="opset1">
			<data element_type="f16" offset="157" shape="" size="2"/>
			<output>
				<port id="0" precision="FP16"/>
			</output>
		</layer>
		<layer id="311" name="5926593023219" type="Const" version="opset1">
			<data element_type="f16" offset="179" shape="" size="2"/>
			<output>
				<port id="0" precision="FP16"/>
			</output>
		</layer>
		<layer id="312" name="ConstantOfShape_376/Broadcast/FillValue178823378" type="Const" version="opset1">
			<data element_type="f16" offset="157" shape="1" size="2"/>
			<output>
				<port id="0" precision="FP16">
					<dim>1</dim>
				</port>
			</output>
		</layer>
		<layer id="313" name="Split_349/VariadicSplit_input_port_1/value178322304" type="Const" version="opset1">
			<data element_type="i64" offset="76" shape="" size="8"/>
			<output>
				<port id="0" precision="I64"/>
			</output>
		</layer>
		<layer id="314" name="Split_349/VariadicSplit_input_port_2/value178422514" type="Const" version="opset1">
			<data element_type="i64" offset="11223" shape="2" size="16"/>
			<output>
				<port id="0" precision="I64">
					<dim>2</dim>
				</port>
			</output>
		</layer>
		<layer id="315" name="8373837724449" type="Const" version="opset1">
			<data element_type="f16" offset="157" shape="" size="2"/>
			<output>
				<port id="0" precision="FP16"/>
			</output>
		</layer>
		<layer id="316" name="8374837823957" type="Const" version="opset1">
			<data element_type="f16" offset="11239" shape="" size="2"/>
			<output>
				<port id="0" precision="FP16"/>
			</output>
		</layer>
		<layer id="317" name="8375837924758" type="Const" version="opset1">
			<data element_type="f16" offset="157" shape="" size="2"/>
			<output>
				<port id="0" precision="FP16"/>
			</output>
		</layer>
		<layer id="318" name="8376838025190" type="Const" version="opset1">
			<data element_type="f16" offset="11239" shape="" size="2"/>
			<output>
				<port id="0" precision="FP16"/>
			</output>
		</layer>
		<layer id="319" name="8323832723612" type="Const" version="opset1">
			<data element_type="f16" offset="11241" shape="" size="2"/>
			<output>
				<port id="0" precision="FP16"/>
			</output>
		</layer>
		<layer id="320" name="8324832823573" type="Const" version="opset1">
			<data element_type="f16" offset="11243" shape="" size="2"/>
			<output>
				<port id="0" precision="FP16"/>
			</output>
		</layer>
		<layer id="321" name="8325832923630" type="Const" version="opset1">
			<data element_type="f16" offset="11241" shape="" size="2"/>
			<output>
				<port id="0" precision="FP16"/>
			</output>
		</layer>
		<layer id="322" name="8326833023273" type="Const" version="opset1">
			<data element_type="f16" offset="11243" shape="" size="2"/>
			<output>
				<port id="0" precision="FP16"/>
			</output>
		</layer>
		<layer id="323" name="6583658725502" type="Const" version="opset1">
			<data element_type="f16" offset="11245" shape="" size="2"/>
			<output>
				<port id="0" precision="FP16"/>
			</output>
		</layer>
		<layer id="324" name="6584658824368" type="Const" version="opset1">
			<data element_type="f16" offset="11247" shape="" size="2"/>
			<output>
				<port id="0" precision="FP16"/>
			</output>
		</layer>
		<layer id="325" name="6585658923444" type="Const" version="opset1">
			<data element_type="f16" offset="11245" shape="" size="2"/>
			<output>
				<port id="0" precision="FP16"/>
			</output>
		</layer>
		<layer id="326" name="6586659025112" type="Const" version="opset1">
			<data element_type="f16" offset="11247" shape="" size="2"/>
			<output>
				<port id="0" precision="FP16"/>
			</output>
		</layer>
		<layer id="327" name="5543554724815" type="Const" version="opset1">
			<data element_type="f16" offset="157" shape="" size="2"/>
			<output>
				<port id="0" precision="FP16"/>
			</output>
		</layer>
		<layer id="328" name="5544554823144" type="Const" version="opset1">
			<data element_type="f16" offset="11249" shape="" size="2"/>
			<output>
				<port id="0" precision="FP16"/>
			</output>
		</layer>
		<layer id="329" name="5545554923780" type="Const" version="opset1">
			<data element_type="f16" offset="157" shape="" size="2"/>
			<output>
				<port id="0" precision="FP16"/>
			</output>
		</layer>
		<layer id="330" name="5546555024557" type="Const" version="opset1">
			<data element_type="f16" offset="11249" shape="" size="2"/>
			<output>
				<port id="0" precision="FP16"/>
			</output>
		</layer>
		<layer id="331" name="4593459724041" type="Const" version="opset1">
			<data element_type="f16" offset="157" shape="" size="2"/>
			<output>
				<port id="0" precision="FP16"/>
			</output>
		</layer>
		<layer id="332" name="4594459824335" type="Const" version="opset1">
			<data element_type="f16" offset="1399" shape="" size="2"/>
			<output>
				<port id="0" precision="FP16"/>
			</output>
		</layer>
		<layer id="333" name="4595459925091" type="Const" version="opset1">
			<data element_type="f16" offset="157" shape="" size="2"/>
			<output>
				<port id="0" precision="FP16"/>
			</output>
		</layer>
		<layer id="334" name="4596460024407" type="Const" version="opset1">
			<data element_type="f16" offset="1399" shape="" size="2"/>
			<output>
				<port id="0" precision="FP16"/>
			</output>
		</layer>
		<layer id="335" name="3783378724107" type="Const" version="opset1">
			<data element_type="f16" offset="157" shape="" size="2"/>
			<output>
				<port id="0" precision="FP16"/>
			</output>
		</layer>
		<layer id="336" name="3784378822511" type="Const" version="opset1">
			<data element_type="f16" offset="11251" shape="" size="2"/>
			<output>
				<port id="0" precision="FP16"/>
			</output>
		</layer>
		<layer id="337" name="3785378924923" type="Const" version="opset1">
			<data element_type="f16" offset="157" shape="" size="2"/>
			<output>
				<port id="0" precision="FP16"/>
			</output>
		</layer>
		<layer id="338" name="3786379022583" type="Const" version="opset1">
			<data element_type="f16" offset="11251" shape="" size="2"/>
			<output>
				<port id="0" precision="FP16"/>
			</output>
		</layer>
		<layer id="339" name="6463646721743" type="Const" version="opset1">
			<data element_type="f16" offset="157" shape="" size="2"/>
			<output>
				<port id="0" precision="FP16"/>
			</output>
		</layer>
		<layer id="340" name="6464646823021" type="Const" version="opset1">
			<data element_type="f16" offset="11253" shape="" size="2"/>
			<output>
				<port id="0" precision="FP16"/>
			</output>
		</layer>
		<layer id="341" name="6465646922463" type="Const" version="opset1">
			<data element_type="f16" offset="157" shape="" size="2"/>
			<output>
				<port id="0" precision="FP16"/>
			</output>
		</layer>
		<layer id="342" name="6466647024569" type="Const" version="opset1">
			<data element_type="f16" offset="11253" shape="" size="2"/>
			<output>
				<port id="0" precision="FP16"/>
			</output>
		</layer>
		<layer id="343" name="3913391723609" type="Const" version="opset1">
			<data element_type="f16" offset="157" shape="" size="2"/>
			<output>
				<port id="0" precision="FP16"/>
			</output>
		</layer>
		<layer id="344" name="3914391822643" type="Const" version="opset1">
			<data element_type="f16" offset="11255" shape="" size="2"/>
			<output>
				<port id="0" precision="FP16"/>
			</output>
		</layer>
		<layer id="345" name="3915391925262" type="Const" version="opset1">
			<data element_type="f16" offset="157" shape="" size="2"/>
			<output>
				<port id="0" precision="FP16"/>
			</output>
		</layer>
		<layer id="346" name="3916392025343" type="Const" version="opset1">
			<data element_type="f16" offset="11255" shape="" size="2"/>
			<output>
				<port id="0" precision="FP16"/>
			</output>
		</layer>
		<layer id="347" name="4423442723114" type="Const" version="opset1">
			<data element_type="f16" offset="11257" shape="1,120,1,1" size="240"/>
			<output>
				<port id="0" precision="FP16">
					<dim>1</dim>
					<dim>120</dim>
					<dim>1</dim>
					<dim>1</dim>
				</port>
			</output>
		</layer>
		<layer id="348" name="4424442824515" type="Const" version="opset1">
			<data element_type="f16" offset="11497" shape="1,120,1,1" size="240"/>
			<output>
				<port id="0" precision="FP16">
					<dim>1</dim>
					<dim>120</dim>
					<dim>1</dim>
					<dim>1</dim>
				</port>
			</output>
		</layer>
		<layer id="349" name="4425442924236" type="Const" version="opset1">
			<data element_type="f16" offset="11257" shape="1,120,1,1" size="240"/>
			<output>
				<port id="0" precision="FP16">
					<dim>1</dim>
					<dim>120</dim>
					<dim>1</dim>
					<dim>1</dim>
				</port>
			</output>
		</layer>
		<layer id="350" name="4426443021545" type="Const" version="opset1">
			<data element_type="f16" offset="11497" shape="1,120,1,1" size="240"/>
			<output>
				<port id="0" precision="FP16">
					<dim>1</dim>
					<dim>120</dim>
					<dim>1</dim>
					<dim>1</dim>
				</port>
			</output>
		</layer>
		<layer id="351" name="6593659723033" type="Const" version="opset1">
			<data element_type="f16" offset="11737" shape="" size="2"/>
			<output>
				<port id="0" precision="FP16"/>
			</output>
		</layer>
		<layer id="352" name="6594659824311" type="Const" version="opset1">
			<data element_type="f16" offset="11739" shape="" size="2"/>
			<output>
				<port id="0" precision="FP16"/>
			</output>
		</layer>
		<layer id="353" name="6595659922871" type="Const" version="opset1">
			<data element_type="f16" offset="11737" shape="" size="2"/>
			<output>
				<port id="0" precision="FP16"/>
			</output>
		</layer>
		<layer id="354" name="6596660023555" type="Const" version="opset1">
			<data element_type="f16" offset="11739" shape="" size="2"/>
			<output>
				<port id="0" precision="FP16"/>
			</output>
		</layer>
		<layer id="355" name="5023502724092" type="Const" version="opset1">
			<data element_type="f16" offset="11741" shape="" size="2"/>
			<output>
				<port id="0" precision="FP16"/>
			</output>
		</layer>
		<layer id="356" name="5024502822880" type="Const" version="opset1">
			<data element_type="f16" offset="11743" shape="" size="2"/>
			<output>
				<port id="0" precision="FP16"/>
			</output>
		</layer>
		<layer id="357" name="5025502922925" type="Const" version="opset1">
			<data element_type="f16" offset="11741" shape="" size="2"/>
			<output>
				<port id="0" precision="FP16"/>
			</output>
		</layer>
		<layer id="358" name="5026503023003" type="Const" version="opset1">
			<data element_type="f16" offset="11743" shape="" size="2"/>
			<output>
				<port id="0" precision="FP16"/>
			</output>
		</layer>
		<layer id="359" name="5803580721752" type="Const" version="opset1">
			<data element_type="f16" offset="157" shape="" size="2"/>
			<output>
				<port id="0" precision="FP16"/>
			</output>
		</layer>
		<layer id="360" name="5804580821650" type="Const" version="opset1">
			<data element_type="f16" offset="11745" shape="" size="2"/>
			<output>
				<port id="0" precision="FP16"/>
			</output>
		</layer>
		<layer id="361" name="5805580921722" type="Const" version="opset1">
			<data element_type="f16" offset="157" shape="" size="2"/>
			<output>
				<port id="0" precision="FP16"/>
			</output>
		</layer>
		<layer id="362" name="5806581024116" type="Const" version="opset1">
			<data element_type="f16" offset="11745" shape="" size="2"/>
			<output>
				<port id="0" precision="FP16"/>
			</output>
		</layer>
		<layer id="363" name="4943494723348" type="Const" version="opset1">
			<data element_type="f16" offset="157" shape="" size="2"/>
			<output>
				<port id="0" precision="FP16"/>
			</output>
		</layer>
		<layer id="364" name="4944494822646" type="Const" version="opset1">
			<data element_type="f16" offset="1399" shape="" size="2"/>
			<output>
				<port id="0" precision="FP16"/>
			</output>
		</layer>
		<layer id="365" name="4945494921827" type="Const" version="opset1">
			<data element_type="f16" offset="157" shape="" size="2"/>
			<output>
				<port id="0" precision="FP16"/>
			</output>
		</layer>
		<layer id="366" name="4946495022301" type="Const" version="opset1">
			<data element_type="f16" offset="1399" shape="" size="2"/>
			<output>
				<port id="0" precision="FP16"/>
			</output>
		</layer>
		<layer id="367" name="5393539725208" type="Const" version="opset1">
			<data element_type="f16" offset="157" shape="" size="2"/>
			<output>
				<port id="0" precision="FP16"/>
			</output>
		</layer>
		<layer id="368" name="5394539825325" type="Const" version="opset1">
			<data element_type="f16" offset="11747" shape="" size="2"/>
			<output>
				<port id="0" precision="FP16"/>
			</output>
		</layer>
		<layer id="369" name="5395539924755" type="Const" version="opset1">
			<data element_type="f16" offset="157" shape="" size="2"/>
			<output>
				<port id="0" precision="FP16"/>
			</output>
		</layer>
		<layer id="370" name="5396540023831" type="Const" version="opset1">
			<data element_type="f16" offset="11747" shape="" size="2"/>
			<output>
				<port id="0" precision="FP16"/>
			</output>
		</layer>
		<layer id="371" name="6373637724890" type="Const" version="opset1">
			<data element_type="f16" offset="157" shape="" size="2"/>
			<output>
				<port id="0" precision="FP16"/>
			</output>
		</layer>
		<layer id="372" name="6374637821791" type="Const" version="opset1">
			<data element_type="f16" offset="11749" shape="" size="2"/>
			<output>
				<port id="0" precision="FP16"/>
			</output>
		</layer>
		<layer id="373" name="6375637921785" type="Const" version="opset1">
			<data element_type="f16" offset="157" shape="" size="2"/>
			<output>
				<port id="0" precision="FP16"/>
			</output>
		</layer>
		<layer id="374" name="6376638022730" type="Const" version="opset1">
			<data element_type="f16" offset="11749" shape="" size="2"/>
			<output>
				<port id="0" precision="FP16"/>
			</output>
		</layer>
		<layer id="375" name="4613461722016" type="Const" version="opset1">
			<data element_type="f16" offset="157" shape="" size="2"/>
			<output>
				<port id="0" precision="FP16"/>
			</output>
		</layer>
		<layer id="376" name="4614461822238" type="Const" version="opset1">
			<data element_type="f16" offset="11751" shape="" size="2"/>
			<output>
				<port id="0" precision="FP16"/>
			</output>
		</layer>
		<layer id="377" name="4615461922565" type="Const" version="opset1">
			<data element_type="f16" offset="157" shape="" size="2"/>
			<output>
				<port id="0" precision="FP16"/>
			</output>
		</layer>
		<layer id="378" name="4616462023471" type="Const" version="opset1">
			<data element_type="f16" offset="11751" shape="" size="2"/>
			<output>
				<port id="0" precision="FP16"/>
			</output>
		</layer>
		<layer id="379" name="4463446723783" type="Const" version="opset1">
			<data element_type="f16" offset="11257" shape="1,120,1,1" size="240"/>
			<output>
				<port id="0" precision="FP16">
					<dim>1</dim>
					<dim>120</dim>
					<dim>1</dim>
					<dim>1</dim>
				</port>
			</output>
		</layer>
		<layer id="380" name="4464446825469" type="Const" version="opset1">
			<data element_type="f16" offset="11753" shape="1,120,1,1" size="240"/>
			<output>
				<port id="0" precision="FP16">
					<dim>1</dim>
					<dim>120</dim>
					<dim>1</dim>
					<dim>1</dim>
				</port>
			</output>
		</layer>
		<layer id="381" name="4465446924149" type="Const" version="opset1">
			<data element_type="f16" offset="11257" shape="1,120,1,1" size="240"/>
			<output>
				<port id="0" precision="FP16">
					<dim>1</dim>
					<dim>120</dim>
					<dim>1</dim>
					<dim>1</dim>
				</port>
			</output>
		</layer>
		<layer id="382" name="4466447023906" type="Const" version="opset1">
			<data element_type="f16" offset="11753" shape="1,120,1,1" size="240"/>
			<output>
				<port id="0" precision="FP16">
					<dim>1</dim>
					<dim>120</dim>
					<dim>1</dim>
					<dim>1</dim>
				</port>
			</output>
		</layer>
		<layer id="383" name="5033503723552" type="Const" version="opset1">
			<data element_type="f16" offset="11993" shape="" size="2"/>
			<output>
				<port id="0" precision="FP16"/>
			</output>
		</layer>
		<layer id="384" name="5034503824233" type="Const" version="opset1">
			<data element_type="f16" offset="11995" shape="" size="2"/>
			<output>
				<port id="0" precision="FP16"/>
			</output>
		</layer>
		<layer id="385" name="5035503923981" type="Const" version="opset1">
			<data element_type="f16" offset="11993" shape="" size="2"/>
			<output>
				<port id="0" precision="FP16"/>
			</output>
		</layer>
		<layer id="386" name="5036504022535" type="Const" version="opset1">
			<data element_type="f16" offset="11995" shape="" size="2"/>
			<output>
				<port id="0" precision="FP16"/>
			</output>
		</layer>
		<layer id="387" name="4503450722277" type="Const" version="opset1">
			<data element_type="f16" offset="157" shape="" size="2"/>
			<output>
				<port id="0" precision="FP16"/>
			</output>
		</layer>
		<layer id="388" name="4504450822217" type="Const" version="opset1">
			<data element_type="f16" offset="11997" shape="" size="2"/>
			<output>
				<port id="0" precision="FP16"/>
			</output>
		</layer>
		<layer id="389" name="4505450923807" type="Const" version="opset1">
			<data element_type="f16" offset="157" shape="" size="2"/>
			<output>
				<port id="0" precision="FP16"/>
			</output>
		</layer>
		<layer id="390" name="4506451022211" type="Const" version="opset1">
			<data element_type="f16" offset="11997" shape="" size="2"/>
			<output>
				<port id="0" precision="FP16"/>
			</output>
		</layer>
		<layer id="391" name="5693569721632" type="Const" version="opset1">
			<data element_type="f16" offset="157" shape="" size="2"/>
			<output>
				<port id="0" precision="FP16"/>
			</output>
		</layer>
		<layer id="392" name="5694569824209" type="Const" version="opset1">
			<data element_type="f16" offset="1399" shape="" size="2"/>
			<output>
				<port id="0" precision="FP16"/>
			</output>
		</layer>
		<layer id="393" name="5695569922187" type="Const" version="opset1">
			<data element_type="f16" offset="157" shape="" size="2"/>
			<output>
				<port id="0" precision="FP16"/>
			</output>
		</layer>
		<layer id="394" name="5696570021554" type="Const" version="opset1">
			<data element_type="f16" offset="1399" shape="" size="2"/>
			<output>
				<port id="0" precision="FP16"/>
			</output>
		</layer>
		<layer id="395" name="3983398722910" type="Const" version="opset1">
			<data element_type="f16" offset="157" shape="" size="2"/>
			<output>
				<port id="0" precision="FP16"/>
			</output>
		</layer>
		<layer id="396" name="3984398823636" type="Const" version="opset1">
			<data element_type="f16" offset="11999" shape="" size="2"/>
			<output>
				<port id="0" precision="FP16"/>
			</output>
		</layer>
		<layer id="397" name="3985398923594" type="Const" version="opset1">
			<data element_type="f16" offset="157" shape="" size="2"/>
			<output>
				<port id="0" precision="FP16"/>
			</output>
		</layer>
		<layer id="398" name="3986399021560" type="Const" version="opset1">
			<data element_type="f16" offset="11999" shape="" size="2"/>
			<output>
				<port id="0" precision="FP16"/>
			</output>
		</layer>
		<layer id="399" name="4813481721629" type="Const" version="opset1">
			<data element_type="f16" offset="157" shape="" size="2"/>
			<output>
				<port id="0" precision="FP16"/>
			</output>
		</layer>
		<layer id="400" name="4814481822352" type="Const" version="opset1">
			<data element_type="f16" offset="12001" shape="" size="2"/>
			<output>
				<port id="0" precision="FP16"/>
			</output>
		</layer>
		<layer id="401" name="4815481923879" type="Const" version="opset1">
			<data element_type="f16" offset="157" shape="" size="2"/>
			<output>
				<port id="0" precision="FP16"/>
			</output>
		</layer>
		<layer id="402" name="4816482022394" type="Const" version="opset1">
			<data element_type="f16" offset="12001" shape="" size="2"/>
			<output>
				<port id="0" precision="FP16"/>
			</output>
		</layer>
		<layer id="403" name="4273427722331" type="Const" version="opset1">
			<data element_type="f16" offset="157" shape="" size="2"/>
			<output>
				<port id="0" precision="FP16"/>
			</output>
		</layer>
		<layer id="404" name="4274427821821" type="Const" version="opset1">
			<data element_type="f16" offset="12003" shape="" size="2"/>
			<output>
				<port id="0" precision="FP16"/>
			</output>
		</layer>
		<layer id="405" name="4275427921872" type="Const" version="opset1">
			<data element_type="f16" offset="157" shape="" size="2"/>
			<output>
				<port id="0" precision="FP16"/>
			</output>
		</layer>
		<layer id="406" name="4276428024908" type="Const" version="opset1">
			<data element_type="f16" offset="12003" shape="" size="2"/>
			<output>
				<port id="0" precision="FP16"/>
			</output>
		</layer>
		<layer id="407" name="6603660724644" type="Const" version="opset1">
			<data element_type="f16" offset="1429" shape="1,72,1,1" size="144"/>
			<output>
				<port id="0" precision="FP16">
					<dim>1</dim>
					<dim>72</dim>
					<dim>1</dim>
					<dim>1</dim>
				</port>
			</output>
		</layer>
		<layer id="408" name="6604660822067" type="Const" version="opset1">
			<data element_type="f16" offset="12005" shape="1,72,1,1" size="144"/>
			<output>
				<port id="0" precision="FP16">
					<dim>1</dim>
					<dim>72</dim>
					<dim>1</dim>
					<dim>1</dim>
				</port>
			</output>
		</layer>
		<layer id="409" name="6605660921662" type="Const" version="opset1">
			<data element_type="f16" offset="1429" shape="1,72,1,1" size="144"/>
			<output>
				<port id="0" precision="FP16">
					<dim>1</dim>
					<dim>72</dim>
					<dim>1</dim>
					<dim>1</dim>
				</port>
			</output>
		</layer>
		<layer id="410" name="6606661023849" type="Const" version="opset1">
			<data element_type="f16" offset="12005" shape="1,72,1,1" size="144"/>
			<output>
				<port id="0" precision="FP16">
					<dim>1</dim>
					<dim>72</dim>
					<dim>1</dim>
					<dim>1</dim>
				</port>
			</output>
		</layer>
		<layer id="411" name="1113120112212/quantized1507121890" type="Const" version="opset1">
			<data element_type="i8" offset="12149" shape="72,24,1,1" size="1728"/>
			<output>
				<port id="0" precision="I8">
					<dim>72</dim>
					<dim>24</dim>
					<dim>1</dim>
					<dim>1</dim>
				</port>
			</output>
		</layer>
		<layer id="412" name="1113120112212/quantized/to_f16" type="Convert" version="opset1">
			<data destination_type="f16"/>
			<input>
				<port id="0">
					<dim>72</dim>
					<dim>24</dim>
					<dim>1</dim>
					<dim>1</dim>
				</port>
			</input>
			<output>
				<port id="1" precision="FP16">
					<dim>72</dim>
					<dim>24</dim>
					<dim>1</dim>
					<dim>1</dim>
				</port>
			</output>
		</layer>
		<layer id="413" name="Conv_30/WithoutBiases/fq_weights_1/zero_point1508423225" type="Const" version="opset1">
			<data element_type="f16" offset="13877" shape="72,1,1,1" size="144"/>
			<output>
				<port id="0" precision="FP16">
					<dim>72</dim>
					<dim>1</dim>
					<dim>1</dim>
					<dim>1</dim>
				</port>
			</output>
		</layer>
		<layer id="414" name="Conv_30/WithoutBiases/fq_weights_1/minus_zp" type="Subtract" version="opset1">
			<data auto_broadcast="numpy"/>
			<input>
				<port id="0">
					<dim>72</dim>
					<dim>24</dim>
					<dim>1</dim>
					<dim>1</dim>
				</port>
				<port id="1">
					<dim>72</dim>
					<dim>1</dim>
					<dim>1</dim>
					<dim>1</dim>
				</port>
			</input>
			<output>
				<port id="2" precision="FP16">
					<dim>72</dim>
					<dim>24</dim>
					<dim>1</dim>
					<dim>1</dim>
				</port>
			</output>
		</layer>
		<layer id="415" name="Conv_30/WithoutBiases/fq_weights_1/scale1507922190" type="Const" version="opset1">
			<data element_type="f16" offset="14021" shape="72,1,1,1" size="144"/>
			<output>
				<port id="0" precision="FP16">
					<dim>72</dim>
					<dim>1</dim>
					<dim>1</dim>
					<dim>1</dim>
				</port>
			</output>
		</layer>
		<layer id="416" name="Conv_30/WithoutBiases/fq_weights_1/mulpiply_by_scale" type="Multiply" version="opset1">
			<data auto_broadcast="numpy"/>
			<input>
				<port id="0">
					<dim>72</dim>
					<dim>24</dim>
					<dim>1</dim>
					<dim>1</dim>
				</port>
				<port id="1">
					<dim>72</dim>
					<dim>1</dim>
					<dim>1</dim>
					<dim>1</dim>
				</port>
			</input>
			<output>
				<port id="2" precision="FP16">
					<dim>72</dim>
					<dim>24</dim>
					<dim>1</dim>
					<dim>1</dim>
				</port>
			</output>
		</layer>
		<layer id="417" name="Conv_30/WithoutBiases" type="Convolution" version="opset1">
			<data auto_pad="explicit" dilations="1,1" pads_begin="0,0" pads_end="0,0" strides="1,1"/>
			<input>
				<port id="0">
					<dim>1</dim>
					<dim>24</dim>
					<dim>68</dim>
					<dim>120</dim>
				</port>
				<port id="1">
					<dim>72</dim>
					<dim>24</dim>
					<dim>1</dim>
					<dim>1</dim>
				</port>
			</input>
			<output>
				<port id="2" precision="FP16">
					<dim>1</dim>
					<dim>72</dim>
					<dim>68</dim>
					<dim>120</dim>
				</port>
			</output>
		</layer>
		<layer id="418" name="Conv_30/Dims9325120323303" type="Const" version="opset1">
			<data element_type="f16" offset="14165" shape="1,72,1,1" size="144"/>
			<output>
				<port id="0" precision="FP16">
					<dim>1</dim>
					<dim>72</dim>
					<dim>1</dim>
					<dim>1</dim>
				</port>
			</output>
		</layer>
		<layer id="419" name="Conv_30" type="Add" version="opset1">
			<data auto_broadcast="numpy"/>
			<input>
				<port id="0">
					<dim>1</dim>
					<dim>72</dim>
					<dim>68</dim>
					<dim>120</dim>
				</port>
				<port id="1">
					<dim>1</dim>
					<dim>72</dim>
					<dim>1</dim>
					<dim>1</dim>
				</port>
			</input>
			<output>
				<port id="2" names="1112" precision="FP16">
					<dim>1</dim>
					<dim>72</dim>
					<dim>68</dim>
					<dim>120</dim>
				</port>
			</output>
		</layer>
		<layer id="420" name="Relu_31" type="ReLU" version="opset1">
			<input>
				<port id="0">
					<dim>1</dim>
					<dim>72</dim>
					<dim>68</dim>
					<dim>120</dim>
				</port>
			</input>
			<output>
				<port id="1" names="425" precision="FP16">
					<dim>1</dim>
					<dim>72</dim>
					<dim>68</dim>
					<dim>120</dim>
				</port>
			</output>
		</layer>
		<layer id="421" name="Conv_32/WithoutBiases/fq_input_0" type="FakeQuantize" version="opset1">
			<data auto_broadcast="numpy" levels="256"/>
			<input>
				<port id="0">
					<dim>1</dim>
					<dim>72</dim>
					<dim>68</dim>
					<dim>120</dim>
				</port>
				<port id="1">
					<dim>1</dim>
					<dim>72</dim>
					<dim>1</dim>
					<dim>1</dim>
				</port>
				<port id="2">
					<dim>1</dim>
					<dim>72</dim>
					<dim>1</dim>
					<dim>1</dim>
				</port>
				<port id="3">
					<dim>1</dim>
					<dim>72</dim>
					<dim>1</dim>
					<dim>1</dim>
				</port>
				<port id="4">
					<dim>1</dim>
					<dim>72</dim>
					<dim>1</dim>
					<dim>1</dim>
				</port>
			</input>
			<output>
				<port id="5" precision="FP16">
					<dim>1</dim>
					<dim>72</dim>
					<dim>68</dim>
					<dim>120</dim>
				</port>
			</output>
		</layer>
		<layer id="422" name="18786/value1878824191" type="Const" version="opset1">
			<data element_type="i64" offset="14309" shape="5" size="40"/>
			<output>
				<port id="0" precision="I64">
					<dim>5</dim>
				</port>
			</output>
		</layer>
		<layer id="423" name="1116120612214/quantized1528722697" type="Const" version="opset1">
			<data element_type="i8" offset="14349" shape="72,1,5,5" size="1800"/>
			<output>
				<port id="0" precision="I8">
					<dim>72</dim>
					<dim>1</dim>
					<dim>5</dim>
					<dim>5</dim>
				</port>
			</output>
		</layer>
		<layer id="424" name="1116120612214/quantized/to_f16" type="Convert" version="opset1">
			<data destination_type="f16"/>
			<input>
				<port id="0">
					<dim>72</dim>
					<dim>1</dim>
					<dim>5</dim>
					<dim>5</dim>
				</port>
			</input>
			<output>
				<port id="1" precision="FP16">
					<dim>72</dim>
					<dim>1</dim>
					<dim>5</dim>
					<dim>5</dim>
				</port>
			</output>
		</layer>
		<layer id="425" name="Conv_32/WithoutBiases/fq_weights_1/zero_point1530025301" type="Const" version="opset1">
			<data element_type="f16" offset="16149" shape="72,1,1,1" size="144"/>
			<output>
				<port id="0" precision="FP16">
					<dim>72</dim>
					<dim>1</dim>
					<dim>1</dim>
					<dim>1</dim>
				</port>
			</output>
		</layer>
		<layer id="426" name="Conv_32/WithoutBiases/fq_weights_1/minus_zp" type="Subtract" version="opset1">
			<data auto_broadcast="numpy"/>
			<input>
				<port id="0">
					<dim>72</dim>
					<dim>1</dim>
					<dim>5</dim>
					<dim>5</dim>
				</port>
				<port id="1">
					<dim>72</dim>
					<dim>1</dim>
					<dim>1</dim>
					<dim>1</dim>
				</port>
			</input>
			<output>
				<port id="2" precision="FP16">
					<dim>72</dim>
					<dim>1</dim>
					<dim>5</dim>
					<dim>5</dim>
				</port>
			</output>
		</layer>
		<layer id="427" name="Conv_32/WithoutBiases/fq_weights_1/scale1529522703" type="Const" version="opset1">
			<data element_type="f16" offset="16293" shape="72,1,1,1" size="144"/>
			<output>
				<port id="0" precision="FP16">
					<dim>72</dim>
					<dim>1</dim>
					<dim>1</dim>
					<dim>1</dim>
				</port>
			</output>
		</layer>
		<layer id="428" name="Conv_32/WithoutBiases/fq_weights_1/mulpiply_by_scale" type="Multiply" version="opset1">
			<data auto_broadcast="numpy"/>
			<input>
				<port id="0">
					<dim>72</dim>
					<dim>1</dim>
					<dim>5</dim>
					<dim>5</dim>
				</port>
				<port id="1">
					<dim>72</dim>
					<dim>1</dim>
					<dim>1</dim>
					<dim>1</dim>
				</port>
			</input>
			<output>
				<port id="2" precision="FP16">
					<dim>72</dim>
					<dim>1</dim>
					<dim>5</dim>
					<dim>5</dim>
				</port>
			</output>
		</layer>
		<layer id="429" name="18786" type="Reshape" version="opset1">
			<data special_zero="true"/>
			<input>
				<port id="0">
					<dim>72</dim>
					<dim>1</dim>
					<dim>5</dim>
					<dim>5</dim>
				</port>
				<port id="1">
					<dim>5</dim>
				</port>
			</input>
			<output>
				<port id="2" precision="FP16">
					<dim>72</dim>
					<dim>1</dim>
					<dim>1</dim>
					<dim>5</dim>
					<dim>5</dim>
				</port>
			</output>
		</layer>
		<layer id="430" name="Conv_32/WithoutBiases" type="GroupConvolution" version="opset1">
			<data auto_pad="explicit" dilations="1,1" pads_begin="2,2" pads_end="2,2" strides="2,2"/>
			<input>
				<port id="0">
					<dim>1</dim>
					<dim>72</dim>
					<dim>68</dim>
					<dim>120</dim>
				</port>
				<port id="1">
					<dim>72</dim>
					<dim>1</dim>
					<dim>1</dim>
					<dim>5</dim>
					<dim>5</dim>
				</port>
			</input>
			<output>
				<port id="2" precision="FP16">
					<dim>1</dim>
					<dim>72</dim>
					<dim>34</dim>
					<dim>60</dim>
				</port>
			</output>
		</layer>
		<layer id="431" name="Conv_32/Dims8947120824608" type="Const" version="opset1">
			<data element_type="f16" offset="16437" shape="1,72,1,1" size="144"/>
			<output>
				<port id="0" precision="FP16">
					<dim>1</dim>
					<dim>72</dim>
					<dim>1</dim>
					<dim>1</dim>
				</port>
			</output>
		</layer>
		<layer id="432" name="Conv_32" type="Add" version="opset1">
			<data auto_broadcast="numpy"/>
			<input>
				<port id="0">
					<dim>1</dim>
					<dim>72</dim>
					<dim>34</dim>
					<dim>60</dim>
				</port>
				<port id="1">
					<dim>1</dim>
					<dim>72</dim>
					<dim>1</dim>
					<dim>1</dim>
				</port>
			</input>
			<output>
				<port id="2" names="1115" precision="FP16">
					<dim>1</dim>
					<dim>72</dim>
					<dim>34</dim>
					<dim>60</dim>
				</port>
			</output>
		</layer>
		<layer id="433" name="Relu_33" type="ReLU" version="opset1">
			<input>
				<port id="0">
					<dim>1</dim>
					<dim>72</dim>
					<dim>34</dim>
					<dim>60</dim>
				</port>
			</input>
			<output>
				<port id="1" names="428" precision="FP16">
					<dim>1</dim>
					<dim>72</dim>
					<dim>34</dim>
					<dim>60</dim>
				</port>
			</output>
		</layer>
		<layer id="434" name="GlobalAveragePool_34/reduce/fq_input_0" type="FakeQuantize" version="opset1">
			<data auto_broadcast="numpy" levels="256"/>
			<input>
				<port id="0">
					<dim>1</dim>
					<dim>72</dim>
					<dim>34</dim>
					<dim>60</dim>
				</port>
				<port id="1"/>
				<port id="2"/>
				<port id="3"/>
				<port id="4"/>
			</input>
			<output>
				<port id="5" precision="FP16">
					<dim>1</dim>
					<dim>72</dim>
					<dim>34</dim>
					<dim>60</dim>
				</port>
			</output>
		</layer>
		<layer id="435" name="873121122154" type="Const" version="opset1">
			<data element_type="i64" offset="113" shape="" size="8"/>
			<output>
				<port id="0" precision="I64"/>
			</output>
		</layer>
		<layer id="436" name="GlobalAveragePool_34/input_rank/shape_of" type="ShapeOf" version="opset3">
			<data output_type="i64"/>
			<input>
				<port id="0">
					<dim>1</dim>
					<dim>72</dim>
					<dim>34</dim>
					<dim>60</dim>
				</port>
			</input>
			<output>
				<port id="1" precision="I64">
					<dim>4</dim>
				</port>
			</output>
		</layer>
		<layer id="437" name="GlobalAveragePool_34/input_rank/rank_of" type="ShapeOf" version="opset3">
			<data output_type="i64"/>
			<input>
				<port id="0">
					<dim>4</dim>
				</port>
			</input>
			<output>
				<port id="1" precision="I64">
					<dim>1</dim>
				</port>
			</output>
		</layer>
		<layer id="438" name="GlobalAveragePool_34/input_rank/0d_rank_of/value121424782" type="Const" version="opset1">
			<data element_type="i64" offset="16581" shape="1" size="8"/>
			<output>
				<port id="0" precision="I64">
					<dim>1</dim>
				</port>
			</output>
		</layer>
		<layer id="439" name="GlobalAveragePool_34/input_rank" type="Squeeze" version="opset1">
			<input>
				<port id="0">
					<dim>1</dim>
				</port>
				<port id="1">
					<dim>1</dim>
				</port>
			</input>
			<output>
				<port id="2" precision="I64"/>
			</output>
		</layer>
		<layer id="440" name="875121625034" type="Const" version="opset1">
			<data element_type="i64" offset="76" shape="" size="8"/>
			<output>
				<port id="0" precision="I64"/>
			</output>
		</layer>
		<layer id="441" name="GlobalAveragePool_34/global_pooling_reduce_axis" type="Range" version="opset4">
			<data output_type="i64"/>
			<input>
				<port id="0"/>
				<port id="1"/>
				<port id="2"/>
			</input>
			<output>
				<port id="3" precision="I64">
					<dim>2</dim>
				</port>
			</output>
		</layer>
		<layer id="442" name="GlobalAveragePool_34/reduce" type="ReduceMean" version="opset1">
			<data keep_dims="true"/>
			<input>
				<port id="0">
					<dim>1</dim>
					<dim>72</dim>
					<dim>34</dim>
					<dim>60</dim>
				</port>
				<port id="1">
					<dim>2</dim>
				</port>
			</input>
			<output>
				<port id="2" names="429" precision="FP16">
					<dim>1</dim>
					<dim>72</dim>
					<dim>1</dim>
					<dim>1</dim>
				</port>
			</output>
		</layer>
		<layer id="443" name="Conv_35/WithoutBiases/fq_input_0" type="FakeQuantize" version="opset1">
			<data auto_broadcast="numpy" levels="256"/>
			<input>
				<port id="0">
					<dim>1</dim>
					<dim>72</dim>
					<dim>1</dim>
					<dim>1</dim>
				</port>
				<port id="1"/>
				<port id="2"/>
				<port id="3"/>
				<port id="4"/>
			</input>
			<output>
				<port id="5" precision="FP16">
					<dim>1</dim>
					<dim>72</dim>
					<dim>1</dim>
					<dim>1</dim>
				</port>
			</output>
		</layer>
		<layer id="444" name="backbone.features.4.block.2.fc1.weight121912219/quantized1499925166" type="Const" version="opset1">
			<data element_type="i8" offset="16589" shape="24,72,1,1" size="1728"/>
			<output>
				<port id="0" precision="I8">
					<dim>24</dim>
					<dim>72</dim>
					<dim>1</dim>
					<dim>1</dim>
				</port>
			</output>
		</layer>
		<layer id="445" name="backbone.features.4.block.2.fc1.weight121912219/quantized/to_f16" type="Convert" version="opset1">
			<data destination_type="f16"/>
			<input>
				<port id="0">
					<dim>24</dim>
					<dim>72</dim>
					<dim>1</dim>
					<dim>1</dim>
				</port>
			</input>
			<output>
				<port id="1" precision="FP16">
					<dim>24</dim>
					<dim>72</dim>
					<dim>1</dim>
					<dim>1</dim>
				</port>
			</output>
		</layer>
		<layer id="446" name="Conv_35/WithoutBiases/fq_weights_1/zero_point1501224701" type="Const" version="opset1">
			<data element_type="f16" offset="18317" shape="24,1,1,1" size="48"/>
			<output>
				<port id="0" precision="FP16">
					<dim>24</dim>
					<dim>1</dim>
					<dim>1</dim>
					<dim>1</dim>
				</port>
			</output>
		</layer>
		<layer id="447" name="Conv_35/WithoutBiases/fq_weights_1/minus_zp" type="Subtract" version="opset1">
			<data auto_broadcast="numpy"/>
			<input>
				<port id="0">
					<dim>24</dim>
					<dim>72</dim>
					<dim>1</dim>
					<dim>1</dim>
				</port>
				<port id="1">
					<dim>24</dim>
					<dim>1</dim>
					<dim>1</dim>
					<dim>1</dim>
				</port>
			</input>
			<output>
				<port id="2" precision="FP16">
					<dim>24</dim>
					<dim>72</dim>
					<dim>1</dim>
					<dim>1</dim>
				</port>
			</output>
		</layer>
		<layer id="448" name="Conv_35/WithoutBiases/fq_weights_1/scale1500722421" type="Const" version="opset1">
			<data element_type="f16" offset="18365" shape="24,1,1,1" size="48"/>
			<output>
				<port id="0" precision="FP16">
					<dim>24</dim>
					<dim>1</dim>
					<dim>1</dim>
					<dim>1</dim>
				</port>
			</output>
		</layer>
		<layer id="449" name="Conv_35/WithoutBiases/fq_weights_1/mulpiply_by_scale" type="Multiply" version="opset1">
			<data auto_broadcast="numpy"/>
			<input>
				<port id="0">
					<dim>24</dim>
					<dim>72</dim>
					<dim>1</dim>
					<dim>1</dim>
				</port>
				<port id="1">
					<dim>24</dim>
					<dim>1</dim>
					<dim>1</dim>
					<dim>1</dim>
				</port>
			</input>
			<output>
				<port id="2" precision="FP16">
					<dim>24</dim>
					<dim>72</dim>
					<dim>1</dim>
					<dim>1</dim>
				</port>
			</output>
		</layer>
		<layer id="450" name="Conv_35/WithoutBiases" type="Convolution" version="opset1">
			<data auto_pad="explicit" dilations="1,1" pads_begin="0,0" pads_end="0,0" strides="1,1"/>
			<input>
				<port id="0">
					<dim>1</dim>
					<dim>72</dim>
					<dim>1</dim>
					<dim>1</dim>
				</port>
				<port id="1">
					<dim>24</dim>
					<dim>72</dim>
					<dim>1</dim>
					<dim>1</dim>
				</port>
			</input>
			<output>
				<port id="2" precision="FP16">
					<dim>1</dim>
					<dim>24</dim>
					<dim>1</dim>
					<dim>1</dim>
				</port>
			</output>
		</layer>
		<layer id="451" name="Conv_35/Dims8917122122604" type="Const" version="opset1">
			<data element_type="f16" offset="18413" shape="1,24,1,1" size="48"/>
			<output>
				<port id="0" precision="FP16">
					<dim>1</dim>
					<dim>24</dim>
					<dim>1</dim>
					<dim>1</dim>
				</port>
			</output>
		</layer>
		<layer id="452" name="Conv_35" type="Add" version="opset1">
			<data auto_broadcast="numpy"/>
			<input>
				<port id="0">
					<dim>1</dim>
					<dim>24</dim>
					<dim>1</dim>
					<dim>1</dim>
				</port>
				<port id="1">
					<dim>1</dim>
					<dim>24</dim>
					<dim>1</dim>
					<dim>1</dim>
				</port>
			</input>
			<output>
				<port id="2" names="430" precision="FP16">
					<dim>1</dim>
					<dim>24</dim>
					<dim>1</dim>
					<dim>1</dim>
				</port>
			</output>
		</layer>
		<layer id="453" name="Relu_36" type="ReLU" version="opset1">
			<input>
				<port id="0">
					<dim>1</dim>
					<dim>24</dim>
					<dim>1</dim>
					<dim>1</dim>
				</port>
			</input>
			<output>
				<port id="1" names="431" precision="FP16">
					<dim>1</dim>
					<dim>24</dim>
					<dim>1</dim>
					<dim>1</dim>
				</port>
			</output>
		</layer>
		<layer id="454" name="Conv_37/WithoutBiases/fq_input_0" type="FakeQuantize" version="opset1">
			<data auto_broadcast="numpy" levels="256"/>
			<input>
				<port id="0">
					<dim>1</dim>
					<dim>24</dim>
					<dim>1</dim>
					<dim>1</dim>
				</port>
				<port id="1"/>
				<port id="2"/>
				<port id="3"/>
				<port id="4"/>
			</input>
			<output>
				<port id="5" precision="FP16">
					<dim>1</dim>
					<dim>24</dim>
					<dim>1</dim>
					<dim>1</dim>
				</port>
			</output>
		</layer>
		<layer id="455" name="backbone.features.4.block.2.fc2.weight122412221/quantized1502322679" type="Const" version="opset1">
			<data element_type="i8" offset="18461" shape="72,24,1,1" size="1728"/>
			<output>
				<port id="0" precision="I8">
					<dim>72</dim>
					<dim>24</dim>
					<dim>1</dim>
					<dim>1</dim>
				</port>
			</output>
		</layer>
		<layer id="456" name="backbone.features.4.block.2.fc2.weight122412221/quantized/to_f16" type="Convert" version="opset1">
			<data destination_type="f16"/>
			<input>
				<port id="0">
					<dim>72</dim>
					<dim>24</dim>
					<dim>1</dim>
					<dim>1</dim>
				</port>
			</input>
			<output>
				<port id="1" precision="FP16">
					<dim>72</dim>
					<dim>24</dim>
					<dim>1</dim>
					<dim>1</dim>
				</port>
			</output>
		</layer>
		<layer id="457" name="Conv_37/WithoutBiases/fq_weights_1/zero_point1503624680" type="Const" version="opset1">
			<data element_type="f16" offset="20189" shape="72,1,1,1" size="144"/>
			<output>
				<port id="0" precision="FP16">
					<dim>72</dim>
					<dim>1</dim>
					<dim>1</dim>
					<dim>1</dim>
				</port>
			</output>
		</layer>
		<layer id="458" name="Conv_37/WithoutBiases/fq_weights_1/minus_zp" type="Subtract" version="opset1">
			<data auto_broadcast="numpy"/>
			<input>
				<port id="0">
					<dim>72</dim>
					<dim>24</dim>
					<dim>1</dim>
					<dim>1</dim>
				</port>
				<port id="1">
					<dim>72</dim>
					<dim>1</dim>
					<dim>1</dim>
					<dim>1</dim>
				</port>
			</input>
			<output>
				<port id="2" precision="FP16">
					<dim>72</dim>
					<dim>24</dim>
					<dim>1</dim>
					<dim>1</dim>
				</port>
			</output>
		</layer>
		<layer id="459" name="Conv_37/WithoutBiases/fq_weights_1/scale1503123519" type="Const" version="opset1">
			<data element_type="f16" offset="20333" shape="72,1,1,1" size="144"/>
			<output>
				<port id="0" precision="FP16">
					<dim>72</dim>
					<dim>1</dim>
					<dim>1</dim>
					<dim>1</dim>
				</port>
			</output>
		</layer>
		<layer id="460" name="Conv_37/WithoutBiases/fq_weights_1/mulpiply_by_scale" type="Multiply" version="opset1">
			<data auto_broadcast="numpy"/>
			<input>
				<port id="0">
					<dim>72</dim>
					<dim>24</dim>
					<dim>1</dim>
					<dim>1</dim>
				</port>
				<port id="1">
					<dim>72</dim>
					<dim>1</dim>
					<dim>1</dim>
					<dim>1</dim>
				</port>
			</input>
			<output>
				<port id="2" precision="FP16">
					<dim>72</dim>
					<dim>24</dim>
					<dim>1</dim>
					<dim>1</dim>
				</port>
			</output>
		</layer>
		<layer id="461" name="Conv_37/WithoutBiases" type="Convolution" version="opset1">
			<data auto_pad="explicit" dilations="1,1" pads_begin="0,0" pads_end="0,0" strides="1,1"/>
			<input>
				<port id="0">
					<dim>1</dim>
					<dim>24</dim>
					<dim>1</dim>
					<dim>1</dim>
				</port>
				<port id="1">
					<dim>72</dim>
					<dim>24</dim>
					<dim>1</dim>
					<dim>1</dim>
				</port>
			</input>
			<output>
				<port id="2" precision="FP16">
					<dim>1</dim>
					<dim>72</dim>
					<dim>1</dim>
					<dim>1</dim>
				</port>
			</output>
		</layer>
		<layer id="462" name="Conv_37/Dims8959122623012" type="Const" version="opset1">
			<data element_type="f16" offset="20477" shape="1,72,1,1" size="144"/>
			<output>
				<port id="0" precision="FP16">
					<dim>1</dim>
					<dim>72</dim>
					<dim>1</dim>
					<dim>1</dim>
				</port>
			</output>
		</layer>
		<layer id="463" name="Conv_37" type="Add" version="opset1">
			<data auto_broadcast="numpy"/>
			<input>
				<port id="0">
					<dim>1</dim>
					<dim>72</dim>
					<dim>1</dim>
					<dim>1</dim>
				</port>
				<port id="1">
					<dim>1</dim>
					<dim>72</dim>
					<dim>1</dim>
					<dim>1</dim>
				</port>
			</input>
			<output>
				<port id="2" names="432" precision="FP16">
					<dim>1</dim>
					<dim>72</dim>
					<dim>1</dim>
					<dim>1</dim>
				</port>
			</output>
		</layer>
		<layer id="464" name="HardSigmoid_38/HardSigmoid__input_port_1/value122822139" type="Const" version="opset1">
			<data element_type="f16" offset="20621" shape="" size="2"/>
			<output>
				<port id="0" precision="FP16"/>
			</output>
		</layer>
		<layer id="465" name="HardSigmoid_38/HardSigmoid__input_port_2/value122925124" type="Const" version="opset1">
			<data element_type="f16" offset="20623" shape="" size="2"/>
			<output>
				<port id="0" precision="FP16"/>
			</output>
		</layer>
		<layer id="466" name="HardSigmoid_38/HardSigmoid_" type="HardSigmoid" version="opset1">
			<input>
				<port id="0">
					<dim>1</dim>
					<dim>72</dim>
					<dim>1</dim>
					<dim>1</dim>
				</port>
				<port id="1"/>
				<port id="2"/>
			</input>
			<output>
				<port id="3" names="433" precision="FP16">
					<dim>1</dim>
					<dim>72</dim>
					<dim>1</dim>
					<dim>1</dim>
				</port>
			</output>
		</layer>
		<layer id="467" name="Mul_39/fq_input_0" type="FakeQuantize" version="opset1">
			<data auto_broadcast="numpy" levels="256"/>
			<input>
				<port id="0">
					<dim>1</dim>
					<dim>72</dim>
					<dim>1</dim>
					<dim>1</dim>
				</port>
				<port id="1"/>
				<port id="2"/>
				<port id="3"/>
				<port id="4"/>
			</input>
			<output>
				<port id="5" precision="FP16">
					<dim>1</dim>
					<dim>72</dim>
					<dim>1</dim>
					<dim>1</dim>
				</port>
			</output>
		</layer>
		<layer id="468" name="Mul_39" type="Multiply" version="opset1">
			<data auto_broadcast="numpy"/>
			<input>
				<port id="0">
					<dim>1</dim>
					<dim>72</dim>
					<dim>1</dim>
					<dim>1</dim>
				</port>
				<port id="1">
					<dim>1</dim>
					<dim>72</dim>
					<dim>34</dim>
					<dim>60</dim>
				</port>
			</input>
			<output>
				<port id="2" names="434" precision="FP16">
					<dim>1</dim>
					<dim>72</dim>
					<dim>34</dim>
					<dim>60</dim>
				</port>
			</output>
		</layer>
		<layer id="469" name="Conv_40/WithoutBiases/fq_input_0" type="FakeQuantize" version="opset1">
			<data auto_broadcast="numpy" levels="256"/>
			<input>
				<port id="0">
					<dim>1</dim>
					<dim>72</dim>
					<dim>34</dim>
					<dim>60</dim>
				</port>
				<port id="1"/>
				<port id="2"/>
				<port id="3"/>
				<port id="4"/>
			</input>
			<output>
				<port id="5" precision="FP16">
					<dim>1</dim>
					<dim>72</dim>
					<dim>34</dim>
					<dim>60</dim>
				</port>
			</output>
		</layer>
		<layer id="470" name="1119123212225/quantized1456724575" type="Const" version="opset1">
			<data element_type="i8" offset="20625" shape="40,72,1,1" size="2880"/>
			<output>
				<port id="0" precision="I8">
					<dim>40</dim>
					<dim>72</dim>
					<dim>1</dim>
					<dim>1</dim>
				</port>
			</output>
		</layer>
		<layer id="471" name="1119123212225/quantized/to_f16" type="Convert" version="opset1">
			<data destination_type="f16"/>
			<input>
				<port id="0">
					<dim>40</dim>
					<dim>72</dim>
					<dim>1</dim>
					<dim>1</dim>
				</port>
			</input>
			<output>
				<port id="1" precision="FP16">
					<dim>40</dim>
					<dim>72</dim>
					<dim>1</dim>
					<dim>1</dim>
				</port>
			</output>
		</layer>
		<layer id="472" name="Conv_40/WithoutBiases/fq_weights_1/zero_point1458023735" type="Const" version="opset1">
			<data element_type="f16" offset="23505" shape="40,1,1,1" size="80"/>
			<output>
				<port id="0" precision="FP16">
					<dim>40</dim>
					<dim>1</dim>
					<dim>1</dim>
					<dim>1</dim>
				</port>
			</output>
		</layer>
		<layer id="473" name="Conv_40/WithoutBiases/fq_weights_1/minus_zp" type="Subtract" version="opset1">
			<data auto_broadcast="numpy"/>
			<input>
				<port id="0">
					<dim>40</dim>
					<dim>72</dim>
					<dim>1</dim>
					<dim>1</dim>
				</port>
				<port id="1">
					<dim>40</dim>
					<dim>1</dim>
					<dim>1</dim>
					<dim>1</dim>
				</port>
			</input>
			<output>
				<port id="2" precision="FP16">
					<dim>40</dim>
					<dim>72</dim>
					<dim>1</dim>
					<dim>1</dim>
				</port>
			</output>
		</layer>
		<layer id="474" name="Conv_40/WithoutBiases/fq_weights_1/scale1457523039" type="Const" version="opset1">
			<data element_type="f16" offset="23585" shape="40,1,1,1" size="80"/>
			<output>
				<port id="0" precision="FP16">
					<dim>40</dim>
					<dim>1</dim>
					<dim>1</dim>
					<dim>1</dim>
				</port>
			</output>
		</layer>
		<layer id="475" name="Conv_40/WithoutBiases/fq_weights_1/mulpiply_by_scale" type="Multiply" version="opset1">
			<data auto_broadcast="numpy"/>
			<input>
				<port id="0">
					<dim>40</dim>
					<dim>72</dim>
					<dim>1</dim>
					<dim>1</dim>
				</port>
				<port id="1">
					<dim>40</dim>
					<dim>1</dim>
					<dim>1</dim>
					<dim>1</dim>
				</port>
			</input>
			<output>
				<port id="2" precision="FP16">
					<dim>40</dim>
					<dim>72</dim>
					<dim>1</dim>
					<dim>1</dim>
				</port>
			</output>
		</layer>
		<layer id="476" name="Conv_40/WithoutBiases" type="Convolution" version="opset1">
			<data auto_pad="explicit" dilations="1,1" pads_begin="0,0" pads_end="0,0" strides="1,1"/>
			<input>
				<port id="0">
					<dim>1</dim>
					<dim>72</dim>
					<dim>34</dim>
					<dim>60</dim>
				</port>
				<port id="1">
					<dim>40</dim>
					<dim>72</dim>
					<dim>1</dim>
					<dim>1</dim>
				</port>
			</input>
			<output>
				<port id="2" precision="FP16">
					<dim>1</dim>
					<dim>40</dim>
					<dim>34</dim>
					<dim>60</dim>
				</port>
			</output>
		</layer>
		<layer id="477" name="Conv_40/Dims9007123421656" type="Const" version="opset1">
			<data element_type="f16" offset="23665" shape="1,40,1,1" size="80"/>
			<output>
				<port id="0" precision="FP16">
					<dim>1</dim>
					<dim>40</dim>
					<dim>1</dim>
					<dim>1</dim>
				</port>
			</output>
		</layer>
		<layer id="478" name="Conv_40" type="Add" version="opset1">
			<data auto_broadcast="numpy"/>
			<input>
				<port id="0">
					<dim>1</dim>
					<dim>40</dim>
					<dim>34</dim>
					<dim>60</dim>
				</port>
				<port id="1">
					<dim>1</dim>
					<dim>40</dim>
					<dim>1</dim>
					<dim>1</dim>
				</port>
			</input>
			<output>
				<port id="2" names="1118" precision="FP16">
					<dim>1</dim>
					<dim>40</dim>
					<dim>34</dim>
					<dim>60</dim>
				</port>
			</output>
		</layer>
		<layer id="479" name="Add_52/fq_input_1" type="FakeQuantize" version="opset1">
			<data auto_broadcast="numpy" levels="256"/>
			<input>
				<port id="0">
					<dim>1</dim>
					<dim>40</dim>
					<dim>34</dim>
					<dim>60</dim>
				</port>
				<port id="1"/>
				<port id="2"/>
				<port id="3"/>
				<port id="4"/>
			</input>
			<output>
				<port id="5" precision="FP16">
					<dim>1</dim>
					<dim>40</dim>
					<dim>34</dim>
					<dim>60</dim>
				</port>
			</output>
		</layer>
		<layer id="480" name="1122123612227/quantized1430322997" type="Const" version="opset1">
			<data element_type="i8" offset="23745" shape="120,40,1,1" size="4800"/>
			<output>
				<port id="0" precision="I8">
					<dim>120</dim>
					<dim>40</dim>
					<dim>1</dim>
					<dim>1</dim>
				</port>
			</output>
		</layer>
		<layer id="481" name="1122123612227/quantized/to_f16" type="Convert" version="opset1">
			<data destination_type="f16"/>
			<input>
				<port id="0">
					<dim>120</dim>
					<dim>40</dim>
					<dim>1</dim>
					<dim>1</dim>
				</port>
			</input>
			<output>
				<port id="1" precision="FP16">
					<dim>120</dim>
					<dim>40</dim>
					<dim>1</dim>
					<dim>1</dim>
				</port>
			</output>
		</layer>
		<layer id="482" name="Conv_41/WithoutBiases/fq_weights_1/zero_point1431624131" type="Const" version="opset1">
			<data element_type="f16" offset="28545" shape="120,1,1,1" size="240"/>
			<output>
				<port id="0" precision="FP16">
					<dim>120</dim>
					<dim>1</dim>
					<dim>1</dim>
					<dim>1</dim>
				</port>
			</output>
		</layer>
		<layer id="483" name="Conv_41/WithoutBiases/fq_weights_1/minus_zp" type="Subtract" version="opset1">
			<data auto_broadcast="numpy"/>
			<input>
				<port id="0">
					<dim>120</dim>
					<dim>40</dim>
					<dim>1</dim>
					<dim>1</dim>
				</port>
				<port id="1">
					<dim>120</dim>
					<dim>1</dim>
					<dim>1</dim>
					<dim>1</dim>
				</port>
			</input>
			<output>
				<port id="2" precision="FP16">
					<dim>120</dim>
					<dim>40</dim>
					<dim>1</dim>
					<dim>1</dim>
				</port>
			</output>
		</layer>
…
		<edge from-layer="1859" from-port="0" to-layer="1861" to-port="2"/>
		<edge from-layer="1860" from-port="0" to-layer="1861" to-port="3"/>
		<edge from-layer="1861" from-port="4" to-layer="1863" to-port="0"/>
		<edge from-layer="1862" from-port="0" to-layer="1863" to-port="1"/>
		<edge from-layer="1863" from-port="2" to-layer="1865" to-port="0"/>
		<edge from-layer="1864" from-port="0" to-layer="1865" to-port="1"/>
		<edge from-layer="1841" from-port="4" to-layer="1866" to-port="0"/>
		<edge from-layer="1866" from-port="1" to-layer="1870" to-port="0"/>
		<edge from-layer="1867" from-port="0" to-layer="1870" to-port="1"/>
		<edge from-layer="1868" from-port="0" to-layer="1870" to-port="2"/>
		<edge from-layer="1869" from-port="0" to-layer="1870" to-port="3"/>
		<edge from-layer="1870" from-port="4" to-layer="1872" to-port="0"/>
		<edge from-layer="1871" from-port="0" to-layer="1872" to-port="1"/>
		<edge from-layer="1872" from-port="2" to-layer="1874" to-port="0"/>
		<edge from-layer="1873" from-port="0" to-layer="1874" to-port="1"/>
		<edge from-layer="1847" from-port="2" to-layer="1875" to-port="0"/>
		<edge from-layer="1856" from-port="2" to-layer="1875" to-port="1"/>
		<edge from-layer="1865" from-port="2" to-layer="1875" to-port="2"/>
		<edge from-layer="1874" from-port="2" to-layer="1875" to-port="3"/>
		<edge from-layer="193" from-port="0" to-layer="1876" to-port="0"/>
		<edge from-layer="1875" from-port="4" to-layer="1876" to-port="1"/>
		<edge from-layer="1841" from-port="4" to-layer="1887" to-port="0"/>
		<edge from-layer="1876" from-port="2" to-layer="1887" to-port="1"/>
		<edge from-layer="1888" from-port="0" to-layer="1889" to-port="0"/>
		<edge from-layer="1889" from-port="1" to-layer="1891" to-port="0"/>
		<edge from-layer="1890" from-port="0" to-layer="1891" to-port="1"/>
		<edge from-layer="1891" from-port="2" to-layer="1893" to-port="0"/>
		<edge from-layer="1892" from-port="0" to-layer="1893" to-port="1"/>
		<edge from-layer="1887" from-port="2" to-layer="1894" to-port="0"/>
		<edge from-layer="1893" from-port="2" to-layer="1894" to-port="1"/>
		<edge from-layer="1894" from-port="2" to-layer="1896" to-port="0"/>
		<edge from-layer="1895" from-port="0" to-layer="1896" to-port="1"/>
		<edge from-layer="1896" from-port="2" to-layer="1897" to-port="0"/>
		<edge from-layer="1897" from-port="1" to-layer="1898" to-port="0"/>
		<edge from-layer="1883" from-port="0" to-layer="1898" to-port="1"/>
		<edge from-layer="1884" from-port="0" to-layer="1898" to-port="2"/>
		<edge from-layer="1885" from-port="0" to-layer="1898" to-port="3"/>
		<edge from-layer="1886" from-port="0" to-layer="1898" to-port="4"/>
		<edge from-layer="1898" from-port="5" to-layer="1899" to-port="0"/>
		<edge from-layer="1881" from-port="0" to-layer="1899" to-port="1"/>
		<edge from-layer="1882" from-port="0" to-layer="1899" to-port="2"/>
		<edge from-layer="1900" from-port="0" to-layer="1901" to-port="0"/>
		<edge from-layer="1901" from-port="1" to-layer="1903" to-port="0"/>
		<edge from-layer="1902" from-port="0" to-layer="1903" to-port="1"/>
		<edge from-layer="1903" from-port="2" to-layer="1905" to-port="0"/>
		<edge from-layer="1904" from-port="0" to-layer="1905" to-port="1"/>
		<edge from-layer="1905" from-port="2" to-layer="1906" to-port="0"/>
		<edge from-layer="1899" from-port="4" to-layer="1906" to-port="1"/>
		<edge from-layer="1906" from-port="2" to-layer="1907" to-port="0"/>
		<edge from-layer="1877" from-port="0" to-layer="1907" to-port="1"/>
		<edge from-layer="1878" from-port="0" to-layer="1907" to-port="2"/>
		<edge from-layer="1879" from-port="0" to-layer="1907" to-port="3"/>
		<edge from-layer="1880" from-port="0" to-layer="1907" to-port="4"/>
		<edge from-layer="1907" from-port="5" to-layer="1908" to-port="0"/>
		<edge from-layer="1876" from-port="2" to-layer="1908" to-port="1"/>
		<edge from-layer="1908" from-port="2" to-layer="1909" to-port="0"/>
		<edge from-layer="189" from-port="0" to-layer="1909" to-port="1"/>
		<edge from-layer="190" from-port="0" to-layer="1909" to-port="2"/>
		<edge from-layer="191" from-port="0" to-layer="1909" to-port="3"/>
		<edge from-layer="192" from-port="0" to-layer="1909" to-port="4"/>
		<edge from-layer="1899" from-port="3" to-layer="1922" to-port="0"/>
		<edge from-layer="1876" from-port="2" to-layer="1922" to-port="1"/>
		<edge from-layer="1922" from-port="2" to-layer="1923" to-port="0"/>
		<edge from-layer="1918" from-port="0" to-layer="1923" to-port="1"/>
		<edge from-layer="1919" from-port="0" to-layer="1923" to-port="2"/>
		<edge from-layer="1920" from-port="0" to-layer="1923" to-port="3"/>
		<edge from-layer="1921" from-port="0" to-layer="1923" to-port="4"/>
		<edge from-layer="1841" from-port="4" to-layer="1924" to-port="0"/>
		<edge from-layer="1923" from-port="5" to-layer="1924" to-port="1"/>
		<edge from-layer="1925" from-port="0" to-layer="1926" to-port="0"/>
		<edge from-layer="1926" from-port="1" to-layer="1928" to-port="0"/>
		<edge from-layer="1927" from-port="0" to-layer="1928" to-port="1"/>
		<edge from-layer="1928" from-port="2" to-layer="1930" to-port="0"/>
		<edge from-layer="1929" from-port="0" to-layer="1930" to-port="1"/>
		<edge from-layer="1924" from-port="2" to-layer="1931" to-port="0"/>
		<edge from-layer="1930" from-port="2" to-layer="1931" to-port="1"/>
		<edge from-layer="1931" from-port="2" to-layer="1933" to-port="0"/>
		<edge from-layer="1932" from-port="0" to-layer="1933" to-port="1"/>
		<edge from-layer="1933" from-port="2" to-layer="1934" to-port="0"/>
		<edge from-layer="1934" from-port="1" to-layer="1935" to-port="0"/>
		<edge from-layer="1914" from-port="0" to-layer="1935" to-port="1"/>
		<edge from-layer="1915" from-port="0" to-layer="1935" to-port="2"/>
		<edge from-layer="1916" from-port="0" to-layer="1935" to-port="3"/>
		<edge from-layer="1917" from-port="0" to-layer="1935" to-port="4"/>
		<edge from-layer="1899" from-port="4" to-layer="1936" to-port="0"/>
		<edge from-layer="1935" from-port="5" to-layer="1936" to-port="1"/>
		<edge from-layer="1936" from-port="2" to-layer="1937" to-port="0"/>
		<edge from-layer="1910" from-port="0" to-layer="1937" to-port="1"/>
		<edge from-layer="1911" from-port="0" to-layer="1937" to-port="2"/>
		<edge from-layer="1912" from-port="0" to-layer="1937" to-port="3"/>
		<edge from-layer="1913" from-port="0" to-layer="1937" to-port="4"/>
		<edge from-layer="1909" from-port="5" to-layer="1938" to-port="0"/>
		<edge from-layer="1937" from-port="5" to-layer="1938" to-port="1"/>
		<edge from-layer="1938" from-port="2" to-layer="1939" to-port="0"/>
		<edge from-layer="185" from-port="0" to-layer="1939" to-port="1"/>
		<edge from-layer="186" from-port="0" to-layer="1939" to-port="2"/>
		<edge from-layer="187" from-port="0" to-layer="1939" to-port="3"/>
		<edge from-layer="188" from-port="0" to-layer="1939" to-port="4"/>
		<edge from-layer="1841" from-port="3" to-layer="1940" to-port="0"/>
		<edge from-layer="1939" from-port="5" to-layer="1940" to-port="1"/>
		<edge from-layer="1940" from-port="2" to-layer="1941" to-port="0"/>
		<edge from-layer="1941" from-port="1" to-layer="1942" to-port="0"/>
		<edge from-layer="1942" from-port="1" to-layer="1944" to-port="0"/>
		<edge from-layer="1943" from-port="0" to-layer="1944" to-port="1"/>
		<edge from-layer="1944" from-port="2" to-layer="1946" to-port="0"/>
		<edge from-layer="1945" from-port="0" to-layer="1946" to-port="1"/>
		<edge from-layer="1946" from-port="2" to-layer="1947" to-port="0"/>
		<edge from-layer="1947" from-port="1" to-layer="1948" to-port="0"/>
		<edge from-layer="1948" from-port="1" to-layer="1952" to-port="0"/>
		<edge from-layer="1949" from-port="0" to-layer="1952" to-port="1"/>
		<edge from-layer="1950" from-port="0" to-layer="1952" to-port="2"/>
		<edge from-layer="1951" from-port="0" to-layer="1952" to-port="3"/>
		<edge from-layer="1940" from-port="2" to-layer="1953" to-port="0"/>
		<edge from-layer="1952" from-port="4" to-layer="1953" to-port="1"/>
		<edge from-layer="183" from-port="0" to-layer="1953" to-port="2"/>
		<edge from-layer="184" from-port="0" to-layer="1953" to-port="3"/>
		<edge from-layer="1953" from-port="4" to-layer="1954" to-port="0"/>
		<edge from-layer="179" from-port="0" to-layer="1954" to-port="1"/>
		<edge from-layer="180" from-port="0" to-layer="1954" to-port="2"/>
		<edge from-layer="181" from-port="0" to-layer="1954" to-port="3"/>
		<edge from-layer="182" from-port="0" to-layer="1954" to-port="4"/>
		<edge from-layer="634" from-port="1" to-layer="1959" to-port="0"/>
		<edge from-layer="1959" from-port="1" to-layer="1962" to-port="0"/>
		<edge from-layer="1960" from-port="0" to-layer="1962" to-port="1"/>
		<edge from-layer="1961" from-port="0" to-layer="1962" to-port="2"/>
		<edge from-layer="1962" from-port="3" to-layer="1964" to-port="0"/>
		<edge from-layer="1963" from-port="0" to-layer="1964" to-port="1"/>
		<edge from-layer="1964" from-port="2" to-layer="1965" to-port="0"/>
		<edge from-layer="1965" from-port="1" to-layer="1968" to-port="0"/>
		<edge from-layer="1966" from-port="0" to-layer="1968" to-port="1"/>
		<edge from-layer="1967" from-port="0" to-layer="1968" to-port="2"/>
		<edge from-layer="1957" from-port="0" to-layer="1970" to-port="0"/>
		<edge from-layer="1958" from-port="0" to-layer="1970" to-port="1"/>
		<edge from-layer="1968" from-port="3" to-layer="1970" to-port="2"/>
		<edge from-layer="1969" from-port="0" to-layer="1970" to-port="3"/>
		<edge from-layer="1954" from-port="5" to-layer="1971" to-port="0"/>
		<edge from-layer="1955" from-port="0" to-layer="1971" to-port="1"/>
		<edge from-layer="1970" from-port="4" to-layer="1971" to-port="2"/>
		<edge from-layer="1956" from-port="0" to-layer="1971" to-port="3"/>
		<edge from-layer="634" from-port="1" to-layer="1977" to-port="0"/>
		<edge from-layer="1977" from-port="1" to-layer="1980" to-port="0"/>
		<edge from-layer="1978" from-port="0" to-layer="1980" to-port="1"/>
		<edge from-layer="1979" from-port="0" to-layer="1980" to-port="2"/>
		<edge from-layer="1980" from-port="3" to-layer="1982" to-port="0"/>
		<edge from-layer="1981" from-port="0" to-layer="1982" to-port="1"/>
		<edge from-layer="1982" from-port="2" to-layer="1983" to-port="0"/>
		<edge from-layer="1983" from-port="1" to-layer="1986" to-port="0"/>
		<edge from-layer="1984" from-port="0" to-layer="1986" to-port="1"/>
		<edge from-layer="1985" from-port="0" to-layer="1986" to-port="2"/>
		<edge from-layer="1974" from-port="0" to-layer="1987" to-port="0"/>
		<edge from-layer="1975" from-port="0" to-layer="1987" to-port="1"/>
		<edge from-layer="1976" from-port="0" to-layer="1987" to-port="2"/>
		<edge from-layer="1986" from-port="3" to-layer="1987" to-port="3"/>
		<edge from-layer="1971" from-port="4" to-layer="1988" to-port="0"/>
		<edge from-layer="1972" from-port="0" to-layer="1988" to-port="1"/>
		<edge from-layer="1987" from-port="4" to-layer="1988" to-port="2"/>
		<edge from-layer="1973" from-port="0" to-layer="1988" to-port="3"/>
		<edge from-layer="1988" from-port="4" to-layer="1989" to-port="0"/>
		<edge from-layer="178" from-port="5" to-layer="1989" to-port="1"/>
		<edge from-layer="635" from-port="5" to-layer="1989" to-port="2"/>
		<edge from-layer="1990" from-port="0" to-layer="1991" to-port="0"/>
		<edge from-layer="1991" from-port="1" to-layer="1993" to-port="0"/>
		<edge from-layer="1992" from-port="0" to-layer="1993" to-port="1"/>
		<edge from-layer="1993" from-port="2" to-layer="1995" to-port="0"/>
		<edge from-layer="1994" from-port="0" to-layer="1995" to-port="1"/>
		<edge from-layer="1989" from-port="3" to-layer="1996" to-port="0"/>
		<edge from-layer="1995" from-port="2" to-layer="1996" to-port="1"/>
		<edge from-layer="1996" from-port="2" to-layer="1998" to-port="0"/>
		<edge from-layer="1997" from-port="0" to-layer="1998" to-port="1"/>
		<edge from-layer="1998" from-port="2" to-layer="1999" to-port="0"/>
		<edge from-layer="1999" from-port="1" to-layer="2000" to-port="0"/>
		<edge from-layer="109" from-port="0" to-layer="2000" to-port="1"/>
		<edge from-layer="110" from-port="0" to-layer="2000" to-port="2"/>
		<edge from-layer="111" from-port="0" to-layer="2000" to-port="3"/>
		<edge from-layer="112" from-port="0" to-layer="2000" to-port="4"/>
		<edge from-layer="2000" from-port="5" to-layer="2001" to-port="0"/>
		<edge from-layer="107" from-port="0" to-layer="2001" to-port="1"/>
		<edge from-layer="108" from-port="0" to-layer="2001" to-port="2"/>
		<edge from-layer="2001" from-port="4" to-layer="2002" to-port="0"/>
		<edge from-layer="2002" from-port="1" to-layer="2005" to-port="0"/>
		<edge from-layer="2003" from-port="0" to-layer="2005" to-port="1"/>
		<edge from-layer="2004" from-port="0" to-layer="2005" to-port="2"/>
		<edge from-layer="2005" from-port="3" to-layer="2007" to-port="0"/>
		<edge from-layer="2006" from-port="0" to-layer="2007" to-port="1"/>
		<edge from-layer="2001" from-port="4" to-layer="2008" to-port="0"/>
		<edge from-layer="2008" from-port="1" to-layer="2012" to-port="0"/>
		<edge from-layer="2009" from-port="0" to-layer="2012" to-port="1"/>
		<edge from-layer="2010" from-port="0" to-layer="2012" to-port="2"/>
		<edge from-layer="2011" from-port="0" to-layer="2012" to-port="3"/>
		<edge from-layer="2012" from-port="4" to-layer="2014" to-port="0"/>
		<edge from-layer="2013" from-port="0" to-layer="2014" to-port="1"/>
		<edge from-layer="2014" from-port="2" to-layer="2016" to-port="0"/>
		<edge from-layer="2015" from-port="0" to-layer="2016" to-port="1"/>
		<edge from-layer="2001" from-port="4" to-layer="2017" to-port="0"/>
		<edge from-layer="2017" from-port="1" to-layer="2021" to-port="0"/>
		<edge from-layer="2018" from-port="0" to-layer="2021" to-port="1"/>
		<edge from-layer="2019" from-port="0" to-layer="2021" to-port="2"/>
		<edge from-layer="2020" from-port="0" to-layer="2021" to-port="3"/>
		<edge from-layer="2021" from-port="4" to-layer="2023" to-port="0"/>
		<edge from-layer="2022" from-port="0" to-layer="2023" to-port="1"/>
		<edge from-layer="2023" from-port="2" to-layer="2025" to-port="0"/>
		<edge from-layer="2024" from-port="0" to-layer="2025" to-port="1"/>
		<edge from-layer="2001" from-port="4" to-layer="2026" to-port="0"/>
		<edge from-layer="2026" from-port="1" to-layer="2030" to-port="0"/>
		<edge from-layer="2027" from-port="0" to-layer="2030" to-port="1"/>
		<edge from-layer="2028" from-port="0" to-layer="2030" to-port="2"/>
		<edge from-layer="2029" from-port="0" to-layer="2030" to-port="3"/>
		<edge from-layer="2030" from-port="4" to-layer="2032" to-port="0"/>
		<edge from-layer="2031" from-port="0" to-layer="2032" to-port="1"/>
		<edge from-layer="2032" from-port="2" to-layer="2034" to-port="0"/>
		<edge from-layer="2033" from-port="0" to-layer="2034" to-port="1"/>
		<edge from-layer="2007" from-port="2" to-layer="2035" to-port="0"/>
		<edge from-layer="2016" from-port="2" to-layer="2035" to-port="1"/>
		<edge from-layer="2025" from-port="2" to-layer="2035" to-port="2"/>
		<edge from-layer="2034" from-port="2" to-layer="2035" to-port="3"/>
		<edge from-layer="106" from-port="0" to-layer="2036" to-port="0"/>
		<edge from-layer="2035" from-port="4" to-layer="2036" to-port="1"/>
		<edge from-layer="2001" from-port="4" to-layer="2047" to-port="0"/>
		<edge from-layer="2036" from-port="2" to-layer="2047" to-port="1"/>
		<edge from-layer="2048" from-port="0" to-layer="2049" to-port="0"/>
		<edge from-layer="2049" from-port="1" to-layer="2051" to-port="0"/>
		<edge from-layer="2050" from-port="0" to-layer="2051" to-port="1"/>
		<edge from-layer="2051" from-port="2" to-layer="2053" to-port="0"/>
		<edge from-layer="2052" from-port="0" to-layer="2053" to-port="1"/>
		<edge from-layer="2047" from-port="2" to-layer="2054" to-port="0"/>
		<edge from-layer="2053" from-port="2" to-layer="2054" to-port="1"/>
		<edge from-layer="2054" from-port="2" to-layer="2056" to-port="0"/>
		<edge from-layer="2055" from-port="0" to-layer="2056" to-port="1"/>
		<edge from-layer="2056" from-port="2" to-layer="2057" to-port="0"/>
		<edge from-layer="2057" from-port="1" to-layer="2058" to-port="0"/>
		<edge from-layer="2043" from-port="0" to-layer="2058" to-port="1"/>
		<edge from-layer="2044" from-port="0" to-layer="2058" to-port="2"/>
		<edge from-layer="2045" from-port="0" to-layer="2058" to-port="3"/>
		<edge from-layer="2046" from-port="0" to-layer="2058" to-port="4"/>
		<edge from-layer="2058" from-port="5" to-layer="2059" to-port="0"/>
		<edge from-layer="2041" from-port="0" to-layer="2059" to-port="1"/>
		<edge from-layer="2042" from-port="0" to-layer="2059" to-port="2"/>
		<edge from-layer="2060" from-port="0" to-layer="2061" to-port="0"/>
		<edge from-layer="2061" from-port="1" to-layer="2063" to-port="0"/>
		<edge from-layer="2062" from-port="0" to-layer="2063" to-port="1"/>
		<edge from-layer="2063" from-port="2" to-layer="2065" to-port="0"/>
		<edge from-layer="2064" from-port="0" to-layer="2065" to-port="1"/>
		<edge from-layer="2065" from-port="2" to-layer="2066" to-port="0"/>
		<edge from-layer="2059" from-port="4" to-layer="2066" to-port="1"/>
		<edge from-layer="2066" from-port="2" to-layer="2067" to-port="0"/>
		<edge from-layer="2037" from-port="0" to-layer="2067" to-port="1"/>
		<edge from-layer="2038" from-port="0" to-layer="2067" to-port="2"/>
		<edge from-layer="2039" from-port="0" to-layer="2067" to-port="3"/>
		<edge from-layer="2040" from-port="0" to-layer="2067" to-port="4"/>
		<edge from-layer="2067" from-port="5" to-layer="2068" to-port="0"/>
		<edge from-layer="2036" from-port="2" to-layer="2068" to-port="1"/>
		<edge from-layer="2068" from-port="2" to-layer="2069" to-port="0"/>
		<edge from-layer="102" from-port="0" to-layer="2069" to-port="1"/>
		<edge from-layer="103" from-port="0" to-layer="2069" to-port="2"/>
		<edge from-layer="104" from-port="0" to-layer="2069" to-port="3"/>
		<edge from-layer="105" from-port="0" to-layer="2069" to-port="4"/>
		<edge from-layer="2059" from-port="3" to-layer="2082" to-port="0"/>
		<edge from-layer="2036" from-port="2" to-layer="2082" to-port="1"/>
		<edge from-layer="2082" from-port="2" to-layer="2083" to-port="0"/>
		<edge from-layer="2078" from-port="0" to-layer="2083" to-port="1"/>
		<edge from-layer="2079" from-port="0" to-layer="2083" to-port="2"/>
		<edge from-layer="2080" from-port="0" to-layer="2083" to-port="3"/>
		<edge from-layer="2081" from-port="0" to-layer="2083" to-port="4"/>
		<edge from-layer="2001" from-port="4" to-layer="2084" to-port="0"/>
		<edge from-layer="2083" from-port="5" to-layer="2084" to-port="1"/>
		<edge from-layer="2085" from-port="0" to-layer="2086" to-port="0"/>
		<edge from-layer="2086" from-port="1" to-layer="2088" to-port="0"/>
		<edge from-layer="2087" from-port="0" to-layer="2088" to-port="1"/>
		<edge from-layer="2088" from-port="2" to-layer="2090" to-port="0"/>
		<edge from-layer="2089" from-port="0" to-layer="2090" to-port="1"/>
		<edge from-layer="2084" from-port="2" to-layer="2091" to-port="0"/>
		<edge from-layer="2090" from-port="2" to-layer="2091" to-port="1"/>
		<edge from-layer="2091" from-port="2" to-layer="2093" to-port="0"/>
		<edge from-layer="2092" from-port="0" to-layer="2093" to-port="1"/>
		<edge from-layer="2093" from-port="2" to-layer="2094" to-port="0"/>
		<edge from-layer="2094" from-port="1" to-layer="2095" to-port="0"/>
		<edge from-layer="2074" from-port="0" to-layer="2095" to-port="1"/>
		<edge from-layer="2075" from-port="0" to-layer="2095" to-port="2"/>
		<edge from-layer="2076" from-port="0" to-layer="2095" to-port="3"/>
		<edge from-layer="2077" from-port="0" to-layer="2095" to-port="4"/>
		<edge from-layer="2059" from-port="4" to-layer="2096" to-port="0"/>
		<edge from-layer="2095" from-port="5" to-layer="2096" to-port="1"/>
		<edge from-layer="2096" from-port="2" to-layer="2097" to-port="0"/>
		<edge from-layer="2070" from-port="0" to-layer="2097" to-port="1"/>
		<edge from-layer="2071" from-port="0" to-layer="2097" to-port="2"/>
		<edge from-layer="2072" from-port="0" to-layer="2097" to-port="3"/>
		<edge from-layer="2073" from-port="0" to-layer="2097" to-port="4"/>
		<edge from-layer="2069" from-port="5" to-layer="2098" to-port="0"/>
		<edge from-layer="2097" from-port="5" to-layer="2098" to-port="1"/>
		<edge from-layer="2098" from-port="2" to-layer="2099" to-port="0"/>
		<edge from-layer="98" from-port="0" to-layer="2099" to-port="1"/>
		<edge from-layer="99" from-port="0" to-layer="2099" to-port="2"/>
		<edge from-layer="100" from-port="0" to-layer="2099" to-port="3"/>
		<edge from-layer="101" from-port="0" to-layer="2099" to-port="4"/>
		<edge from-layer="2001" from-port="3" to-layer="2100" to-port="0"/>
		<edge from-layer="2099" from-port="5" to-layer="2100" to-port="1"/>
		<edge from-layer="2100" from-port="2" to-layer="2101" to-port="0"/>
		<edge from-layer="2101" from-port="1" to-layer="2102" to-port="0"/>
		<edge from-layer="2102" from-port="1" to-layer="2104" to-port="0"/>
		<edge from-layer="2103" from-port="0" to-layer="2104" to-port="1"/>
		<edge from-layer="2104" from-port="2" to-layer="2106" to-port="0"/>
		<edge from-layer="2105" from-port="0" to-layer="2106" to-port="1"/>
		<edge from-layer="2106" from-port="2" to-layer="2107" to-port="0"/>
		<edge from-layer="2107" from-port="1" to-layer="2108" to-port="0"/>
		<edge from-layer="2108" from-port="1" to-layer="2112" to-port="0"/>
		<edge from-layer="2109" from-port="0" to-layer="2112" to-port="1"/>
		<edge from-layer="2110" from-port="0" to-layer="2112" to-port="2"/>
		<edge from-layer="2111" from-port="0" to-layer="2112" to-port="3"/>
		<edge from-layer="2100" from-port="2" to-layer="2113" to-port="0"/>
		<edge from-layer="2112" from-port="4" to-layer="2113" to-port="1"/>
		<edge from-layer="96" from-port="0" to-layer="2113" to-port="2"/>
		<edge from-layer="97" from-port="0" to-layer="2113" to-port="3"/>
		<edge from-layer="2113" from-port="4" to-layer="2114" to-port="0"/>
		<edge from-layer="92" from-port="0" to-layer="2114" to-port="1"/>
		<edge from-layer="93" from-port="0" to-layer="2114" to-port="2"/>
		<edge from-layer="94" from-port="0" to-layer="2114" to-port="3"/>
		<edge from-layer="95" from-port="0" to-layer="2114" to-port="4"/>
		<edge from-layer="72" from-port="4" to-layer="2119" to-port="0"/>
		<edge from-layer="2119" from-port="1" to-layer="2122" to-port="0"/>
		<edge from-layer="2120" from-port="0" to-layer="2122" to-port="1"/>
		<edge from-layer="2121" from-port="0" to-layer="2122" to-port="2"/>
		<edge from-layer="2122" from-port="3" to-layer="2124" to-port="0"/>
		<edge from-layer="2123" from-port="0" to-layer="2124" to-port="1"/>
		<edge from-layer="2124" from-port="2" to-layer="2125" to-port="0"/>
		<edge from-layer="2125" from-port="1" to-layer="2128" to-port="0"/>
		<edge from-layer="2126" from-port="0" to-layer="2128" to-port="1"/>
		<edge from-layer="2127" from-port="0" to-layer="2128" to-port="2"/>
		<edge from-layer="2117" from-port="0" to-layer="2130" to-port="0"/>
		<edge from-layer="2118" from-port="0" to-layer="2130" to-port="1"/>
		<edge from-layer="2128" from-port="3" to-layer="2130" to-port="2"/>
		<edge from-layer="2129" from-port="0" to-layer="2130" to-port="3"/>
		<edge from-layer="2114" from-port="5" to-layer="2131" to-port="0"/>
		<edge from-layer="2115" from-port="0" to-layer="2131" to-port="1"/>
		<edge from-layer="2130" from-port="4" to-layer="2131" to-port="2"/>
		<edge from-layer="2116" from-port="0" to-layer="2131" to-port="3"/>
		<edge from-layer="72" from-port="4" to-layer="2137" to-port="0"/>
		<edge from-layer="2137" from-port="1" to-layer="2140" to-port="0"/>
		<edge from-layer="2138" from-port="0" to-layer="2140" to-port="1"/>
		<edge from-layer="2139" from-port="0" to-layer="2140" to-port="2"/>
		<edge from-layer="2140" from-port="3" to-layer="2142" to-port="0"/>
		<edge from-layer="2141" from-port="0" to-layer="2142" to-port="1"/>
		<edge from-layer="2142" from-port="2" to-layer="2143" to-port="0"/>
		<edge from-layer="2143" from-port="1" to-layer="2146" to-port="0"/>
		<edge from-layer="2144" from-port="0" to-layer="2146" to-port="1"/>
		<edge from-layer="2145" from-port="0" to-layer="2146" to-port="2"/>
		<edge from-layer="2134" from-port="0" to-layer="2147" to-port="0"/>
		<edge from-layer="2135" from-port="0" to-layer="2147" to-port="1"/>
		<edge from-layer="2136" from-port="0" to-layer="2147" to-port="2"/>
		<edge from-layer="2146" from-port="3" to-layer="2147" to-port="3"/>
		<edge from-layer="2131" from-port="4" to-layer="2148" to-port="0"/>
		<edge from-layer="2132" from-port="0" to-layer="2148" to-port="1"/>
		<edge from-layer="2147" from-port="4" to-layer="2148" to-port="2"/>
		<edge from-layer="2133" from-port="0" to-layer="2148" to-port="3"/>
		<edge from-layer="2148" from-port="4" to-layer="2149" to-port="0"/>
		<edge from-layer="73" from-port="5" to-layer="2149" to-port="1"/>
		<edge from-layer="2150" from-port="0" to-layer="2151" to-port="0"/>
		<edge from-layer="2151" from-port="1" to-layer="2153" to-port="0"/>
		<edge from-layer="2152" from-port="0" to-layer="2153" to-port="1"/>
		<edge from-layer="2153" from-port="2" to-layer="2155" to-port="0"/>
		<edge from-layer="2154" from-port="0" to-layer="2155" to-port="1"/>
		<edge from-layer="2149" from-port="2" to-layer="2156" to-port="0"/>
		<edge from-layer="2155" from-port="2" to-layer="2156" to-port="1"/>
		<edge from-layer="2156" from-port="2" to-layer="2158" to-port="0"/>
		<edge from-layer="2157" from-port="0" to-layer="2158" to-port="1"/>
		<edge from-layer="2158" from-port="2" to-layer="2159" to-port="0"/>
		<edge from-layer="2159" from-port="1" to-layer="2160" to-port="0"/>
		<edge from-layer="88" from-port="0" to-layer="2160" to-port="1"/>
		<edge from-layer="89" from-port="0" to-layer="2160" to-port="2"/>
		<edge from-layer="90" from-port="0" to-layer="2160" to-port="3"/>
		<edge from-layer="91" from-port="0" to-layer="2160" to-port="4"/>
		<edge from-layer="2161" from-port="0" to-layer="2162" to-port="0"/>
		<edge from-layer="2162" from-port="1" to-layer="2164" to-port="0"/>
		<edge from-layer="2163" from-port="0" to-layer="2164" to-port="1"/>
		<edge from-layer="2164" from-port="2" to-layer="2166" to-port="0"/>
		<edge from-layer="2165" from-port="0" to-layer="2166" to-port="1"/>
		<edge from-layer="2160" from-port="5" to-layer="2167" to-port="0"/>
		<edge from-layer="2166" from-port="2" to-layer="2167" to-port="1"/>
		<edge from-layer="2167" from-port="2" to-layer="2169" to-port="0"/>
		<edge from-layer="2168" from-port="0" to-layer="2169" to-port="1"/>
		<edge from-layer="2169" from-port="2" to-layer="2170" to-port="0"/>
		<edge from-layer="2170" from-port="1" to-layer="2171" to-port="0"/>
		<edge from-layer="84" from-port="0" to-layer="2171" to-port="1"/>
		<edge from-layer="85" from-port="0" to-layer="2171" to-port="2"/>
		<edge from-layer="86" from-port="0" to-layer="2171" to-port="3"/>
		<edge from-layer="87" from-port="0" to-layer="2171" to-port="4"/>
		<edge from-layer="2172" from-port="0" to-layer="2173" to-port="0"/>
		<edge from-layer="2173" from-port="1" to-layer="2175" to-port="0"/>
		<edge from-layer="2174" from-port="0" to-layer="2175" to-port="1"/>
		<edge from-layer="2175" from-port="2" to-layer="2177" to-port="0"/>
		<edge from-layer="2176" from-port="0" to-layer="2177" to-port="1"/>
		<edge from-layer="2171" from-port="5" to-layer="2178" to-port="0"/>
		<edge from-layer="2177" from-port="2" to-layer="2178" to-port="1"/>
		<edge from-layer="2178" from-port="2" to-layer="2180" to-port="0"/>
		<edge from-layer="2179" from-port="0" to-layer="2180" to-port="1"/>
		<edge from-layer="2180" from-port="2" to-layer="2181" to-port="0"/>
		<edge from-layer="80" from-port="0" to-layer="2181" to-port="1"/>
		<edge from-layer="81" from-port="0" to-layer="2181" to-port="2"/>
		<edge from-layer="82" from-port="0" to-layer="2181" to-port="3"/>
		<edge from-layer="83" from-port="0" to-layer="2181" to-port="4"/>
		<edge from-layer="2181" from-port="5" to-layer="2182" to-port="0"/>
		<edge from-layer="78" from-port="0" to-layer="2182" to-port="1"/>
		<edge from-layer="79" from-port="0" to-layer="2182" to-port="2"/>
		<edge from-layer="2182" from-port="3" to-layer="2183" to-port="0"/>
		<edge from-layer="2182" from-port="4" to-layer="2183" to-port="1"/>
		<edge from-layer="77" from-port="2" to-layer="2184" to-port="0"/>
		<edge from-layer="2183" from-port="2" to-layer="2184" to-port="1"/>
		<edge from-layer="2184" from-port="2" to-layer="2185" to-port="0"/>
		<edge from-layer="25" from-port="0" to-layer="2185" to-port="1"/>
		<edge from-layer="26" from-port="0" to-layer="2185" to-port="2"/>
		<edge from-layer="27" from-port="0" to-layer="2185" to-port="3"/>
		<edge from-layer="28" from-port="0" to-layer="2185" to-port="4"/>
		<edge from-layer="2187" from-port="0" to-layer="2188" to-port="0"/>
		<edge from-layer="2188" from-port="1" to-layer="2190" to-port="0"/>
		<edge from-layer="2189" from-port="0" to-layer="2190" to-port="1"/>
		<edge from-layer="2190" from-port="2" to-layer="2192" to-port="0"/>
		<edge from-layer="2191" from-port="0" to-layer="2192" to-port="1"/>
		<edge from-layer="2192" from-port="2" to-layer="2193" to-port="0"/>
		<edge from-layer="2186" from-port="0" to-layer="2193" to-port="1"/>
		<edge from-layer="2185" from-port="5" to-layer="2194" to-port="0"/>
		<edge from-layer="2193" from-port="2" to-layer="2194" to-port="1"/>
		<edge from-layer="2194" from-port="2" to-layer="2195" to-port="0"/>
		<edge from-layer="24" from-port="0" to-layer="2195" to-port="1"/>
		<edge from-layer="2195" from-port="2" to-layer="2196" to-port="0"/>
		<edge from-layer="20" from-port="0" to-layer="2196" to-port="1"/>
		<edge from-layer="21" from-port="0" to-layer="2196" to-port="2"/>
		<edge from-layer="22" from-port="0" to-layer="2196" to-port="3"/>
		<edge from-layer="23" from-port="0" to-layer="2196" to-port="4"/>
		<edge from-layer="2207" from-port="0" to-layer="2208" to-port="0"/>
		<edge from-layer="2208" from-port="1" to-layer="2210" to-port="0"/>
		<edge from-layer="2209" from-port="0" to-layer="2210" to-port="1"/>
		<edge from-layer="2210" from-port="2" to-layer="2212" to-port="0"/>
		<edge from-layer="2211" from-port="0" to-layer="2212" to-port="1"/>
		<edge from-layer="2212" from-port="2" to-layer="2213" to-port="0"/>
		<edge from-layer="2206" from-port="0" to-layer="2213" to-port="1"/>
		<edge from-layer="77" from-port="2" to-layer="2214" to-port="0"/>
		<edge from-layer="2213" from-port="2" to-layer="2214" to-port="1"/>
		<edge from-layer="2214" from-port="2" to-layer="2215" to-port="0"/>
		<edge from-layer="2205" from-port="0" to-layer="2215" to-port="1"/>
		<edge from-layer="2215" from-port="2" to-layer="2216" to-port="0"/>
		<edge from-layer="2201" from-port="0" to-layer="2216" to-port="1"/>
		<edge from-layer="2202" from-port="0" to-layer="2216" to-port="2"/>
		<edge from-layer="2203" from-port="0" to-layer="2216" to-port="3"/>
		<edge from-layer="2204" from-port="0" to-layer="2216" to-port="4"/>
		<edge from-layer="2223" from-port="0" to-layer="2224" to-port="0"/>
		<edge from-layer="2224" from-port="1" to-layer="2226" to-port="0"/>
		<edge from-layer="2225" from-port="0" to-layer="2226" to-port="1"/>
		<edge from-layer="2226" from-port="2" to-layer="2228" to-port="0"/>
		<edge from-layer="2227" from-port="0" to-layer="2228" to-port="1"/>
		<edge from-layer="2228" from-port="2" to-layer="2229" to-port="0"/>
		<edge from-layer="2222" from-port="0" to-layer="2229" to-port="1"/>
		<edge from-layer="2183" from-port="2" to-layer="2230" to-port="0"/>
		<edge from-layer="2229" from-port="2" to-layer="2230" to-port="1"/>
		<edge from-layer="2230" from-port="2" to-layer="2231" to-port="0"/>
		<edge from-layer="2221" from-port="0" to-layer="2231" to-port="1"/>
		<edge from-layer="2231" from-port="2" to-layer="2232" to-port="0"/>
		<edge from-layer="2217" from-port="0" to-layer="2232" to-port="1"/>
		<edge from-layer="2218" from-port="0" to-layer="2232" to-port="2"/>
		<edge from-layer="2219" from-port="0" to-layer="2232" to-port="3"/>
		<edge from-layer="2220" from-port="0" to-layer="2232" to-port="4"/>
		<edge from-layer="2216" from-port="5" to-layer="2233" to-port="0"/>
		<edge from-layer="2232" from-port="5" to-layer="2233" to-port="1"/>
		<edge from-layer="2233" from-port="2" to-layer="2234" to-port="0"/>
		<edge from-layer="2197" from-port="0" to-layer="2234" to-port="1"/>
		<edge from-layer="2198" from-port="0" to-layer="2234" to-port="2"/>
		<edge from-layer="2199" from-port="0" to-layer="2234" to-port="3"/>
		<edge from-layer="2200" from-port="0" to-layer="2234" to-port="4"/>
		<edge from-layer="2196" from-port="5" to-layer="2235" to-port="0"/>
		<edge from-layer="2234" from-port="5" to-layer="2235" to-port="1"/>
		<edge from-layer="2235" from-port="2" to-layer="2236" to-port="0"/>
		<edge from-layer="16" from-port="0" to-layer="2236" to-port="1"/>
		<edge from-layer="17" from-port="0" to-layer="2236" to-port="2"/>
		<edge from-layer="18" from-port="0" to-layer="2236" to-port="3"/>
		<edge from-layer="19" from-port="0" to-layer="2236" to-port="4"/>
		<edge from-layer="77" from-port="2" to-layer="2250" to-port="0"/>
		<edge from-layer="77" from-port="2" to-layer="2250" to-port="1"/>
		<edge from-layer="2250" from-port="2" to-layer="2251" to-port="0"/>
		<edge from-layer="2246" from-port="0" to-layer="2251" to-port="1"/>
		<edge from-layer="2247" from-port="0" to-layer="2251" to-port="2"/>
		<edge from-layer="2248" from-port="0" to-layer="2251" to-port="3"/>
		<edge from-layer="2249" from-port="0" to-layer="2251" to-port="4"/>
		<edge from-layer="2253" from-port="0" to-layer="2254" to-port="0"/>
		<edge from-layer="2254" from-port="1" to-layer="2256" to-port="0"/>
		<edge from-layer="2255" from-port="0" to-layer="2256" to-port="1"/>
		<edge from-layer="2256" from-port="2" to-layer="2258" to-port="0"/>
		<edge from-layer="2257" from-port="0" to-layer="2258" to-port="1"/>
		<edge from-layer="2258" from-port="2" to-layer="2259" to-port="0"/>
		<edge from-layer="2252" from-port="0" to-layer="2259" to-port="1"/>
		<edge from-layer="2251" from-port="5" to-layer="2260" to-port="0"/>
		<edge from-layer="2259" from-port="2" to-layer="2260" to-port="1"/>
		<edge from-layer="2260" from-port="2" to-layer="2261" to-port="0"/>
		<edge from-layer="2245" from-port="0" to-layer="2261" to-port="1"/>
		<edge from-layer="2261" from-port="2" to-layer="2262" to-port="0"/>
		<edge from-layer="2241" from-port="0" to-layer="2262" to-port="1"/>
		<edge from-layer="2242" from-port="0" to-layer="2262" to-port="2"/>
		<edge from-layer="2243" from-port="0" to-layer="2262" to-port="3"/>
		<edge from-layer="2244" from-port="0" to-layer="2262" to-port="4"/>
		<edge from-layer="2216" from-port="5" to-layer="2267" to-port="0"/>
		<edge from-layer="2216" from-port="5" to-layer="2267" to-port="1"/>
		<edge from-layer="2267" from-port="2" to-layer="2268" to-port="0"/>
		<edge from-layer="2263" from-port="0" to-layer="2268" to-port="1"/>
		<edge from-layer="2264" from-port="0" to-layer="2268" to-port="2"/>
		<edge from-layer="2265" from-port="0" to-layer="2268" to-port="3"/>
		<edge from-layer="2266" from-port="0" to-layer="2268" to-port="4"/>
		<edge from-layer="2262" from-port="5" to-layer="2269" to-port="0"/>
		<edge from-layer="2268" from-port="5" to-layer="2269" to-port="1"/>
		<edge from-layer="2269" from-port="2" to-layer="2270" to-port="0"/>
		<edge from-layer="2237" from-port="0" to-layer="2270" to-port="1"/>
		<edge from-layer="2238" from-port="0" to-layer="2270" to-port="2"/>
		<edge from-layer="2239" from-port="0" to-layer="2270" to-port="3"/>
		<edge from-layer="2240" from-port="0" to-layer="2270" to-port="4"/>
		<edge from-layer="2236" from-port="5" to-layer="2271" to-port="0"/>
		<edge from-layer="2270" from-port="5" to-layer="2271" to-port="1"/>
		<edge from-layer="2171" from-port="5" to-layer="2271" to-port="2"/>
		<edge from-layer="2272" from-port="0" to-layer="2273" to-port="0"/>
		<edge from-layer="2273" from-port="1" to-layer="2275" to-port="0"/>
		<edge from-layer="2274" from-port="0" to-layer="2275" to-port="1"/>
		<edge from-layer="2275" from-port="2" to-layer="2277" to-port="0"/>
		<edge from-layer="2276" from-port="0" to-layer="2277" to-port="1"/>
		<edge from-layer="2271" from-port="3" to-layer="2278" to-port="0"/>
		<edge from-layer="2277" from-port="2" to-layer="2278" to-port="1"/>
		<edge from-layer="2278" from-port="2" to-layer="2280" to-port="0"/>
		<edge from-layer="2279" from-port="0" to-layer="2280" to-port="1"/>
		<edge from-layer="2280" from-port="2" to-layer="2281" to-port="0"/>
		<edge from-layer="2281" from-port="1" to-layer="2282" to-port="0"/>
		<edge from-layer="12" from-port="0" to-layer="2282" to-port="1"/>
		<edge from-layer="13" from-port="0" to-layer="2282" to-port="2"/>
		<edge from-layer="14" from-port="0" to-layer="2282" to-port="3"/>
		<edge from-layer="15" from-port="0" to-layer="2282" to-port="4"/>
		<edge from-layer="2283" from-port="0" to-layer="2284" to-port="0"/>
		<edge from-layer="2284" from-port="1" to-layer="2286" to-port="0"/>
		<edge from-layer="2285" from-port="0" to-layer="2286" to-port="1"/>
		<edge from-layer="2286" from-port="2" to-layer="2288" to-port="0"/>
		<edge from-layer="2287" from-port="0" to-layer="2288" to-port="1"/>
		<edge from-layer="2282" from-port="5" to-layer="2289" to-port="0"/>
		<edge from-layer="2288" from-port="2" to-layer="2289" to-port="1"/>
		<edge from-layer="2289" from-port="2" to-layer="2291" to-port="0"/>
		<edge from-layer="2290" from-port="0" to-layer="2291" to-port="1"/>
		<edge from-layer="2291" from-port="2" to-layer="2292" to-port="0"/>
		<edge from-layer="2292" from-port="1" to-layer="2293" to-port="0"/>
		<edge from-layer="8" from-port="0" to-layer="2293" to-port="1"/>
		<edge from-layer="9" from-port="0" to-layer="2293" to-port="2"/>
		<edge from-layer="10" from-port="0" to-layer="2293" to-port="3"/>
		<edge from-layer="11" from-port="0" to-layer="2293" to-port="4"/>
		<edge from-layer="2294" from-port="0" to-layer="2295" to-port="0"/>
		<edge from-layer="2295" from-port="1" to-layer="2297" to-port="0"/>
		<edge from-layer="2296" from-port="0" to-layer="2297" to-port="1"/>
		<edge from-layer="2297" from-port="2" to-layer="2299" to-port="0"/>
		<edge from-layer="2298" from-port="0" to-layer="2299" to-port="1"/>
		<edge from-layer="2293" from-port="5" to-layer="2300" to-port="0"/>
		<edge from-layer="2299" from-port="2" to-layer="2300" to-port="1"/>
		<edge from-layer="2300" from-port="2" to-layer="2302" to-port="0"/>
		<edge from-layer="2301" from-port="0" to-layer="2302" to-port="1"/>
		<edge from-layer="2302" from-port="2" to-layer="2303" to-port="0"/>
		<edge from-layer="2303" from-port="1" to-layer="2307" to-port="0"/>
		<edge from-layer="2304" from-port="0" to-layer="2307" to-port="1"/>
		<edge from-layer="2305" from-port="0" to-layer="2307" to-port="2"/>
		<edge from-layer="2306" from-port="0" to-layer="2307" to-port="3"/>
		<edge from-layer="48" from-port="0" to-layer="2308" to-port="0"/>
		<edge from-layer="2308" from-port="1" to-layer="2311" to-port="0"/>
		<edge from-layer="2309" from-port="0" to-layer="2311" to-port="1"/>
		<edge from-layer="2310" from-port="0" to-layer="2311" to-port="2"/>
		<edge from-layer="2311" from-port="3" to-layer="2313" to-port="0"/>
		<edge from-layer="2312" from-port="0" to-layer="2313" to-port="1"/>
		<edge from-layer="48" from-port="0" to-layer="2314" to-port="0"/>
		<edge from-layer="2314" from-port="1" to-layer="2317" to-port="0"/>
		<edge from-layer="2315" from-port="0" to-layer="2317" to-port="1"/>
		<edge from-layer="2316" from-port="0" to-layer="2317" to-port="2"/>
		<edge from-layer="2317" from-port="3" to-layer="2319" to-port="0"/>
		<edge from-layer="2318" from-port="0" to-layer="2319" to-port="1"/>
		<edge from-layer="2313" from-port="2" to-layer="2320" to-port="0"/>
		<edge from-layer="2319" from-port="2" to-layer="2320" to-port="1"/>
		<edge from-layer="2307" from-port="4" to-layer="2321" to-port="0"/>
		<edge from-layer="2320" from-port="2" to-layer="2321" to-port="1"/>
		<edge from-layer="2321" from-port="2" to-layer="2322" to-port="0"/>
		<edge from-layer="2302" from-port="2" to-layer="2323" to-port="0"/>
		<edge from-layer="2323" from-port="1" to-layer="2324" to-port="0"/>
		<edge from-layer="2322" from-port="1" to-layer="2325" to-port="0"/>
		<edge from-layer="2324" from-port="1" to-layer="2325" to-port="1"/>
		<edge from-layer="2325" from-port="2" to-layer="2327" to-port="0"/>
		<edge from-layer="2326" from-port="0" to-layer="2327" to-port="1"/>
		<edge from-layer="2327" from-port="2" to-layer="2331" to-port="0"/>
		<edge from-layer="2328" from-port="0" to-layer="2331" to-port="1"/>
		<edge from-layer="2329" from-port="0" to-layer="2331" to-port="2"/>
		<edge from-layer="2330" from-port="0" to-layer="2331" to-port="3"/>
		<edge from-layer="2302" from-port="2" to-layer="2337" to-port="0"/>
		<edge from-layer="2333" from-port="0" to-layer="2337" to-port="1"/>
		<edge from-layer="2334" from-port="0" to-layer="2337" to-port="2"/>
		<edge from-layer="2335" from-port="0" to-layer="2337" to-port="3"/>
		<edge from-layer="2336" from-port="0" to-layer="2337" to-port="4"/>
		<edge from-layer="2321" from-port="2" to-layer="2341" to-port="0"/>
		<edge from-layer="2338" from-port="0" to-layer="2341" to-port="1"/>
		<edge from-layer="2339" from-port="0" to-layer="2341" to-port="2"/>
		<edge from-layer="2340" from-port="0" to-layer="2341" to-port="3"/>
		<edge from-layer="2337" from-port="5" to-layer="2342" to-port="0"/>
		<edge from-layer="2341" from-port="4" to-layer="2342" to-port="1"/>
		<edge from-layer="2331" from-port="4" to-layer="2342" to-port="2"/>
		<edge from-layer="2332" from-port="0" to-layer="2342" to-port="3"/>
		<edge from-layer="2342" from-port="4" to-layer="2343" to-port="0"/>
		<edge from-layer="4" from-port="0" to-layer="2343" to-port="1"/>
		<edge from-layer="5" from-port="0" to-layer="2343" to-port="2"/>
		<edge from-layer="6" from-port="0" to-layer="2343" to-port="3"/>
		<edge from-layer="7" from-port="0" to-layer="2343" to-port="4"/>
		<edge from-layer="59" from-port="5" to-layer="2349" to-port="0"/>
		<edge from-layer="2348" from-port="0" to-layer="2349" to-port="1"/>
		<edge from-layer="2349" from-port="2" to-layer="2350" to-port="0"/>
		<edge from-layer="2344" from-port="0" to-layer="2350" to-port="1"/>
		<edge from-layer="2345" from-port="0" to-layer="2350" to-port="2"/>
		<edge from-layer="2346" from-port="0" to-layer="2350" to-port="3"/>
		<edge from-layer="2347" from-port="0" to-layer="2350" to-port="4"/>
		<edge from-layer="59" from-port="5" to-layer="2351" to-port="0"/>
		<edge from-layer="2350" from-port="5" to-layer="2351" to-port="1"/>
		<edge from-layer="2343" from-port="5" to-layer="2352" to-port="0"/>
		<edge from-layer="2351" from-port="2" to-layer="2352" to-port="1"/>
		<edge from-layer="2352" from-port="2" to-layer="2353" to-port="0"/>
		<edge from-layer="0" from-port="0" to-layer="2353" to-port="1"/>
		<edge from-layer="1" from-port="0" to-layer="2353" to-port="2"/>
		<edge from-layer="2" from-port="0" to-layer="2353" to-port="3"/>
		<edge from-layer="3" from-port="0" to-layer="2353" to-port="4"/>
		<edge from-layer="2337" from-port="5" to-layer="2362" to-port="0"/>
		<edge from-layer="2216" from-port="5" to-layer="2362" to-port="1"/>
		<edge from-layer="2362" from-port="2" to-layer="2363" to-port="0"/>
		<edge from-layer="2358" from-port="0" to-layer="2363" to-port="1"/>
		<edge from-layer="2359" from-port="0" to-layer="2363" to-port="2"/>
		<edge from-layer="2360" from-port="0" to-layer="2363" to-port="3"/>
		<edge from-layer="2361" from-port="0" to-layer="2363" to-port="4"/>
		<edge from-layer="2232" from-port="5" to-layer="2364" to-port="0"/>
		<edge from-layer="2363" from-port="5" to-layer="2364" to-port="1"/>
		<edge from-layer="2364" from-port="2" to-layer="2365" to-port="0"/>
		<edge from-layer="2365" from-port="1" to-layer="2369" to-port="0"/>
		<edge from-layer="2366" from-port="0" to-layer="2369" to-port="1"/>
		<edge from-layer="2367" from-port="0" to-layer="2369" to-port="2"/>
		<edge from-layer="2368" from-port="0" to-layer="2369" to-port="3"/>
		<edge from-layer="2311" from-port="3" to-layer="2371" to-port="0"/>
		<edge from-layer="2370" from-port="0" to-layer="2371" to-port="1"/>
		<edge from-layer="2317" from-port="3" to-layer="2373" to-port="0"/>
		<edge from-layer="2372" from-port="0" to-layer="2373" to-port="1"/>
		<edge from-layer="2371" from-port="2" to-layer="2374" to-port="0"/>
		<edge from-layer="2373" from-port="2" to-layer="2374" to-port="1"/>
		<edge from-layer="2369" from-port="4" to-layer="2375" to-port="0"/>
		<edge from-layer="2374" from-port="2" to-layer="2375" to-port="1"/>
		<edge from-layer="2375" from-port="2" to-layer="2376" to-port="0"/>
		<edge from-layer="2364" from-port="2" to-layer="2377" to-port="0"/>
		<edge from-layer="2377" from-port="1" to-layer="2378" to-port="0"/>
		<edge from-layer="2376" from-port="1" to-layer="2379" to-port="0"/>
		<edge from-layer="2378" from-port="1" to-layer="2379" to-port="1"/>
		<edge from-layer="2379" from-port="2" to-layer="2381" to-port="0"/>
		<edge from-layer="2380" from-port="0" to-layer="2381" to-port="1"/>
		<edge from-layer="2381" from-port="2" to-layer="2385" to-port="0"/>
		<edge from-layer="2382" from-port="0" to-layer="2385" to-port="1"/>
		<edge from-layer="2383" from-port="0" to-layer="2385" to-port="2"/>
		<edge from-layer="2384" from-port="0" to-layer="2385" to-port="3"/>
		<edge from-layer="2364" from-port="2" to-layer="2391" to-port="0"/>
		<edge from-layer="2387" from-port="0" to-layer="2391" to-port="1"/>
		<edge from-layer="2388" from-port="0" to-layer="2391" to-port="2"/>
		<edge from-layer="2389" from-port="0" to-layer="2391" to-port="3"/>
		<edge from-layer="2390" from-port="0" to-layer="2391" to-port="4"/>
		<edge from-layer="2375" from-port="2" to-layer="2395" to-port="0"/>
		<edge from-layer="2392" from-port="0" to-layer="2395" to-port="1"/>
		<edge from-layer="2393" from-port="0" to-layer="2395" to-port="2"/>
		<edge from-layer="2394" from-port="0" to-layer="2395" to-port="3"/>
		<edge from-layer="2391" from-port="5" to-layer="2396" to-port="0"/>
		<edge from-layer="2395" from-port="4" to-layer="2396" to-port="1"/>
		<edge from-layer="2385" from-port="4" to-layer="2396" to-port="2"/>
		<edge from-layer="2386" from-port="0" to-layer="2396" to-port="3"/>
		<edge from-layer="2396" from-port="4" to-layer="2397" to-port="0"/>
		<edge from-layer="2354" from-port="0" to-layer="2397" to-port="1"/>
		<edge from-layer="2355" from-port="0" to-layer="2397" to-port="2"/>
		<edge from-layer="2356" from-port="0" to-layer="2397" to-port="3"/>
		<edge from-layer="2357" from-port="0" to-layer="2397" to-port="4"/>
		<edge from-layer="2353" from-port="5" to-layer="2398" to-port="0"/>
		<edge from-layer="2397" from-port="5" to-layer="2398" to-port="1"/>
		<edge from-layer="2398" from-port="2" to-layer="2401" to-port="0"/>
		<edge from-layer="2399" from-port="0" to-layer="2401" to-port="1"/>
		<edge from-layer="2400" from-port="0" to-layer="2401" to-port="2"/>
		<edge from-layer="2401" from-port="4" to-layer="2403" to-port="0"/>
		<edge from-layer="2403" from-port="1" to-layer="2404" to-port="0"/>
	</edges>
	<meta_data>
		<MO_version value="2021.4.0-3839-cd81789d294-releases/2021/4"/>
		<cli_parameters>
			<caffe_parser_path value="DIR"/>
			<data_type value="FP16"/>
			<disable_nhwc_to_nchw value="False"/>
			<disable_omitting_optional value="False"/>
			<disable_resnet_optimization value="False"/>
			<disable_weights_compression value="False"/>
			<enable_concat_optimization value="False"/>
			<enable_flattening_nested_params value="False"/>
			<enable_ssd_gluoncv value="False"/>
			<extensions value="DIR"/>
			<framework value="onnx"/>
			<freeze_placeholder_with_value value="{}"/>
			<generate_deprecated_IR_V7 value="False"/>
			<input value="src"/>
			<input_model value="DIR\robust.onnx"/>
			<input_model_is_text value="False"/>
			<input_shape value="[1,3,1080,1920]"/>
			<k value="DIR\CustomLayersMapping.xml"/>
			<keep_shape_ops value="True"/>
			<legacy_ir_generation value="False"/>
			<legacy_mxnet_model value="False"/>
			<log_level value="ERROR"/>
			<mean_scale_values value="{'src': {'mean': None, 'scale': array([255., 255., 255.])}}"/>
			<mean_values value="()"/>
			<model_name value="robust"/>
			<output value="['pha']"/>
			<output_dir value="DIR"/>
			<placeholder_data_types value="{}"/>
			<placeholder_shapes value="{'src': array([   1,    3, 1080, 1920], dtype=int64)}"/>
			<progress value="False"/>
			<remove_memory value="False"/>
			<remove_output_softmax value="False"/>
			<reverse_input_channels value="True"/>
			<save_params_from_nd value="False"/>
			<scale_values value="src[255,255,255]"/>
			<silent value="False"/>
			<static_shape value="False"/>
			<stream_output value="False"/>
			<transform value=""/>
			<unset unset_cli_parameters="batch, counts, disable_fusing, disable_gfusing, finegrain_fusing, input_checkpoint, input_meta_graph, input_proto, input_symbol, mean_file, mean_file_offsets, move_to_preprocess, nd_prefix_name, pretrained_model_name, saved_model_dir, saved_model_tags, scale, tensorboard_logdir, tensorflow_custom_layer_libraries, tensorflow_custom_operations_config_update, tensorflow_object_detection_api_pipeline_config, tensorflow_use_custom_operations_config, transformations_config"/>
		</cli_parameters>
	</meta_data>
	<quantization_parameters>
		<config>{
		'compression': {
			'target_device': 'CPU',
			'algorithms': [
				{
					'name': 'DefaultQuantization',
					'params': {
						'preset': 'performance',
						'stat_subset_size': 10
					}
				}
			]
		},
		'engine': {
			'type': 'simplified',
			'data_source': 'PATH',
			'device': 'CPU'
		}
	}</config>
		<version value="1.0"/>
		<cli_params value="{'quantize': None, 'preset': None, 'model': None, 'weights': None, 'name': None, 'ac_config': None, 'max_drop': None, 'evaluate': False, 'output_dir': 'PATH', 'direct_dump': True, 'log_level': 'INFO', 'pbar': True, 'stream_output': False, 'keep_uncompressed_weights': False}"/>
	</quantization_parameters>
</net>
