<?xml version="1.0" ?>
<net name="robust" version="10">
	<layers>
		<layer id="0" name="src" type="Parameter" version="opset1">
			<data element_type="f16" shape="1, 3, 1080, 1920"/>
			<output>
				<port id="0" names="src" precision="FP16">
					<dim>1</dim>
					<dim>3</dim>
					<dim>1080</dim>
					<dim>1920</dim>
				</port>
			</output>
		</layer>
		<layer id="1" name="src/reverse_input_channels31508/Split_input_port_1/value3152235262" type="Const" version="opset1">
			<data element_type="i64" offset="0" shape="" size="8"/>
			<output>
				<port id="0" precision="I64"/>
			</output>
		</layer>
		<layer id="2" name="src/reverse_input_channels31508/Split" type="Split" version="opset1">
			<data num_splits="3"/>
			<input>
				<port id="0" precision="FP16">
					<dim>1</dim>
					<dim>3</dim>
					<dim>1080</dim>
					<dim>1920</dim>
				</port>
				<port id="1" precision="I64"/>
			</input>
			<output>
				<port id="2" precision="FP16">
					<dim>1</dim>
					<dim>1</dim>
					<dim>1080</dim>
					<dim>1920</dim>
				</port>
				<port id="3" precision="FP16">
					<dim>1</dim>
					<dim>1</dim>
					<dim>1080</dim>
					<dim>1920</dim>
				</port>
				<port id="4" precision="FP16">
					<dim>1</dim>
					<dim>1</dim>
					<dim>1080</dim>
					<dim>1920</dim>
				</port>
			</output>
		</layer>
		<layer id="3" name="src/reverse_input_channels31508/Concat" type="Concat" version="opset1">
			<data axis="1"/>
			<input>
				<port id="0" precision="FP16">
					<dim>1</dim>
					<dim>1</dim>
					<dim>1080</dim>
					<dim>1920</dim>
				</port>
				<port id="1" precision="FP16">
					<dim>1</dim>
					<dim>1</dim>
					<dim>1080</dim>
					<dim>1920</dim>
				</port>
				<port id="2" precision="FP16">
					<dim>1</dim>
					<dim>1</dim>
					<dim>1080</dim>
					<dim>1920</dim>
				</port>
			</input>
			<output>
				<port id="3" precision="FP16">
					<dim>1</dim>
					<dim>3</dim>
					<dim>1080</dim>
					<dim>1920</dim>
				</port>
			</output>
		</layer>
		<layer id="4" name="src/scale_input_port_1/value3275" type="Const" version="opset1">
			<data element_type="f16" offset="8" shape="1, 3, 1, 1" size="6"/>
			<output>
				<port id="0" precision="FP16">
					<dim>1</dim>
					<dim>3</dim>
					<dim>1</dim>
					<dim>1</dim>
				</port>
			</output>
		</layer>
		<layer id="5" name="src/scale" type="Multiply" version="opset1">
			<data auto_broadcast="numpy"/>
			<input>
				<port id="0" precision="FP16">
					<dim>1</dim>
					<dim>3</dim>
					<dim>1080</dim>
					<dim>1920</dim>
				</port>
				<port id="1" precision="FP16">
					<dim>1</dim>
					<dim>3</dim>
					<dim>1</dim>
					<dim>1</dim>
				</port>
			</input>
			<output>
				<port id="2" precision="FP16">
					<dim>1</dim>
					<dim>3</dim>
					<dim>1080</dim>
					<dim>1920</dim>
				</port>
			</output>
		</layer>
		<layer id="6" name="Resize_1/ShapeOf" type="ShapeOf" version="opset3">
			<data output_type="i64"/>
			<input>
				<port id="0" precision="FP16">
					<dim>1</dim>
					<dim>3</dim>
					<dim>1080</dim>
					<dim>1920</dim>
				</port>
			</input>
			<output>
				<port id="1" precision="I64">
					<dim>4</dim>
				</port>
			</output>
		</layer>
		<layer id="7" name="6119" type="Convert" version="opset1">
			<data destination_type="f32"/>
			<input>
				<port id="0" precision="I64">
					<dim>4</dim>
				</port>
			</input>
			<output>
				<port id="1" precision="FP32">
					<dim>4</dim>
				</port>
			</output>
		</layer>
		<layer id="8" name="1059" type="Const" version="opset1">
			<data element_type="f32" offset="14" shape="4" size="16"/>
			<output>
				<port id="0" names="1059" precision="FP32">
					<dim>4</dim>
				</port>
			</output>
		</layer>
		<layer id="9" name="Resize_1/Mul" type="Multiply" version="opset1">
			<data auto_broadcast="numpy"/>
			<input>
				<port id="0" precision="FP32">
					<dim>4</dim>
				</port>
				<port id="1" precision="FP32">
					<dim>4</dim>
				</port>
			</input>
			<output>
				<port id="2" precision="FP32">
					<dim>4</dim>
				</port>
			</output>
		</layer>
		<layer id="10" name="Resize_1/Add_input_port_1/value611834971" type="Const" version="opset1">
			<data element_type="f32" offset="30" shape="1" size="4"/>
			<output>
				<port id="0" precision="FP32">
					<dim>1</dim>
				</port>
			</output>
		</layer>
		<layer id="11" name="Resize_1/Add" type="Add" version="opset1">
			<data auto_broadcast="numpy"/>
			<input>
				<port id="0" precision="FP32">
					<dim>4</dim>
				</port>
				<port id="1" precision="FP32">
					<dim>1</dim>
				</port>
			</input>
			<output>
				<port id="2" precision="FP32">
					<dim>4</dim>
				</port>
			</output>
		</layer>
		<layer id="12" name="Resize_1/Floor" type="Floor" version="opset1">
			<input>
				<port id="0" precision="FP32">
					<dim>4</dim>
				</port>
			</input>
			<output>
				<port id="1" precision="FP32">
					<dim>4</dim>
				</port>
			</output>
		</layer>
		<layer id="13" name="6123" type="Convert" version="opset1">
			<data destination_type="i64"/>
			<input>
				<port id="0" precision="FP32">
					<dim>4</dim>
				</port>
			</input>
			<output>
				<port id="1" precision="I64">
					<dim>4</dim>
				</port>
			</output>
		</layer>
		<layer id="14" name="Resize_1/StridedSlice_sizes_input_port_1/value610034878" type="Const" version="opset1">
			<data element_type="i64" offset="34" shape="1" size="8"/>
			<output>
				<port id="0" precision="I64">
					<dim>1</dim>
				</port>
			</output>
		</layer>
		<layer id="15" name="Resize_1/StridedSlice_sizes_input_port_2/value610235850" type="Const" version="opset1">
			<data element_type="i64" offset="42" shape="1" size="8"/>
			<output>
				<port id="0" precision="I64">
					<dim>1</dim>
				</port>
			</output>
		</layer>
		<layer id="16" name="Resize_1/StridedSlice_sizes_input_port_3/value610436027" type="Const" version="opset1">
			<data element_type="i64" offset="0" shape="1" size="8"/>
			<output>
				<port id="0" precision="I64">
					<dim>1</dim>
				</port>
			</output>
		</layer>
		<layer id="17" name="Resize_1/StridedSlice_sizes" type="StridedSlice" version="opset1">
			<data begin_mask="0" ellipsis_mask="0" end_mask="0" new_axis_mask="0" shrink_axis_mask="0"/>
			<input>
				<port id="0" precision="I64">
					<dim>4</dim>
				</port>
				<port id="1" precision="I64">
					<dim>1</dim>
				</port>
				<port id="2" precision="I64">
					<dim>1</dim>
				</port>
				<port id="3" precision="I64">
					<dim>1</dim>
				</port>
			</input>
			<output>
				<port id="4" precision="I64">
					<dim>2</dim>
				</port>
			</output>
		</layer>
		<layer id="18" name="Resize_1/StridedSlice_scales613035991" type="Const" version="opset1">
			<data element_type="f32" offset="50" shape="2" size="8"/>
			<output>
				<port id="0" precision="FP32">
					<dim>2</dim>
				</port>
			</output>
		</layer>
		<layer id="19" name="Resize_1/axis611435886" type="Const" version="opset1">
			<data element_type="i64" offset="58" shape="2" size="16"/>
			<output>
				<port id="0" precision="I64">
					<dim>2</dim>
				</port>
			</output>
		</layer>
		<layer id="20" name="Resize_1" type="Interpolate" version="opset4">
			<data antialias="false" coordinate_transformation_mode="pytorch_half_pixel" cube_coeff="-0.75" mode="linear_onnx" nearest_mode="floor" pads_begin="0, 0, 0, 0" pads_end="0, 0, 0, 0" shape_calculation_mode="scales"/>
			<input>
				<port id="0" precision="FP16">
					<dim>1</dim>
					<dim>3</dim>
					<dim>1080</dim>
					<dim>1920</dim>
				</port>
				<port id="1" precision="I64">
					<dim>2</dim>
				</port>
				<port id="2" precision="FP32">
					<dim>2</dim>
				</port>
				<port id="3" precision="I64">
					<dim>2</dim>
				</port>
			</input>
			<output>
				<port id="4" names="291" precision="FP16">
					<dim>1</dim>
					<dim>3</dim>
					<dim>270</dim>
					<dim>480</dim>
				</port>
			</output>
		</layer>
		<layer id="21" name="ReduceMean_514/axis" type="Const" version="opset1">
			<data element_type="i64" offset="0" shape="1" size="8"/>
			<output>
				<port id="0" precision="I64">
					<dim>1</dim>
				</port>
			</output>
		</layer>
		<layer id="22" name="ReduceMean_514" type="ReduceMean" version="opset1">
			<data keep_dims="true"/>
			<input>
				<port id="0" precision="FP16">
					<dim>1</dim>
					<dim>3</dim>
					<dim>270</dim>
					<dim>480</dim>
				</port>
				<port id="1" precision="I64">
					<dim>1</dim>
				</port>
			</input>
			<output>
				<port id="2" names="890" precision="FP16">
					<dim>1</dim>
					<dim>1</dim>
					<dim>270</dim>
					<dim>480</dim>
				</port>
			</output>
		</layer>
		<layer id="23" name="Concat_515" type="Concat" version="opset1">
			<data axis="1"/>
			<input>
				<port id="0" precision="FP16">
					<dim>1</dim>
					<dim>3</dim>
					<dim>270</dim>
					<dim>480</dim>
				</port>
				<port id="1" precision="FP16">
					<dim>1</dim>
					<dim>1</dim>
					<dim>270</dim>
					<dim>480</dim>
				</port>
			</input>
			<output>
				<port id="2" names="891" precision="FP16">
					<dim>1</dim>
					<dim>4</dim>
					<dim>270</dim>
					<dim>480</dim>
				</port>
			</output>
		</layer>
		<layer id="24" name="data_mul_14390" type="Const" version="opset1">
			<data element_type="f16" offset="74" shape="1, 3, 1, 1" size="6"/>
			<output>
				<port id="0" precision="FP16">
					<dim>1</dim>
					<dim>3</dim>
					<dim>1</dim>
					<dim>1</dim>
				</port>
			</output>
		</layer>
		<layer id="25" name="Div_5/Fused_Mul_" type="Multiply" version="opset1">
			<data auto_broadcast="numpy"/>
			<input>
				<port id="0" precision="FP16">
					<dim>1</dim>
					<dim>3</dim>
					<dim>270</dim>
					<dim>480</dim>
				</port>
				<port id="1" precision="FP16">
					<dim>1</dim>
					<dim>3</dim>
					<dim>1</dim>
					<dim>1</dim>
				</port>
			</input>
			<output>
				<port id="2" precision="FP16">
					<dim>1</dim>
					<dim>3</dim>
					<dim>270</dim>
					<dim>480</dim>
				</port>
			</output>
		</layer>
		<layer id="26" name="data_add_14392" type="Const" version="opset1">
			<data element_type="f16" offset="80" shape="1, 3, 1, 1" size="6"/>
			<output>
				<port id="0" precision="FP16">
					<dim>1</dim>
					<dim>3</dim>
					<dim>1</dim>
					<dim>1</dim>
				</port>
			</output>
		</layer>
		<layer id="27" name="Sub_3/Fused_Add_" type="Add" version="opset1">
			<data auto_broadcast="numpy"/>
			<input>
				<port id="0" precision="FP16">
					<dim>1</dim>
					<dim>3</dim>
					<dim>270</dim>
					<dim>480</dim>
				</port>
				<port id="1" precision="FP16">
					<dim>1</dim>
					<dim>3</dim>
					<dim>1</dim>
					<dim>1</dim>
				</port>
			</input>
			<output>
				<port id="2" names="295" precision="FP16">
					<dim>1</dim>
					<dim>3</dim>
					<dim>270</dim>
					<dim>480</dim>
				</port>
			</output>
		</layer>
		<layer id="28" name="955" type="Const" version="opset1">
			<data element_type="f16" offset="86" shape="16, 3, 3, 3" size="864"/>
			<output>
				<port id="0" names="955" precision="FP16">
					<dim>16</dim>
					<dim>3</dim>
					<dim>3</dim>
					<dim>3</dim>
				</port>
			</output>
		</layer>
		<layer id="29" name="Conv_6/WithoutBiases" type="Convolution" version="opset1">
			<data auto_pad="explicit" dilations="1, 1" pads_begin="1, 1" pads_end="1, 1" strides="2, 2"/>
			<input>
				<port id="0" precision="FP16">
					<dim>1</dim>
					<dim>3</dim>
					<dim>270</dim>
					<dim>480</dim>
				</port>
				<port id="1" precision="FP16">
					<dim>16</dim>
					<dim>3</dim>
					<dim>3</dim>
					<dim>3</dim>
				</port>
			</input>
			<output>
				<port id="2" precision="FP16">
					<dim>1</dim>
					<dim>16</dim>
					<dim>135</dim>
					<dim>240</dim>
				</port>
			</output>
		</layer>
		<layer id="30" name="Conv_6/Dims7663" type="Const" version="opset1">
			<data element_type="f16" offset="950" shape="1, 16, 1, 1" size="32"/>
			<output>
				<port id="0" precision="FP16">
					<dim>1</dim>
					<dim>16</dim>
					<dim>1</dim>
					<dim>1</dim>
				</port>
			</output>
		</layer>
		<layer id="31" name="Conv_6" type="Add" version="opset1">
			<data auto_broadcast="numpy"/>
			<input>
				<port id="0" precision="FP16">
					<dim>1</dim>
					<dim>16</dim>
					<dim>135</dim>
					<dim>240</dim>
				</port>
				<port id="1" precision="FP16">
					<dim>1</dim>
					<dim>16</dim>
					<dim>1</dim>
					<dim>1</dim>
				</port>
			</input>
			<output>
				<port id="2" names="954" precision="FP16">
					<dim>1</dim>
					<dim>16</dim>
					<dim>135</dim>
					<dim>240</dim>
				</port>
			</output>
		</layer>
		<layer id="32" name="Constant_7" type="Const" version="opset1">
			<data element_type="f16" offset="982" shape="1, 1, 1, 1" size="2"/>
			<output>
				<port id="0" names="298" precision="FP16">
					<dim>1</dim>
					<dim>1</dim>
					<dim>1</dim>
					<dim>1</dim>
				</port>
			</output>
		</layer>
		<layer id="33" name="Add_8" type="Add" version="opset1">
			<data auto_broadcast="numpy"/>
			<input>
				<port id="0" precision="FP16">
					<dim>1</dim>
					<dim>16</dim>
					<dim>135</dim>
					<dim>240</dim>
				</port>
				<port id="1" precision="FP16">
					<dim>1</dim>
					<dim>1</dim>
					<dim>1</dim>
					<dim>1</dim>
				</port>
			</input>
			<output>
				<port id="2" names="299" precision="FP16">
					<dim>1</dim>
					<dim>16</dim>
					<dim>135</dim>
					<dim>240</dim>
				</port>
			</output>
		</layer>
		<layer id="34" name="Clip_11" type="Clamp" version="opset1">
			<data max="6" min="0"/>
			<input>
				<port id="0" precision="FP16">
					<dim>1</dim>
					<dim>16</dim>
					<dim>135</dim>
					<dim>240</dim>
				</port>
			</input>
			<output>
				<port id="1" names="302" precision="FP16">
					<dim>1</dim>
					<dim>16</dim>
					<dim>135</dim>
					<dim>240</dim>
				</port>
			</output>
		</layer>
		<layer id="35" name="Constant_12" type="Const" version="opset1">
			<data element_type="f16" offset="984" shape="1, 1, 1, 1" size="2"/>
			<output>
				<port id="0" names="303" precision="FP16">
					<dim>1</dim>
					<dim>1</dim>
					<dim>1</dim>
					<dim>1</dim>
				</port>
			</output>
		</layer>
		<layer id="36" name="Div_13" type="Multiply" version="opset1">
			<data auto_broadcast="numpy"/>
			<input>
				<port id="0" precision="FP16">
					<dim>1</dim>
					<dim>16</dim>
					<dim>135</dim>
					<dim>240</dim>
				</port>
				<port id="1" precision="FP16">
					<dim>1</dim>
					<dim>1</dim>
					<dim>1</dim>
					<dim>1</dim>
				</port>
			</input>
			<output>
				<port id="2" names="304" precision="FP16">
					<dim>1</dim>
					<dim>16</dim>
					<dim>135</dim>
					<dim>240</dim>
				</port>
			</output>
		</layer>
		<layer id="37" name="Mul_14" type="Multiply" version="opset1">
			<data auto_broadcast="numpy"/>
			<input>
				<port id="0" precision="FP16">
					<dim>1</dim>
					<dim>16</dim>
					<dim>135</dim>
					<dim>240</dim>
				</port>
				<port id="1" precision="FP16">
					<dim>1</dim>
					<dim>16</dim>
					<dim>135</dim>
					<dim>240</dim>
				</port>
			</input>
			<output>
				<port id="2" names="305" precision="FP16">
					<dim>1</dim>
					<dim>16</dim>
					<dim>135</dim>
					<dim>240</dim>
				</port>
			</output>
		</layer>
		<layer id="38" name="958" type="Const" version="opset1">
			<data element_type="f16" offset="986" shape="16, 1, 1, 3, 3" size="288"/>
			<output>
				<port id="0" names="958" precision="FP16">
					<dim>16</dim>
					<dim>1</dim>
					<dim>1</dim>
					<dim>3</dim>
					<dim>3</dim>
				</port>
			</output>
		</layer>
		<layer id="39" name="Conv_15/WithoutBiases" type="GroupConvolution" version="opset1">
			<data auto_pad="explicit" dilations="1, 1" pads_begin="1, 1" pads_end="1, 1" strides="1, 1"/>
			<input>
				<port id="0" precision="FP16">
					<dim>1</dim>
					<dim>16</dim>
					<dim>135</dim>
					<dim>240</dim>
				</port>
				<port id="1" precision="FP16">
					<dim>16</dim>
					<dim>1</dim>
					<dim>1</dim>
					<dim>3</dim>
					<dim>3</dim>
				</port>
			</input>
			<output>
				<port id="2" precision="FP16">
					<dim>1</dim>
					<dim>16</dim>
					<dim>135</dim>
					<dim>240</dim>
				</port>
			</output>
		</layer>
		<layer id="40" name="Conv_15/Dims7795" type="Const" version="opset1">
			<data element_type="f16" offset="1274" shape="1, 16, 1, 1" size="32"/>
			<output>
				<port id="0" precision="FP16">
					<dim>1</dim>
					<dim>16</dim>
					<dim>1</dim>
					<dim>1</dim>
				</port>
			</output>
		</layer>
		<layer id="41" name="Conv_15" type="Add" version="opset1">
			<data auto_broadcast="numpy"/>
			<input>
				<port id="0" precision="FP16">
					<dim>1</dim>
					<dim>16</dim>
					<dim>135</dim>
					<dim>240</dim>
				</port>
				<port id="1" precision="FP16">
					<dim>1</dim>
					<dim>16</dim>
					<dim>1</dim>
					<dim>1</dim>
				</port>
			</input>
			<output>
				<port id="2" names="957" precision="FP16">
					<dim>1</dim>
					<dim>16</dim>
					<dim>135</dim>
					<dim>240</dim>
				</port>
			</output>
		</layer>
		<layer id="42" name="Constant_16" type="Const" version="opset1">
			<data element_type="f16" offset="982" shape="1, 1, 1, 1" size="2"/>
			<output>
				<port id="0" names="308" precision="FP16">
					<dim>1</dim>
					<dim>1</dim>
					<dim>1</dim>
					<dim>1</dim>
				</port>
			</output>
		</layer>
		<layer id="43" name="Add_17" type="Add" version="opset1">
			<data auto_broadcast="numpy"/>
			<input>
				<port id="0" precision="FP16">
					<dim>1</dim>
					<dim>16</dim>
					<dim>135</dim>
					<dim>240</dim>
				</port>
				<port id="1" precision="FP16">
					<dim>1</dim>
					<dim>1</dim>
					<dim>1</dim>
					<dim>1</dim>
				</port>
			</input>
			<output>
				<port id="2" names="309" precision="FP16">
					<dim>1</dim>
					<dim>16</dim>
					<dim>135</dim>
					<dim>240</dim>
				</port>
			</output>
		</layer>
		<layer id="44" name="Clip_20" type="Clamp" version="opset1">
			<data max="6" min="0"/>
			<input>
				<port id="0" precision="FP16">
					<dim>1</dim>
					<dim>16</dim>
					<dim>135</dim>
					<dim>240</dim>
				</port>
			</input>
			<output>
				<port id="1" names="312" precision="FP16">
					<dim>1</dim>
					<dim>16</dim>
					<dim>135</dim>
					<dim>240</dim>
				</port>
			</output>
		</layer>
		<layer id="45" name="Constant_21" type="Const" version="opset1">
			<data element_type="f16" offset="984" shape="1, 1, 1, 1" size="2"/>
			<output>
				<port id="0" names="313" precision="FP16">
					<dim>1</dim>
					<dim>1</dim>
					<dim>1</dim>
					<dim>1</dim>
				</port>
			</output>
		</layer>
		<layer id="46" name="Div_22" type="Multiply" version="opset1">
			<data auto_broadcast="numpy"/>
			<input>
				<port id="0" precision="FP16">
					<dim>1</dim>
					<dim>16</dim>
					<dim>135</dim>
					<dim>240</dim>
				</port>
				<port id="1" precision="FP16">
					<dim>1</dim>
					<dim>1</dim>
					<dim>1</dim>
					<dim>1</dim>
				</port>
			</input>
			<output>
				<port id="2" names="314" precision="FP16">
					<dim>1</dim>
					<dim>16</dim>
					<dim>135</dim>
					<dim>240</dim>
				</port>
			</output>
		</layer>
		<layer id="47" name="Mul_23" type="Multiply" version="opset1">
			<data auto_broadcast="numpy"/>
			<input>
				<port id="0" precision="FP16">
					<dim>1</dim>
					<dim>16</dim>
					<dim>135</dim>
					<dim>240</dim>
				</port>
				<port id="1" precision="FP16">
					<dim>1</dim>
					<dim>16</dim>
					<dim>135</dim>
					<dim>240</dim>
				</port>
			</input>
			<output>
				<port id="2" names="315" precision="FP16">
					<dim>1</dim>
					<dim>16</dim>
					<dim>135</dim>
					<dim>240</dim>
				</port>
			</output>
		</layer>
		<layer id="48" name="961" type="Const" version="opset1">
			<data element_type="f16" offset="1306" shape="32, 16, 1, 1" size="1024"/>
			<output>
				<port id="0" names="961" precision="FP16">
					<dim>32</dim>
					<dim>16</dim>
					<dim>1</dim>
					<dim>1</dim>
				</port>
			</output>
		</layer>
		<layer id="49" name="Conv_24/WithoutBiases" type="Convolution" version="opset1">
			<data auto_pad="explicit" dilations="1, 1" pads_begin="0, 0" pads_end="0, 0" strides="1, 1"/>
			<input>
				<port id="0" precision="FP16">
					<dim>1</dim>
					<dim>16</dim>
					<dim>135</dim>
					<dim>240</dim>
				</port>
				<port id="1" precision="FP16">
					<dim>32</dim>
					<dim>16</dim>
					<dim>1</dim>
					<dim>1</dim>
				</port>
			</input>
			<output>
				<port id="2" precision="FP16">
					<dim>1</dim>
					<dim>32</dim>
					<dim>135</dim>
					<dim>240</dim>
				</port>
			</output>
		</layer>
		<layer id="50" name="Conv_24/Dims7765" type="Const" version="opset1">
			<data element_type="f16" offset="2330" shape="1, 32, 1, 1" size="64"/>
			<output>
				<port id="0" precision="FP16">
					<dim>1</dim>
					<dim>32</dim>
					<dim>1</dim>
					<dim>1</dim>
				</port>
			</output>
		</layer>
		<layer id="51" name="Conv_24" type="Add" version="opset1">
			<data auto_broadcast="numpy"/>
			<input>
				<port id="0" precision="FP16">
					<dim>1</dim>
					<dim>32</dim>
					<dim>135</dim>
					<dim>240</dim>
				</port>
				<port id="1" precision="FP16">
					<dim>1</dim>
					<dim>32</dim>
					<dim>1</dim>
					<dim>1</dim>
				</port>
			</input>
			<output>
				<port id="2" names="960" precision="FP16">
					<dim>1</dim>
					<dim>32</dim>
					<dim>135</dim>
					<dim>240</dim>
				</port>
			</output>
		</layer>
		<layer id="52" name="Constant_25" type="Const" version="opset1">
			<data element_type="f16" offset="982" shape="1, 1, 1, 1" size="2"/>
			<output>
				<port id="0" names="318" precision="FP16">
					<dim>1</dim>
					<dim>1</dim>
					<dim>1</dim>
					<dim>1</dim>
				</port>
			</output>
		</layer>
		<layer id="53" name="Add_26" type="Add" version="opset1">
			<data auto_broadcast="numpy"/>
			<input>
				<port id="0" precision="FP16">
					<dim>1</dim>
					<dim>32</dim>
					<dim>135</dim>
					<dim>240</dim>
				</port>
				<port id="1" precision="FP16">
					<dim>1</dim>
					<dim>1</dim>
					<dim>1</dim>
					<dim>1</dim>
				</port>
			</input>
			<output>
				<port id="2" names="319" precision="FP16">
					<dim>1</dim>
					<dim>32</dim>
					<dim>135</dim>
					<dim>240</dim>
				</port>
			</output>
		</layer>
		<layer id="54" name="Clip_29" type="Clamp" version="opset1">
			<data max="6" min="0"/>
			<input>
				<port id="0" precision="FP16">
					<dim>1</dim>
					<dim>32</dim>
					<dim>135</dim>
					<dim>240</dim>
				</port>
			</input>
			<output>
				<port id="1" names="322" precision="FP16">
					<dim>1</dim>
					<dim>32</dim>
					<dim>135</dim>
					<dim>240</dim>
				</port>
			</output>
		</layer>
		<layer id="55" name="Constant_30" type="Const" version="opset1">
			<data element_type="f16" offset="984" shape="1, 1, 1, 1" size="2"/>
			<output>
				<port id="0" names="323" precision="FP16">
					<dim>1</dim>
					<dim>1</dim>
					<dim>1</dim>
					<dim>1</dim>
				</port>
			</output>
		</layer>
		<layer id="56" name="Div_31" type="Multiply" version="opset1">
			<data auto_broadcast="numpy"/>
			<input>
				<port id="0" precision="FP16">
					<dim>1</dim>
					<dim>32</dim>
					<dim>135</dim>
					<dim>240</dim>
				</port>
				<port id="1" precision="FP16">
					<dim>1</dim>
					<dim>1</dim>
					<dim>1</dim>
					<dim>1</dim>
				</port>
			</input>
			<output>
				<port id="2" names="324" precision="FP16">
					<dim>1</dim>
					<dim>32</dim>
					<dim>135</dim>
					<dim>240</dim>
				</port>
			</output>
		</layer>
		<layer id="57" name="Mul_32" type="Multiply" version="opset1">
			<data auto_broadcast="numpy"/>
			<input>
				<port id="0" precision="FP16">
					<dim>1</dim>
					<dim>32</dim>
					<dim>135</dim>
					<dim>240</dim>
				</port>
				<port id="1" precision="FP16">
					<dim>1</dim>
					<dim>32</dim>
					<dim>135</dim>
					<dim>240</dim>
				</port>
			</input>
			<output>
				<port id="2" names="325" precision="FP16">
					<dim>1</dim>
					<dim>32</dim>
					<dim>135</dim>
					<dim>240</dim>
				</port>
			</output>
		</layer>
		<layer id="58" name="964" type="Const" version="opset1">
			<data element_type="f16" offset="2394" shape="32, 1, 1, 3, 3" size="576"/>
			<output>
				<port id="0" names="964" precision="FP16">
					<dim>32</dim>
					<dim>1</dim>
					<dim>1</dim>
					<dim>3</dim>
					<dim>3</dim>
				</port>
			</output>
		</layer>
		<layer id="59" name="Conv_33/WithoutBiases" type="GroupConvolution" version="opset1">
			<data auto_pad="explicit" dilations="1, 1" pads_begin="1, 1" pads_end="1, 1" strides="2, 2"/>
			<input>
				<port id="0" precision="FP16">
					<dim>1</dim>
					<dim>32</dim>
					<dim>135</dim>
					<dim>240</dim>
				</port>
				<port id="1" precision="FP16">
					<dim>32</dim>
					<dim>1</dim>
					<dim>1</dim>
					<dim>3</dim>
					<dim>3</dim>
				</port>
			</input>
			<output>
				<port id="2" precision="FP16">
					<dim>1</dim>
					<dim>32</dim>
					<dim>68</dim>
					<dim>120</dim>
				</port>
			</output>
		</layer>
		<layer id="60" name="Conv_33/Dims7939" type="Const" version="opset1">
			<data element_type="f16" offset="2970" shape="1, 32, 1, 1" size="64"/>
			<output>
				<port id="0" precision="FP16">
					<dim>1</dim>
					<dim>32</dim>
					<dim>1</dim>
					<dim>1</dim>
				</port>
			</output>
		</layer>
		<layer id="61" name="Conv_33" type="Add" version="opset1">
			<data auto_broadcast="numpy"/>
			<input>
				<port id="0" precision="FP16">
					<dim>1</dim>
					<dim>32</dim>
					<dim>68</dim>
					<dim>120</dim>
				</port>
				<port id="1" precision="FP16">
					<dim>1</dim>
					<dim>32</dim>
					<dim>1</dim>
					<dim>1</dim>
				</port>
			</input>
			<output>
				<port id="2" names="963" precision="FP16">
					<dim>1</dim>
					<dim>32</dim>
					<dim>68</dim>
					<dim>120</dim>
				</port>
			</output>
		</layer>
		<layer id="62" name="Constant_34" type="Const" version="opset1">
			<data element_type="f16" offset="982" shape="1, 1, 1, 1" size="2"/>
			<output>
				<port id="0" names="328" precision="FP16">
					<dim>1</dim>
					<dim>1</dim>
					<dim>1</dim>
					<dim>1</dim>
				</port>
			</output>
		</layer>
		<layer id="63" name="Add_35" type="Add" version="opset1">
			<data auto_broadcast="numpy"/>
			<input>
				<port id="0" precision="FP16">
					<dim>1</dim>
					<dim>32</dim>
					<dim>68</dim>
					<dim>120</dim>
				</port>
				<port id="1" precision="FP16">
					<dim>1</dim>
					<dim>1</dim>
					<dim>1</dim>
					<dim>1</dim>
				</port>
			</input>
			<output>
				<port id="2" names="329" precision="FP16">
					<dim>1</dim>
					<dim>32</dim>
					<dim>68</dim>
					<dim>120</dim>
				</port>
			</output>
		</layer>
		<layer id="64" name="Clip_38" type="Clamp" version="opset1">
			<data max="6" min="0"/>
			<input>
				<port id="0" precision="FP16">
					<dim>1</dim>
					<dim>32</dim>
					<dim>68</dim>
					<dim>120</dim>
				</port>
			</input>
			<output>
				<port id="1" names="332" precision="FP16">
					<dim>1</dim>
					<dim>32</dim>
					<dim>68</dim>
					<dim>120</dim>
				</port>
			</output>
		</layer>
		<layer id="65" name="Constant_39" type="Const" version="opset1">
			<data element_type="f16" offset="984" shape="1, 1, 1, 1" size="2"/>
			<output>
				<port id="0" names="333" precision="FP16">
					<dim>1</dim>
					<dim>1</dim>
					<dim>1</dim>
					<dim>1</dim>
				</port>
			</output>
		</layer>
		<layer id="66" name="Div_40" type="Multiply" version="opset1">
			<data auto_broadcast="numpy"/>
			<input>
				<port id="0" precision="FP16">
					<dim>1</dim>
					<dim>32</dim>
					<dim>68</dim>
					<dim>120</dim>
				</port>
				<port id="1" precision="FP16">
					<dim>1</dim>
					<dim>1</dim>
					<dim>1</dim>
					<dim>1</dim>
				</port>
			</input>
			<output>
				<port id="2" names="334" precision="FP16">
					<dim>1</dim>
					<dim>32</dim>
					<dim>68</dim>
					<dim>120</dim>
				</port>
			</output>
		</layer>
		<layer id="67" name="Mul_41" type="Multiply" version="opset1">
			<data auto_broadcast="numpy"/>
			<input>
				<port id="0" precision="FP16">
					<dim>1</dim>
					<dim>32</dim>
					<dim>68</dim>
					<dim>120</dim>
				</port>
				<port id="1" precision="FP16">
					<dim>1</dim>
					<dim>32</dim>
					<dim>68</dim>
					<dim>120</dim>
				</port>
			</input>
			<output>
				<port id="2" names="335" precision="FP16">
					<dim>1</dim>
					<dim>32</dim>
					<dim>68</dim>
					<dim>120</dim>
				</port>
			</output>
		</layer>
		<layer id="68" name="967" type="Const" version="opset1">
			<data element_type="f16" offset="3034" shape="64, 32, 1, 1" size="4096"/>
			<output>
				<port id="0" names="967" precision="FP16">
					<dim>64</dim>
					<dim>32</dim>
					<dim>1</dim>
					<dim>1</dim>
				</port>
			</output>
		</layer>
		<layer id="69" name="Conv_42/WithoutBiases" type="Convolution" version="opset1">
			<data auto_pad="explicit" dilations="1, 1" pads_begin="0, 0" pads_end="0, 0" strides="1, 1"/>
			<input>
				<port id="0" precision="FP16">
					<dim>1</dim>
					<dim>32</dim>
					<dim>68</dim>
					<dim>120</dim>
				</port>
				<port id="1" precision="FP16">
					<dim>64</dim>
					<dim>32</dim>
					<dim>1</dim>
					<dim>1</dim>
				</port>
			</input>
			<output>
				<port id="2" precision="FP16">
					<dim>1</dim>
					<dim>64</dim>
					<dim>68</dim>
					<dim>120</dim>
				</port>
			</output>
		</layer>
		<layer id="70" name="Conv_42/Dims7801" type="Const" version="opset1">
			<data element_type="f16" offset="7130" shape="1, 64, 1, 1" size="128"/>
			<output>
				<port id="0" precision="FP16">
					<dim>1</dim>
					<dim>64</dim>
					<dim>1</dim>
					<dim>1</dim>
				</port>
			</output>
		</layer>
		<layer id="71" name="Conv_42" type="Add" version="opset1">
			<data auto_broadcast="numpy"/>
			<input>
				<port id="0" precision="FP16">
					<dim>1</dim>
					<dim>64</dim>
					<dim>68</dim>
					<dim>120</dim>
				</port>
				<port id="1" precision="FP16">
					<dim>1</dim>
					<dim>64</dim>
					<dim>1</dim>
					<dim>1</dim>
				</port>
			</input>
			<output>
				<port id="2" names="966" precision="FP16">
					<dim>1</dim>
					<dim>64</dim>
					<dim>68</dim>
					<dim>120</dim>
				</port>
			</output>
		</layer>
		<layer id="72" name="Constant_43" type="Const" version="opset1">
			<data element_type="f16" offset="982" shape="1, 1, 1, 1" size="2"/>
			<output>
				<port id="0" names="338" precision="FP16">
					<dim>1</dim>
					<dim>1</dim>
					<dim>1</dim>
					<dim>1</dim>
				</port>
			</output>
		</layer>
		<layer id="73" name="Add_44" type="Add" version="opset1">
			<data auto_broadcast="numpy"/>
			<input>
				<port id="0" precision="FP16">
					<dim>1</dim>
					<dim>64</dim>
					<dim>68</dim>
					<dim>120</dim>
				</port>
				<port id="1" precision="FP16">
					<dim>1</dim>
					<dim>1</dim>
					<dim>1</dim>
					<dim>1</dim>
				</port>
			</input>
			<output>
				<port id="2" names="339" precision="FP16">
					<dim>1</dim>
					<dim>64</dim>
					<dim>68</dim>
					<dim>120</dim>
				</port>
			</output>
		</layer>
		<layer id="74" name="Clip_47" type="Clamp" version="opset1">
			<data max="6" min="0"/>
			<input>
				<port id="0" precision="FP16">
					<dim>1</dim>
					<dim>64</dim>
					<dim>68</dim>
					<dim>120</dim>
				</port>
			</input>
			<output>
				<port id="1" names="342" precision="FP16">
					<dim>1</dim>
					<dim>64</dim>
					<dim>68</dim>
					<dim>120</dim>
				</port>
			</output>
		</layer>
		<layer id="75" name="Constant_48" type="Const" version="opset1">
			<data element_type="f16" offset="984" shape="1, 1, 1, 1" size="2"/>
			<output>
				<port id="0" names="343" precision="FP16">
					<dim>1</dim>
					<dim>1</dim>
					<dim>1</dim>
					<dim>1</dim>
				</port>
			</output>
		</layer>
		<layer id="76" name="Div_49" type="Multiply" version="opset1">
			<data auto_broadcast="numpy"/>
			<input>
				<port id="0" precision="FP16">
					<dim>1</dim>
					<dim>64</dim>
					<dim>68</dim>
					<dim>120</dim>
				</port>
				<port id="1" precision="FP16">
					<dim>1</dim>
					<dim>1</dim>
					<dim>1</dim>
					<dim>1</dim>
				</port>
			</input>
			<output>
				<port id="2" names="344" precision="FP16">
					<dim>1</dim>
					<dim>64</dim>
					<dim>68</dim>
					<dim>120</dim>
				</port>
			</output>
		</layer>
		<layer id="77" name="Mul_50" type="Multiply" version="opset1">
			<data auto_broadcast="numpy"/>
			<input>
				<port id="0" precision="FP16">
					<dim>1</dim>
					<dim>64</dim>
					<dim>68</dim>
					<dim>120</dim>
				</port>
				<port id="1" precision="FP16">
					<dim>1</dim>
					<dim>64</dim>
					<dim>68</dim>
					<dim>120</dim>
				</port>
			</input>
			<output>
				<port id="2" names="345" precision="FP16">
					<dim>1</dim>
					<dim>64</dim>
					<dim>68</dim>
					<dim>120</dim>
				</port>
			</output>
		</layer>
		<layer id="78" name="970" type="Const" version="opset1">
			<data element_type="f16" offset="7258" shape="64, 1, 1, 3, 3" size="1152"/>
			<output>
				<port id="0" names="970" precision="FP16">
					<dim>64</dim>
					<dim>1</dim>
					<dim>1</dim>
					<dim>3</dim>
					<dim>3</dim>
				</port>
			</output>
		</layer>
		<layer id="79" name="Conv_51/WithoutBiases" type="GroupConvolution" version="opset1">
			<data auto_pad="explicit" dilations="1, 1" pads_begin="1, 1" pads_end="1, 1" strides="1, 1"/>
			<input>
				<port id="0" precision="FP16">
					<dim>1</dim>
					<dim>64</dim>
					<dim>68</dim>
					<dim>120</dim>
				</port>
				<port id="1" precision="FP16">
					<dim>64</dim>
					<dim>1</dim>
					<dim>1</dim>
					<dim>3</dim>
					<dim>3</dim>
				</port>
			</input>
			<output>
				<port id="2" precision="FP16">
					<dim>1</dim>
					<dim>64</dim>
					<dim>68</dim>
					<dim>120</dim>
				</port>
			</output>
		</layer>
		<layer id="80" name="Conv_51/Dims7759" type="Const" version="opset1">
			<data element_type="f16" offset="8410" shape="1, 64, 1, 1" size="128"/>
			<output>
				<port id="0" precision="FP16">
					<dim>1</dim>
					<dim>64</dim>
					<dim>1</dim>
					<dim>1</dim>
				</port>
			</output>
		</layer>
		<layer id="81" name="Conv_51" type="Add" version="opset1">
			<data auto_broadcast="numpy"/>
			<input>
				<port id="0" precision="FP16">
					<dim>1</dim>
					<dim>64</dim>
					<dim>68</dim>
					<dim>120</dim>
				</port>
				<port id="1" precision="FP16">
					<dim>1</dim>
					<dim>64</dim>
					<dim>1</dim>
					<dim>1</dim>
				</port>
			</input>
			<output>
				<port id="2" names="969" precision="FP16">
					<dim>1</dim>
					<dim>64</dim>
					<dim>68</dim>
					<dim>120</dim>
				</port>
			</output>
		</layer>
		<layer id="82" name="Constant_52" type="Const" version="opset1">
			<data element_type="f16" offset="982" shape="1, 1, 1, 1" size="2"/>
			<output>
				<port id="0" names="348" precision="FP16">
					<dim>1</dim>
					<dim>1</dim>
					<dim>1</dim>
					<dim>1</dim>
				</port>
			</output>
		</layer>
		<layer id="83" name="Add_53" type="Add" version="opset1">
			<data auto_broadcast="numpy"/>
			<input>
				<port id="0" precision="FP16">
					<dim>1</dim>
					<dim>64</dim>
					<dim>68</dim>
					<dim>120</dim>
				</port>
				<port id="1" precision="FP16">
					<dim>1</dim>
					<dim>1</dim>
					<dim>1</dim>
					<dim>1</dim>
				</port>
			</input>
			<output>
				<port id="2" names="349" precision="FP16">
					<dim>1</dim>
					<dim>64</dim>
					<dim>68</dim>
					<dim>120</dim>
				</port>
			</output>
		</layer>
		<layer id="84" name="Clip_56" type="Clamp" version="opset1">
			<data max="6" min="0"/>
			<input>
				<port id="0" precision="FP16">
					<dim>1</dim>
					<dim>64</dim>
					<dim>68</dim>
					<dim>120</dim>
				</port>
			</input>
			<output>
				<port id="1" names="352" precision="FP16">
					<dim>1</dim>
					<dim>64</dim>
					<dim>68</dim>
					<dim>120</dim>
				</port>
			</output>
		</layer>
		<layer id="85" name="Constant_57" type="Const" version="opset1">
			<data element_type="f16" offset="984" shape="1, 1, 1, 1" size="2"/>
			<output>
				<port id="0" names="353" precision="FP16">
					<dim>1</dim>
					<dim>1</dim>
					<dim>1</dim>
					<dim>1</dim>
				</port>
			</output>
		</layer>
		<layer id="86" name="Div_58" type="Multiply" version="opset1">
			<data auto_broadcast="numpy"/>
			<input>
				<port id="0" precision="FP16">
					<dim>1</dim>
					<dim>64</dim>
					<dim>68</dim>
					<dim>120</dim>
				</port>
				<port id="1" precision="FP16">
					<dim>1</dim>
					<dim>1</dim>
					<dim>1</dim>
					<dim>1</dim>
				</port>
			</input>
			<output>
				<port id="2" names="354" precision="FP16">
					<dim>1</dim>
					<dim>64</dim>
					<dim>68</dim>
					<dim>120</dim>
				</port>
			</output>
		</layer>
		<layer id="87" name="Mul_59" type="Multiply" version="opset1">
			<data auto_broadcast="numpy"/>
			<input>
				<port id="0" precision="FP16">
					<dim>1</dim>
					<dim>64</dim>
					<dim>68</dim>
					<dim>120</dim>
				</port>
				<port id="1" precision="FP16">
					<dim>1</dim>
					<dim>64</dim>
					<dim>68</dim>
					<dim>120</dim>
				</port>
			</input>
			<output>
				<port id="2" names="355" precision="FP16">
					<dim>1</dim>
					<dim>64</dim>
					<dim>68</dim>
					<dim>120</dim>
				</port>
			</output>
		</layer>
		<layer id="88" name="973" type="Const" version="opset1">
			<data element_type="f16" offset="8538" shape="64, 64, 1, 1" size="8192"/>
			<output>
				<port id="0" names="973" precision="FP16">
					<dim>64</dim>
					<dim>64</dim>
					<dim>1</dim>
					<dim>1</dim>
				</port>
			</output>
		</layer>
		<layer id="89" name="Conv_60/WithoutBiases" type="Convolution" version="opset1">
			<data auto_pad="explicit" dilations="1, 1" pads_begin="0, 0" pads_end="0, 0" strides="1, 1"/>
			<input>
				<port id="0" precision="FP16">
					<dim>1</dim>
					<dim>64</dim>
					<dim>68</dim>
					<dim>120</dim>
				</port>
				<port id="1" precision="FP16">
					<dim>64</dim>
					<dim>64</dim>
					<dim>1</dim>
					<dim>1</dim>
				</port>
			</input>
			<output>
				<port id="2" precision="FP16">
					<dim>1</dim>
					<dim>64</dim>
					<dim>68</dim>
					<dim>120</dim>
				</port>
			</output>
		</layer>
		<layer id="90" name="Conv_60/Dims7819" type="Const" version="opset1">
			<data element_type="f16" offset="16730" shape="1, 64, 1, 1" size="128"/>
			<output>
				<port id="0" precision="FP16">
					<dim>1</dim>
					<dim>64</dim>
					<dim>1</dim>
					<dim>1</dim>
				</port>
			</output>
		</layer>
		<layer id="91" name="Conv_60" type="Add" version="opset1">
			<data auto_broadcast="numpy"/>
			<input>
				<port id="0" precision="FP16">
					<dim>1</dim>
					<dim>64</dim>
					<dim>68</dim>
					<dim>120</dim>
				</port>
				<port id="1" precision="FP16">
					<dim>1</dim>
					<dim>64</dim>
					<dim>1</dim>
					<dim>1</dim>
				</port>
			</input>
			<output>
				<port id="2" names="972" precision="FP16">
					<dim>1</dim>
					<dim>64</dim>
					<dim>68</dim>
					<dim>120</dim>
				</port>
			</output>
		</layer>
		<layer id="92" name="Constant_61" type="Const" version="opset1">
			<data element_type="f16" offset="982" shape="1, 1, 1, 1" size="2"/>
			<output>
				<port id="0" names="358" precision="FP16">
					<dim>1</dim>
					<dim>1</dim>
					<dim>1</dim>
					<dim>1</dim>
				</port>
			</output>
		</layer>
		<layer id="93" name="Add_62" type="Add" version="opset1">
			<data auto_broadcast="numpy"/>
			<input>
				<port id="0" precision="FP16">
					<dim>1</dim>
					<dim>64</dim>
					<dim>68</dim>
					<dim>120</dim>
				</port>
				<port id="1" precision="FP16">
					<dim>1</dim>
					<dim>1</dim>
					<dim>1</dim>
					<dim>1</dim>
				</port>
			</input>
			<output>
				<port id="2" names="359" precision="FP16">
					<dim>1</dim>
					<dim>64</dim>
					<dim>68</dim>
					<dim>120</dim>
				</port>
			</output>
		</layer>
		<layer id="94" name="Clip_65" type="Clamp" version="opset1">
			<data max="6" min="0"/>
			<input>
				<port id="0" precision="FP16">
					<dim>1</dim>
					<dim>64</dim>
					<dim>68</dim>
					<dim>120</dim>
				</port>
			</input>
			<output>
				<port id="1" names="362" precision="FP16">
					<dim>1</dim>
					<dim>64</dim>
					<dim>68</dim>
					<dim>120</dim>
				</port>
			</output>
		</layer>
		<layer id="95" name="Constant_66" type="Const" version="opset1">
			<data element_type="f16" offset="984" shape="1, 1, 1, 1" size="2"/>
			<output>
				<port id="0" names="363" precision="FP16">
					<dim>1</dim>
					<dim>1</dim>
					<dim>1</dim>
					<dim>1</dim>
				</port>
			</output>
		</layer>
		<layer id="96" name="Div_67" type="Multiply" version="opset1">
			<data auto_broadcast="numpy"/>
			<input>
				<port id="0" precision="FP16">
					<dim>1</dim>
					<dim>64</dim>
					<dim>68</dim>
					<dim>120</dim>
				</port>
				<port id="1" precision="FP16">
					<dim>1</dim>
					<dim>1</dim>
					<dim>1</dim>
					<dim>1</dim>
				</port>
			</input>
			<output>
				<port id="2" names="364" precision="FP16">
					<dim>1</dim>
					<dim>64</dim>
					<dim>68</dim>
					<dim>120</dim>
				</port>
			</output>
		</layer>
		<layer id="97" name="Mul_68" type="Multiply" version="opset1">
			<data auto_broadcast="numpy"/>
			<input>
				<port id="0" precision="FP16">
					<dim>1</dim>
					<dim>64</dim>
					<dim>68</dim>
					<dim>120</dim>
				</port>
				<port id="1" precision="FP16">
					<dim>1</dim>
					<dim>64</dim>
					<dim>68</dim>
					<dim>120</dim>
				</port>
			</input>
			<output>
				<port id="2" names="365" precision="FP16">
					<dim>1</dim>
					<dim>64</dim>
					<dim>68</dim>
					<dim>120</dim>
				</port>
			</output>
		</layer>
		<layer id="98" name="976" type="Const" version="opset1">
			<data element_type="f16" offset="16858" shape="64, 1, 1, 3, 3" size="1152"/>
			<output>
				<port id="0" names="976" precision="FP16">
					<dim>64</dim>
					<dim>1</dim>
					<dim>1</dim>
					<dim>3</dim>
					<dim>3</dim>
				</port>
			</output>
		</layer>
		<layer id="99" name="Conv_69/WithoutBiases" type="GroupConvolution" version="opset1">
			<data auto_pad="explicit" dilations="1, 1" pads_begin="1, 1" pads_end="1, 1" strides="2, 2"/>
			<input>
				<port id="0" precision="FP16">
					<dim>1</dim>
					<dim>64</dim>
					<dim>68</dim>
					<dim>120</dim>
				</port>
				<port id="1" precision="FP16">
					<dim>64</dim>
					<dim>1</dim>
					<dim>1</dim>
					<dim>3</dim>
					<dim>3</dim>
				</port>
			</input>
			<output>
				<port id="2" precision="FP16">
					<dim>1</dim>
					<dim>64</dim>
					<dim>34</dim>
					<dim>60</dim>
				</port>
			</output>
		</layer>
		<layer id="100" name="Conv_69/Dims7717" type="Const" version="opset1">
			<data element_type="f16" offset="18010" shape="1, 64, 1, 1" size="128"/>
			<output>
				<port id="0" precision="FP16">
					<dim>1</dim>
					<dim>64</dim>
					<dim>1</dim>
					<dim>1</dim>
				</port>
			</output>
		</layer>
		<layer id="101" name="Conv_69" type="Add" version="opset1">
			<data auto_broadcast="numpy"/>
			<input>
				<port id="0" precision="FP16">
					<dim>1</dim>
					<dim>64</dim>
					<dim>34</dim>
					<dim>60</dim>
				</port>
				<port id="1" precision="FP16">
					<dim>1</dim>
					<dim>64</dim>
					<dim>1</dim>
					<dim>1</dim>
				</port>
			</input>
			<output>
				<port id="2" names="975" precision="FP16">
					<dim>1</dim>
					<dim>64</dim>
					<dim>34</dim>
					<dim>60</dim>
				</port>
			</output>
		</layer>
		<layer id="102" name="Constant_70" type="Const" version="opset1">
			<data element_type="f16" offset="982" shape="1, 1, 1, 1" size="2"/>
			<output>
				<port id="0" names="368" precision="FP16">
					<dim>1</dim>
					<dim>1</dim>
					<dim>1</dim>
					<dim>1</dim>
				</port>
			</output>
		</layer>
		<layer id="103" name="Add_71" type="Add" version="opset1">
			<data auto_broadcast="numpy"/>
			<input>
				<port id="0" precision="FP16">
					<dim>1</dim>
					<dim>64</dim>
					<dim>34</dim>
					<dim>60</dim>
				</port>
				<port id="1" precision="FP16">
					<dim>1</dim>
					<dim>1</dim>
					<dim>1</dim>
					<dim>1</dim>
				</port>
			</input>
			<output>
				<port id="2" names="369" precision="FP16">
					<dim>1</dim>
					<dim>64</dim>
					<dim>34</dim>
					<dim>60</dim>
				</port>
			</output>
		</layer>
		<layer id="104" name="Clip_74" type="Clamp" version="opset1">
			<data max="6" min="0"/>
			<input>
				<port id="0" precision="FP16">
					<dim>1</dim>
					<dim>64</dim>
					<dim>34</dim>
					<dim>60</dim>
				</port>
			</input>
			<output>
				<port id="1" names="372" precision="FP16">
					<dim>1</dim>
					<dim>64</dim>
					<dim>34</dim>
					<dim>60</dim>
				</port>
			</output>
		</layer>
		<layer id="105" name="Constant_75" type="Const" version="opset1">
			<data element_type="f16" offset="984" shape="1, 1, 1, 1" size="2"/>
			<output>
				<port id="0" names="373" precision="FP16">
					<dim>1</dim>
					<dim>1</dim>
					<dim>1</dim>
					<dim>1</dim>
				</port>
			</output>
		</layer>
		<layer id="106" name="Div_76" type="Multiply" version="opset1">
			<data auto_broadcast="numpy"/>
			<input>
				<port id="0" precision="FP16">
					<dim>1</dim>
					<dim>64</dim>
					<dim>34</dim>
					<dim>60</dim>
				</port>
				<port id="1" precision="FP16">
					<dim>1</dim>
					<dim>1</dim>
					<dim>1</dim>
					<dim>1</dim>
				</port>
			</input>
			<output>
				<port id="2" names="374" precision="FP16">
					<dim>1</dim>
					<dim>64</dim>
					<dim>34</dim>
					<dim>60</dim>
				</port>
			</output>
		</layer>
		<layer id="107" name="Mul_77" type="Multiply" version="opset1">
			<data auto_broadcast="numpy"/>
			<input>
				<port id="0" precision="FP16">
					<dim>1</dim>
					<dim>64</dim>
					<dim>34</dim>
					<dim>60</dim>
				</port>
				<port id="1" precision="FP16">
					<dim>1</dim>
					<dim>64</dim>
					<dim>34</dim>
					<dim>60</dim>
				</port>
			</input>
			<output>
				<port id="2" names="375" precision="FP16">
					<dim>1</dim>
					<dim>64</dim>
					<dim>34</dim>
					<dim>60</dim>
				</port>
			</output>
		</layer>
		<layer id="108" name="979" type="Const" version="opset1">
			<data element_type="f16" offset="18138" shape="128, 64, 1, 1" size="16384"/>
			<output>
				<port id="0" names="979" precision="FP16">
					<dim>128</dim>
					<dim>64</dim>
					<dim>1</dim>
					<dim>1</dim>
				</port>
			</output>
		</layer>
		<layer id="109" name="Conv_78/WithoutBiases" type="Convolution" version="opset1">
			<data auto_pad="explicit" dilations="1, 1" pads_begin="0, 0" pads_end="0, 0" strides="1, 1"/>
			<input>
				<port id="0" precision="FP16">
					<dim>1</dim>
					<dim>64</dim>
					<dim>34</dim>
					<dim>60</dim>
				</port>
				<port id="1" precision="FP16">
					<dim>128</dim>
					<dim>64</dim>
					<dim>1</dim>
					<dim>1</dim>
				</port>
			</input>
			<output>
				<port id="2" precision="FP16">
					<dim>1</dim>
					<dim>128</dim>
					<dim>34</dim>
					<dim>60</dim>
				</port>
			</output>
		</layer>
		<layer id="110" name="Conv_78/Dims7879" type="Const" version="opset1">
			<data element_type="f16" offset="34522" shape="1, 128, 1, 1" size="256"/>
			<output>
				<port id="0" precision="FP16">
					<dim>1</dim>
					<dim>128</dim>
					<dim>1</dim>
					<dim>1</dim>
				</port>
			</output>
		</layer>
		<layer id="111" name="Conv_78" type="Add" version="opset1">
			<data auto_broadcast="numpy"/>
			<input>
				<port id="0" precision="FP16">
					<dim>1</dim>
					<dim>128</dim>
					<dim>34</dim>
					<dim>60</dim>
				</port>
				<port id="1" precision="FP16">
					<dim>1</dim>
					<dim>128</dim>
					<dim>1</dim>
					<dim>1</dim>
				</port>
			</input>
			<output>
				<port id="2" names="978" precision="FP16">
					<dim>1</dim>
					<dim>128</dim>
					<dim>34</dim>
					<dim>60</dim>
				</port>
			</output>
		</layer>
		<layer id="112" name="Constant_79" type="Const" version="opset1">
			<data element_type="f16" offset="982" shape="1, 1, 1, 1" size="2"/>
			<output>
				<port id="0" names="378" precision="FP16">
					<dim>1</dim>
					<dim>1</dim>
					<dim>1</dim>
					<dim>1</dim>
				</port>
			</output>
		</layer>
		<layer id="113" name="Add_80" type="Add" version="opset1">
			<data auto_broadcast="numpy"/>
			<input>
				<port id="0" precision="FP16">
					<dim>1</dim>
					<dim>128</dim>
					<dim>34</dim>
					<dim>60</dim>
				</port>
				<port id="1" precision="FP16">
					<dim>1</dim>
					<dim>1</dim>
					<dim>1</dim>
					<dim>1</dim>
				</port>
			</input>
			<output>
				<port id="2" names="379" precision="FP16">
					<dim>1</dim>
					<dim>128</dim>
					<dim>34</dim>
					<dim>60</dim>
				</port>
			</output>
		</layer>
		<layer id="114" name="Clip_83" type="Clamp" version="opset1">
			<data max="6" min="0"/>
			<input>
				<port id="0" precision="FP16">
					<dim>1</dim>
					<dim>128</dim>
					<dim>34</dim>
					<dim>60</dim>
				</port>
			</input>
			<output>
				<port id="1" names="382" precision="FP16">
					<dim>1</dim>
					<dim>128</dim>
					<dim>34</dim>
					<dim>60</dim>
				</port>
			</output>
		</layer>
		<layer id="115" name="Constant_84" type="Const" version="opset1">
			<data element_type="f16" offset="984" shape="1, 1, 1, 1" size="2"/>
			<output>
				<port id="0" names="383" precision="FP16">
					<dim>1</dim>
					<dim>1</dim>
					<dim>1</dim>
					<dim>1</dim>
				</port>
			</output>
		</layer>
		<layer id="116" name="Div_85" type="Multiply" version="opset1">
			<data auto_broadcast="numpy"/>
			<input>
				<port id="0" precision="FP16">
					<dim>1</dim>
					<dim>128</dim>
					<dim>34</dim>
					<dim>60</dim>
				</port>
				<port id="1" precision="FP16">
					<dim>1</dim>
					<dim>1</dim>
					<dim>1</dim>
					<dim>1</dim>
				</port>
			</input>
			<output>
				<port id="2" names="384" precision="FP16">
					<dim>1</dim>
					<dim>128</dim>
					<dim>34</dim>
					<dim>60</dim>
				</port>
			</output>
		</layer>
		<layer id="117" name="Mul_86" type="Multiply" version="opset1">
			<data auto_broadcast="numpy"/>
			<input>
				<port id="0" precision="FP16">
					<dim>1</dim>
					<dim>128</dim>
					<dim>34</dim>
					<dim>60</dim>
				</port>
				<port id="1" precision="FP16">
					<dim>1</dim>
					<dim>128</dim>
					<dim>34</dim>
					<dim>60</dim>
				</port>
			</input>
			<output>
				<port id="2" names="385" precision="FP16">
					<dim>1</dim>
					<dim>128</dim>
					<dim>34</dim>
					<dim>60</dim>
				</port>
			</output>
		</layer>
		<layer id="118" name="982" type="Const" version="opset1">
			<data element_type="f16" offset="34778" shape="128, 1, 1, 3, 3" size="2304"/>
			<output>
				<port id="0" names="982" precision="FP16">
					<dim>128</dim>
					<dim>1</dim>
					<dim>1</dim>
					<dim>3</dim>
					<dim>3</dim>
				</port>
			</output>
		</layer>
		<layer id="119" name="Conv_87/WithoutBiases" type="GroupConvolution" version="opset1">
			<data auto_pad="explicit" dilations="1, 1" pads_begin="1, 1" pads_end="1, 1" strides="1, 1"/>
			<input>
				<port id="0" precision="FP16">
					<dim>1</dim>
					<dim>128</dim>
					<dim>34</dim>
					<dim>60</dim>
				</port>
				<port id="1" precision="FP16">
					<dim>128</dim>
					<dim>1</dim>
					<dim>1</dim>
					<dim>3</dim>
					<dim>3</dim>
				</port>
			</input>
			<output>
				<port id="2" precision="FP16">
					<dim>1</dim>
					<dim>128</dim>
					<dim>34</dim>
					<dim>60</dim>
				</port>
			</output>
		</layer>
		<layer id="120" name="Conv_87/Dims7873" type="Const" version="opset1">
			<data element_type="f16" offset="37082" shape="1, 128, 1, 1" size="256"/>
			<output>
				<port id="0" precision="FP16">
					<dim>1</dim>
					<dim>128</dim>
					<dim>1</dim>
					<dim>1</dim>
				</port>
			</output>
		</layer>
		<layer id="121" name="Conv_87" type="Add" version="opset1">
			<data auto_broadcast="numpy"/>
			<input>
				<port id="0" precision="FP16">
					<dim>1</dim>
					<dim>128</dim>
					<dim>34</dim>
					<dim>60</dim>
				</port>
				<port id="1" precision="FP16">
					<dim>1</dim>
					<dim>128</dim>
					<dim>1</dim>
					<dim>1</dim>
				</port>
			</input>
			<output>
				<port id="2" names="981" precision="FP16">
					<dim>1</dim>
					<dim>128</dim>
					<dim>34</dim>
					<dim>60</dim>
				</port>
			</output>
		</layer>
		<layer id="122" name="Constant_88" type="Const" version="opset1">
			<data element_type="f16" offset="982" shape="1, 1, 1, 1" size="2"/>
			<output>
				<port id="0" names="388" precision="FP16">
					<dim>1</dim>
					<dim>1</dim>
					<dim>1</dim>
					<dim>1</dim>
				</port>
			</output>
		</layer>
		<layer id="123" name="Add_89" type="Add" version="opset1">
			<data auto_broadcast="numpy"/>
			<input>
				<port id="0" precision="FP16">
					<dim>1</dim>
					<dim>128</dim>
					<dim>34</dim>
					<dim>60</dim>
				</port>
				<port id="1" precision="FP16">
					<dim>1</dim>
					<dim>1</dim>
					<dim>1</dim>
					<dim>1</dim>
				</port>
			</input>
			<output>
				<port id="2" names="389" precision="FP16">
					<dim>1</dim>
					<dim>128</dim>
					<dim>34</dim>
					<dim>60</dim>
				</port>
			</output>
		</layer>
		<layer id="124" name="Clip_92" type="Clamp" version="opset1">
			<data max="6" min="0"/>
			<input>
				<port id="0" precision="FP16">
					<dim>1</dim>
					<dim>128</dim>
					<dim>34</dim>
					<dim>60</dim>
				</port>
			</input>
			<output>
				<port id="1" names="392" precision="FP16">
					<dim>1</dim>
					<dim>128</dim>
					<dim>34</dim>
					<dim>60</dim>
				</port>
			</output>
		</layer>
		<layer id="125" name="Constant_93" type="Const" version="opset1">
			<data element_type="f16" offset="984" shape="1, 1, 1, 1" size="2"/>
			<output>
				<port id="0" names="393" precision="FP16">
					<dim>1</dim>
					<dim>1</dim>
					<dim>1</dim>
					<dim>1</dim>
				</port>
			</output>
		</layer>
		<layer id="126" name="Div_94" type="Multiply" version="opset1">
			<data auto_broadcast="numpy"/>
			<input>
				<port id="0" precision="FP16">
					<dim>1</dim>
					<dim>128</dim>
					<dim>34</dim>
					<dim>60</dim>
				</port>
				<port id="1" precision="FP16">
					<dim>1</dim>
					<dim>1</dim>
					<dim>1</dim>
					<dim>1</dim>
				</port>
			</input>
			<output>
				<port id="2" names="394" precision="FP16">
					<dim>1</dim>
					<dim>128</dim>
					<dim>34</dim>
					<dim>60</dim>
				</port>
			</output>
		</layer>
		<layer id="127" name="Mul_95" type="Multiply" version="opset1">
			<data auto_broadcast="numpy"/>
			<input>
				<port id="0" precision="FP16">
					<dim>1</dim>
					<dim>128</dim>
					<dim>34</dim>
					<dim>60</dim>
				</port>
				<port id="1" precision="FP16">
					<dim>1</dim>
					<dim>128</dim>
					<dim>34</dim>
					<dim>60</dim>
				</port>
			</input>
			<output>
				<port id="2" names="395" precision="FP16">
					<dim>1</dim>
					<dim>128</dim>
					<dim>34</dim>
					<dim>60</dim>
				</port>
			</output>
		</layer>
		<layer id="128" name="985" type="Const" version="opset1">
			<data element_type="f16" offset="37338" shape="128, 128, 1, 1" size="32768"/>
			<output>
				<port id="0" names="985" precision="FP16">
					<dim>128</dim>
					<dim>128</dim>
					<dim>1</dim>
					<dim>1</dim>
				</port>
			</output>
		</layer>
		<layer id="129" name="Conv_96/WithoutBiases" type="Convolution" version="opset1">
			<data auto_pad="explicit" dilations="1, 1" pads_begin="0, 0" pads_end="0, 0" strides="1, 1"/>
			<input>
				<port id="0" precision="FP16">
					<dim>1</dim>
					<dim>128</dim>
					<dim>34</dim>
					<dim>60</dim>
				</port>
				<port id="1" precision="FP16">
					<dim>128</dim>
					<dim>128</dim>
					<dim>1</dim>
					<dim>1</dim>
				</port>
			</input>
			<output>
				<port id="2" precision="FP16">
					<dim>1</dim>
					<dim>128</dim>
					<dim>34</dim>
					<dim>60</dim>
				</port>
			</output>
		</layer>
		<layer id="130" name="Conv_96/Dims7855" type="Const" version="opset1">
			<data element_type="f16" offset="70106" shape="1, 128, 1, 1" size="256"/>
			<output>
				<port id="0" precision="FP16">
					<dim>1</dim>
					<dim>128</dim>
					<dim>1</dim>
					<dim>1</dim>
				</port>
			</output>
		</layer>
		<layer id="131" name="Conv_96" type="Add" version="opset1">
			<data auto_broadcast="numpy"/>
			<input>
				<port id="0" precision="FP16">
					<dim>1</dim>
					<dim>128</dim>
					<dim>34</dim>
					<dim>60</dim>
				</port>
				<port id="1" precision="FP16">
					<dim>1</dim>
					<dim>128</dim>
					<dim>1</dim>
					<dim>1</dim>
				</port>
			</input>
			<output>
				<port id="2" names="984" precision="FP16">
					<dim>1</dim>
					<dim>128</dim>
					<dim>34</dim>
					<dim>60</dim>
				</port>
			</output>
		</layer>
		<layer id="132" name="Constant_97" type="Const" version="opset1">
			<data element_type="f16" offset="982" shape="1, 1, 1, 1" size="2"/>
			<output>
				<port id="0" names="398" precision="FP16">
					<dim>1</dim>
					<dim>1</dim>
					<dim>1</dim>
					<dim>1</dim>
				</port>
			</output>
		</layer>
		<layer id="133" name="Add_98" type="Add" version="opset1">
			<data auto_broadcast="numpy"/>
			<input>
				<port id="0" precision="FP16">
					<dim>1</dim>
					<dim>128</dim>
					<dim>34</dim>
					<dim>60</dim>
				</port>
				<port id="1" precision="FP16">
					<dim>1</dim>
					<dim>1</dim>
					<dim>1</dim>
					<dim>1</dim>
				</port>
			</input>
			<output>
				<port id="2" names="399" precision="FP16">
					<dim>1</dim>
					<dim>128</dim>
					<dim>34</dim>
					<dim>60</dim>
				</port>
			</output>
		</layer>
		<layer id="134" name="Clip_101" type="Clamp" version="opset1">
			<data max="6" min="0"/>
			<input>
				<port id="0" precision="FP16">
					<dim>1</dim>
					<dim>128</dim>
					<dim>34</dim>
					<dim>60</dim>
				</port>
			</input>
			<output>
				<port id="1" names="402" precision="FP16">
					<dim>1</dim>
					<dim>128</dim>
					<dim>34</dim>
					<dim>60</dim>
				</port>
			</output>
		</layer>
		<layer id="135" name="Constant_102" type="Const" version="opset1">
			<data element_type="f16" offset="984" shape="1, 1, 1, 1" size="2"/>
			<output>
				<port id="0" names="403" precision="FP16">
					<dim>1</dim>
					<dim>1</dim>
					<dim>1</dim>
					<dim>1</dim>
				</port>
			</output>
		</layer>
		<layer id="136" name="Div_103" type="Multiply" version="opset1">
			<data auto_broadcast="numpy"/>
			<input>
				<port id="0" precision="FP16">
					<dim>1</dim>
					<dim>128</dim>
					<dim>34</dim>
					<dim>60</dim>
				</port>
				<port id="1" precision="FP16">
					<dim>1</dim>
					<dim>1</dim>
					<dim>1</dim>
					<dim>1</dim>
				</port>
			</input>
			<output>
				<port id="2" names="404" precision="FP16">
					<dim>1</dim>
					<dim>128</dim>
					<dim>34</dim>
					<dim>60</dim>
				</port>
			</output>
		</layer>
		<layer id="137" name="Mul_104" type="Multiply" version="opset1">
			<data auto_broadcast="numpy"/>
			<input>
				<port id="0" precision="FP16">
					<dim>1</dim>
					<dim>128</dim>
					<dim>34</dim>
					<dim>60</dim>
				</port>
				<port id="1" precision="FP16">
					<dim>1</dim>
					<dim>128</dim>
					<dim>34</dim>
					<dim>60</dim>
				</port>
			</input>
			<output>
				<port id="2" names="405" precision="FP16">
					<dim>1</dim>
					<dim>128</dim>
					<dim>34</dim>
					<dim>60</dim>
				</port>
			</output>
		</layer>
		<layer id="138" name="988" type="Const" version="opset1">
			<data element_type="f16" offset="70362" shape="128, 1, 1, 3, 3" size="2304"/>
			<output>
				<port id="0" names="988" precision="FP16">
					<dim>128</dim>
					<dim>1</dim>
					<dim>1</dim>
					<dim>3</dim>
					<dim>3</dim>
				</port>
			</output>
		</layer>
		<layer id="139" name="Conv_105/WithoutBiases" type="GroupConvolution" version="opset1">
			<data auto_pad="explicit" dilations="1, 1" pads_begin="1, 1" pads_end="1, 1" strides="2, 2"/>
			<input>
				<port id="0" precision="FP16">
					<dim>1</dim>
					<dim>128</dim>
					<dim>34</dim>
					<dim>60</dim>
				</port>
				<port id="1" precision="FP16">
					<dim>128</dim>
					<dim>1</dim>
					<dim>1</dim>
					<dim>3</dim>
					<dim>3</dim>
				</port>
			</input>
			<output>
				<port id="2" precision="FP16">
					<dim>1</dim>
					<dim>128</dim>
					<dim>17</dim>
					<dim>30</dim>
				</port>
			</output>
		</layer>
		<layer id="140" name="Conv_105/Dims7849" type="Const" version="opset1">
			<data element_type="f16" offset="72666" shape="1, 128, 1, 1" size="256"/>
			<output>
				<port id="0" precision="FP16">
					<dim>1</dim>
					<dim>128</dim>
					<dim>1</dim>
					<dim>1</dim>
				</port>
			</output>
		</layer>
		<layer id="141" name="Conv_105" type="Add" version="opset1">
			<data auto_broadcast="numpy"/>
			<input>
				<port id="0" precision="FP16">
					<dim>1</dim>
					<dim>128</dim>
					<dim>17</dim>
					<dim>30</dim>
				</port>
				<port id="1" precision="FP16">
					<dim>1</dim>
					<dim>128</dim>
					<dim>1</dim>
					<dim>1</dim>
				</port>
			</input>
			<output>
				<port id="2" names="987" precision="FP16">
					<dim>1</dim>
					<dim>128</dim>
					<dim>17</dim>
					<dim>30</dim>
				</port>
			</output>
		</layer>
		<layer id="142" name="Constant_106" type="Const" version="opset1">
			<data element_type="f16" offset="982" shape="1, 1, 1, 1" size="2"/>
			<output>
				<port id="0" names="408" precision="FP16">
					<dim>1</dim>
					<dim>1</dim>
					<dim>1</dim>
					<dim>1</dim>
				</port>
			</output>
		</layer>
		<layer id="143" name="Add_107" type="Add" version="opset1">
			<data auto_broadcast="numpy"/>
			<input>
				<port id="0" precision="FP16">
					<dim>1</dim>
					<dim>128</dim>
					<dim>17</dim>
					<dim>30</dim>
				</port>
				<port id="1" precision="FP16">
					<dim>1</dim>
					<dim>1</dim>
					<dim>1</dim>
					<dim>1</dim>
				</port>
			</input>
			<output>
				<port id="2" names="409" precision="FP16">
					<dim>1</dim>
					<dim>128</dim>
					<dim>17</dim>
					<dim>30</dim>
				</port>
			</output>
		</layer>
		<layer id="144" name="Clip_110" type="Clamp" version="opset1">
			<data max="6" min="0"/>
			<input>
				<port id="0" precision="FP16">
					<dim>1</dim>
					<dim>128</dim>
					<dim>17</dim>
					<dim>30</dim>
				</port>
			</input>
			<output>
				<port id="1" names="412" precision="FP16">
					<dim>1</dim>
					<dim>128</dim>
					<dim>17</dim>
					<dim>30</dim>
				</port>
			</output>
		</layer>
		<layer id="145" name="Constant_111" type="Const" version="opset1">
			<data element_type="f16" offset="984" shape="1, 1, 1, 1" size="2"/>
			<output>
				<port id="0" names="413" precision="FP16">
					<dim>1</dim>
					<dim>1</dim>
					<dim>1</dim>
					<dim>1</dim>
				</port>
			</output>
		</layer>
		<layer id="146" name="Div_112" type="Multiply" version="opset1">
			<data auto_broadcast="numpy"/>
			<input>
				<port id="0" precision="FP16">
					<dim>1</dim>
					<dim>128</dim>
					<dim>17</dim>
					<dim>30</dim>
				</port>
				<port id="1" precision="FP16">
					<dim>1</dim>
					<dim>1</dim>
					<dim>1</dim>
					<dim>1</dim>
				</port>
			</input>
			<output>
				<port id="2" names="414" precision="FP16">
					<dim>1</dim>
					<dim>128</dim>
					<dim>17</dim>
					<dim>30</dim>
				</port>
			</output>
		</layer>
		<layer id="147" name="Mul_113" type="Multiply" version="opset1">
			<data auto_broadcast="numpy"/>
			<input>
				<port id="0" precision="FP16">
					<dim>1</dim>
					<dim>128</dim>
					<dim>17</dim>
					<dim>30</dim>
				</port>
				<port id="1" precision="FP16">
					<dim>1</dim>
					<dim>128</dim>
					<dim>17</dim>
					<dim>30</dim>
				</port>
			</input>
			<output>
				<port id="2" names="415" precision="FP16">
					<dim>1</dim>
					<dim>128</dim>
					<dim>17</dim>
					<dim>30</dim>
				</port>
			</output>
		</layer>
		<layer id="148" name="991" type="Const" version="opset1">
			<data element_type="f16" offset="72922" shape="256, 128, 1, 1" size="65536"/>
			<output>
				<port id="0" names="991" precision="FP16">
					<dim>256</dim>
					<dim>128</dim>
					<dim>1</dim>
					<dim>1</dim>
				</port>
			</output>
		</layer>
		<layer id="149" name="Conv_114/WithoutBiases" type="Convolution" version="opset1">
			<data auto_pad="explicit" dilations="1, 1" pads_begin="0, 0" pads_end="0, 0" strides="1, 1"/>
			<input>
				<port id="0" precision="FP16">
					<dim>1</dim>
					<dim>128</dim>
					<dim>17</dim>
					<dim>30</dim>
				</port>
				<port id="1" precision="FP16">
					<dim>256</dim>
					<dim>128</dim>
					<dim>1</dim>
					<dim>1</dim>
				</port>
			</input>
			<output>
				<port id="2" precision="FP16">
					<dim>1</dim>
					<dim>256</dim>
					<dim>17</dim>
					<dim>30</dim>
				</port>
			</output>
		</layer>
		<layer id="150" name="Conv_114/Dims7807" type="Const" version="opset1">
			<data element_type="f16" offset="138458" shape="1, 256, 1, 1" size="512"/>
			<output>
				<port id="0" precision="FP16">
					<dim>1</dim>
					<dim>256</dim>
					<dim>1</dim>
					<dim>1</dim>
				</port>
			</output>
		</layer>
		<layer id="151" name="Conv_114" type="Add" version="opset1">
			<data auto_broadcast="numpy"/>
			<input>
				<port id="0" precision="FP16">
					<dim>1</dim>
					<dim>256</dim>
					<dim>17</dim>
					<dim>30</dim>
				</port>
				<port id="1" precision="FP16">
					<dim>1</dim>
					<dim>256</dim>
					<dim>1</dim>
					<dim>1</dim>
				</port>
			</input>
			<output>
				<port id="2" names="990" precision="FP16">
					<dim>1</dim>
					<dim>256</dim>
					<dim>17</dim>
					<dim>30</dim>
				</port>
			</output>
		</layer>
		<layer id="152" name="Constant_115" type="Const" version="opset1">
			<data element_type="f16" offset="982" shape="1, 1, 1, 1" size="2"/>
			<output>
				<port id="0" names="418" precision="FP16">
					<dim>1</dim>
					<dim>1</dim>
					<dim>1</dim>
					<dim>1</dim>
				</port>
			</output>
		</layer>
		<layer id="153" name="Add_116" type="Add" version="opset1">
			<data auto_broadcast="numpy"/>
			<input>
				<port id="0" precision="FP16">
					<dim>1</dim>
					<dim>256</dim>
					<dim>17</dim>
					<dim>30</dim>
				</port>
				<port id="1" precision="FP16">
					<dim>1</dim>
					<dim>1</dim>
					<dim>1</dim>
					<dim>1</dim>
				</port>
			</input>
			<output>
				<port id="2" names="419" precision="FP16">
					<dim>1</dim>
					<dim>256</dim>
					<dim>17</dim>
					<dim>30</dim>
				</port>
			</output>
		</layer>
		<layer id="154" name="Clip_119" type="Clamp" version="opset1">
			<data max="6" min="0"/>
			<input>
				<port id="0" precision="FP16">
					<dim>1</dim>
					<dim>256</dim>
					<dim>17</dim>
					<dim>30</dim>
				</port>
			</input>
			<output>
				<port id="1" names="422" precision="FP16">
					<dim>1</dim>
					<dim>256</dim>
					<dim>17</dim>
					<dim>30</dim>
				</port>
			</output>
		</layer>
		<layer id="155" name="Constant_120" type="Const" version="opset1">
			<data element_type="f16" offset="984" shape="1, 1, 1, 1" size="2"/>
			<output>
				<port id="0" names="423" precision="FP16">
					<dim>1</dim>
					<dim>1</dim>
					<dim>1</dim>
					<dim>1</dim>
				</port>
			</output>
		</layer>
		<layer id="156" name="Div_121" type="Multiply" version="opset1">
			<data auto_broadcast="numpy"/>
			<input>
				<port id="0" precision="FP16">
					<dim>1</dim>
					<dim>256</dim>
					<dim>17</dim>
					<dim>30</dim>
				</port>
				<port id="1" precision="FP16">
					<dim>1</dim>
					<dim>1</dim>
					<dim>1</dim>
					<dim>1</dim>
				</port>
			</input>
			<output>
				<port id="2" names="424" precision="FP16">
					<dim>1</dim>
					<dim>256</dim>
					<dim>17</dim>
					<dim>30</dim>
				</port>
			</output>
		</layer>
		<layer id="157" name="Mul_122" type="Multiply" version="opset1">
			<data auto_broadcast="numpy"/>
			<input>
				<port id="0" precision="FP16">
					<dim>1</dim>
					<dim>256</dim>
					<dim>17</dim>
					<dim>30</dim>
				</port>
				<port id="1" precision="FP16">
					<dim>1</dim>
					<dim>256</dim>
					<dim>17</dim>
					<dim>30</dim>
				</port>
			</input>
			<output>
				<port id="2" names="425" precision="FP16">
					<dim>1</dim>
					<dim>256</dim>
					<dim>17</dim>
					<dim>30</dim>
				</port>
			</output>
		</layer>
		<layer id="158" name="994" type="Const" version="opset1">
			<data element_type="f16" offset="138970" shape="256, 1, 1, 5, 5" size="12800"/>
			<output>
				<port id="0" names="994" precision="FP16">
					<dim>256</dim>
					<dim>1</dim>
					<dim>1</dim>
					<dim>5</dim>
					<dim>5</dim>
				</port>
			</output>
		</layer>
		<layer id="159" name="Conv_123/WithoutBiases" type="GroupConvolution" version="opset1">
			<data auto_pad="explicit" dilations="1, 1" pads_begin="2, 2" pads_end="2, 2" strides="1, 1"/>
			<input>
				<port id="0" precision="FP16">
					<dim>1</dim>
					<dim>256</dim>
					<dim>17</dim>
					<dim>30</dim>
				</port>
				<port id="1" precision="FP16">
					<dim>256</dim>
					<dim>1</dim>
					<dim>1</dim>
					<dim>5</dim>
					<dim>5</dim>
				</port>
			</input>
			<output>
				<port id="2" precision="FP16">
					<dim>1</dim>
					<dim>256</dim>
					<dim>17</dim>
					<dim>30</dim>
				</port>
			</output>
		</layer>
		<layer id="160" name="Conv_123/Dims7903" type="Const" version="opset1">
			<data element_type="f16" offset="151770" shape="1, 256, 1, 1" size="512"/>
			<output>
				<port id="0" precision="FP16">
					<dim>1</dim>
					<dim>256</dim>
					<dim>1</dim>
					<dim>1</dim>
				</port>
			</output>
		</layer>
		<layer id="161" name="Conv_123" type="Add" version="opset1">
			<data auto_broadcast="numpy"/>
			<input>
				<port id="0" precision="FP16">
					<dim>1</dim>
					<dim>256</dim>
					<dim>17</dim>
					<dim>30</dim>
				</port>
				<port id="1" precision="FP16">
					<dim>1</dim>
					<dim>256</dim>
					<dim>1</dim>
					<dim>1</dim>
				</port>
			</input>
			<output>
				<port id="2" names="993" precision="FP16">
					<dim>1</dim>
					<dim>256</dim>
					<dim>17</dim>
					<dim>30</dim>
				</port>
			</output>
		</layer>
		<layer id="162" name="Constant_124" type="Const" version="opset1">
			<data element_type="f16" offset="982" shape="1, 1, 1, 1" size="2"/>
			<output>
				<port id="0" names="428" precision="FP16">
					<dim>1</dim>
					<dim>1</dim>
					<dim>1</dim>
					<dim>1</dim>
				</port>
			</output>
		</layer>
		<layer id="163" name="Add_125" type="Add" version="opset1">
			<data auto_broadcast="numpy"/>
			<input>
				<port id="0" precision="FP16">
					<dim>1</dim>
					<dim>256</dim>
					<dim>17</dim>
					<dim>30</dim>
				</port>
				<port id="1" precision="FP16">
					<dim>1</dim>
					<dim>1</dim>
					<dim>1</dim>
					<dim>1</dim>
				</port>
			</input>
			<output>
				<port id="2" names="429" precision="FP16">
					<dim>1</dim>
					<dim>256</dim>
					<dim>17</dim>
					<dim>30</dim>
				</port>
			</output>
		</layer>
		<layer id="164" name="Clip_128" type="Clamp" version="opset1">
			<data max="6" min="0"/>
			<input>
				<port id="0" precision="FP16">
					<dim>1</dim>
					<dim>256</dim>
					<dim>17</dim>
					<dim>30</dim>
				</port>
			</input>
			<output>
				<port id="1" names="432" precision="FP16">
					<dim>1</dim>
					<dim>256</dim>
					<dim>17</dim>
					<dim>30</dim>
				</port>
			</output>
		</layer>
		<layer id="165" name="Constant_129" type="Const" version="opset1">
			<data element_type="f16" offset="984" shape="1, 1, 1, 1" size="2"/>
			<output>
				<port id="0" names="433" precision="FP16">
					<dim>1</dim>
					<dim>1</dim>
					<dim>1</dim>
					<dim>1</dim>
				</port>
			</output>
		</layer>
		<layer id="166" name="Div_130" type="Multiply" version="opset1">
			<data auto_broadcast="numpy"/>
			<input>
				<port id="0" precision="FP16">
					<dim>1</dim>
					<dim>256</dim>
					<dim>17</dim>
					<dim>30</dim>
				</port>
				<port id="1" precision="FP16">
					<dim>1</dim>
					<dim>1</dim>
					<dim>1</dim>
					<dim>1</dim>
				</port>
			</input>
			<output>
				<port id="2" names="434" precision="FP16">
					<dim>1</dim>
					<dim>256</dim>
					<dim>17</dim>
					<dim>30</dim>
				</port>
			</output>
		</layer>
		<layer id="167" name="Mul_131" type="Multiply" version="opset1">
			<data auto_broadcast="numpy"/>
			<input>
				<port id="0" precision="FP16">
					<dim>1</dim>
					<dim>256</dim>
					<dim>17</dim>
					<dim>30</dim>
				</port>
				<port id="1" precision="FP16">
					<dim>1</dim>
					<dim>256</dim>
					<dim>17</dim>
					<dim>30</dim>
				</port>
			</input>
			<output>
				<port id="2" names="435" precision="FP16">
					<dim>1</dim>
					<dim>256</dim>
					<dim>17</dim>
					<dim>30</dim>
				</port>
			</output>
		</layer>
		<layer id="168" name="997" type="Const" version="opset1">
			<data element_type="f16" offset="152282" shape="256, 256, 1, 1" size="131072"/>
			<output>
				<port id="0" names="997" precision="FP16">
					<dim>256</dim>
					<dim>256</dim>
					<dim>1</dim>
					<dim>1</dim>
				</port>
			</output>
		</layer>
		<layer id="169" name="Conv_132/WithoutBiases" type="Convolution" version="opset1">
			<data auto_pad="explicit" dilations="1, 1" pads_begin="0, 0" pads_end="0, 0" strides="1, 1"/>
			<input>
				<port id="0" precision="FP16">
					<dim>1</dim>
					<dim>256</dim>
					<dim>17</dim>
					<dim>30</dim>
				</port>
				<port id="1" precision="FP16">
					<dim>256</dim>
					<dim>256</dim>
					<dim>1</dim>
					<dim>1</dim>
				</port>
			</input>
			<output>
				<port id="2" precision="FP16">
					<dim>1</dim>
					<dim>256</dim>
					<dim>17</dim>
					<dim>30</dim>
				</port>
			</output>
		</layer>
		<layer id="170" name="Conv_132/Dims7783" type="Const" version="opset1">
			<data element_type="f16" offset="283354" shape="1, 256, 1, 1" size="512"/>
			<output>
				<port id="0" precision="FP16">
					<dim>1</dim>
					<dim>256</dim>
					<dim>1</dim>
					<dim>1</dim>
				</port>
			</output>
		</layer>
		<layer id="171" name="Conv_132" type="Add" version="opset1">
			<data auto_broadcast="numpy"/>
			<input>
				<port id="0" precision="FP16">
					<dim>1</dim>
					<dim>256</dim>
					<dim>17</dim>
					<dim>30</dim>
				</port>
				<port id="1" precision="FP16">
					<dim>1</dim>
					<dim>256</dim>
					<dim>1</dim>
					<dim>1</dim>
				</port>
			</input>
			<output>
				<port id="2" names="996" precision="FP16">
					<dim>1</dim>
					<dim>256</dim>
					<dim>17</dim>
					<dim>30</dim>
				</port>
			</output>
		</layer>
		<layer id="172" name="Constant_133" type="Const" version="opset1">
			<data element_type="f16" offset="982" shape="1, 1, 1, 1" size="2"/>
			<output>
				<port id="0" names="438" precision="FP16">
					<dim>1</dim>
					<dim>1</dim>
					<dim>1</dim>
					<dim>1</dim>
				</port>
			</output>
		</layer>
		<layer id="173" name="Add_134" type="Add" version="opset1">
			<data auto_broadcast="numpy"/>
			<input>
				<port id="0" precision="FP16">
					<dim>1</dim>
					<dim>256</dim>
					<dim>17</dim>
					<dim>30</dim>
				</port>
				<port id="1" precision="FP16">
					<dim>1</dim>
					<dim>1</dim>
					<dim>1</dim>
					<dim>1</dim>
				</port>
			</input>
			<output>
				<port id="2" names="439" precision="FP16">
					<dim>1</dim>
					<dim>256</dim>
					<dim>17</dim>
					<dim>30</dim>
				</port>
			</output>
		</layer>
		<layer id="174" name="Clip_137" type="Clamp" version="opset1">
			<data max="6" min="0"/>
			<input>
				<port id="0" precision="FP16">
					<dim>1</dim>
					<dim>256</dim>
					<dim>17</dim>
					<dim>30</dim>
				</port>
			</input>
			<output>
				<port id="1" names="442" precision="FP16">
					<dim>1</dim>
					<dim>256</dim>
					<dim>17</dim>
					<dim>30</dim>
				</port>
			</output>
		</layer>
		<layer id="175" name="Constant_138" type="Const" version="opset1">
			<data element_type="f16" offset="984" shape="1, 1, 1, 1" size="2"/>
			<output>
				<port id="0" names="443" precision="FP16">
					<dim>1</dim>
					<dim>1</dim>
					<dim>1</dim>
					<dim>1</dim>
				</port>
			</output>
		</layer>
		<layer id="176" name="Div_139" type="Multiply" version="opset1">
			<data auto_broadcast="numpy"/>
			<input>
				<port id="0" precision="FP16">
					<dim>1</dim>
					<dim>256</dim>
					<dim>17</dim>
					<dim>30</dim>
				</port>
				<port id="1" precision="FP16">
					<dim>1</dim>
					<dim>1</dim>
					<dim>1</dim>
					<dim>1</dim>
				</port>
			</input>
			<output>
				<port id="2" names="444" precision="FP16">
					<dim>1</dim>
					<dim>256</dim>
					<dim>17</dim>
					<dim>30</dim>
				</port>
			</output>
		</layer>
		<layer id="177" name="Mul_140" type="Multiply" version="opset1">
			<data auto_broadcast="numpy"/>
			<input>
				<port id="0" precision="FP16">
					<dim>1</dim>
					<dim>256</dim>
					<dim>17</dim>
					<dim>30</dim>
				</port>
				<port id="1" precision="FP16">
					<dim>1</dim>
					<dim>256</dim>
					<dim>17</dim>
					<dim>30</dim>
				</port>
			</input>
			<output>
				<port id="2" names="445" precision="FP16">
					<dim>1</dim>
					<dim>256</dim>
					<dim>17</dim>
					<dim>30</dim>
				</port>
			</output>
		</layer>
		<layer id="178" name="1000" type="Const" version="opset1">
			<data element_type="f16" offset="283866" shape="256, 1, 1, 5, 5" size="12800"/>
			<output>
				<port id="0" names="1000" precision="FP16">
					<dim>256</dim>
					<dim>1</dim>
					<dim>1</dim>
					<dim>5</dim>
					<dim>5</dim>
				</port>
			</output>
		</layer>
		<layer id="179" name="Conv_141/WithoutBiases" type="GroupConvolution" version="opset1">
			<data auto_pad="explicit" dilations="1, 1" pads_begin="2, 2" pads_end="2, 2" strides="1, 1"/>
			<input>
				<port id="0" precision="FP16">
					<dim>1</dim>
					<dim>256</dim>
					<dim>17</dim>
					<dim>30</dim>
				</port>
				<port id="1" precision="FP16">
					<dim>256</dim>
					<dim>1</dim>
					<dim>1</dim>
					<dim>5</dim>
					<dim>5</dim>
				</port>
			</input>
			<output>
				<port id="2" precision="FP16">
					<dim>1</dim>
					<dim>256</dim>
					<dim>17</dim>
					<dim>30</dim>
				</port>
			</output>
		</layer>
		<layer id="180" name="Conv_141/Dims7891" type="Const" version="opset1">
			<data element_type="f16" offset="296666" shape="1, 256, 1, 1" size="512"/>
			<output>
				<port id="0" precision="FP16">
					<dim>1</dim>
					<dim>256</dim>
					<dim>1</dim>
					<dim>1</dim>
				</port>
			</output>
		</layer>
		<layer id="181" name="Conv_141" type="Add" version="opset1">
			<data auto_broadcast="numpy"/>
			<input>
				<port id="0" precision="FP16">
					<dim>1</dim>
					<dim>256</dim>
					<dim>17</dim>
					<dim>30</dim>
				</port>
				<port id="1" precision="FP16">
					<dim>1</dim>
					<dim>256</dim>
					<dim>1</dim>
					<dim>1</dim>
				</port>
			</input>
			<output>
				<port id="2" names="999" precision="FP16">
					<dim>1</dim>
					<dim>256</dim>
					<dim>17</dim>
					<dim>30</dim>
				</port>
			</output>
		</layer>
		<layer id="182" name="Constant_142" type="Const" version="opset1">
			<data element_type="f16" offset="982" shape="1, 1, 1, 1" size="2"/>
			<output>
				<port id="0" names="448" precision="FP16">
					<dim>1</dim>
					<dim>1</dim>
					<dim>1</dim>
					<dim>1</dim>
				</port>
			</output>
		</layer>
		<layer id="183" name="Add_143" type="Add" version="opset1">
			<data auto_broadcast="numpy"/>
			<input>
				<port id="0" precision="FP16">
					<dim>1</dim>
					<dim>256</dim>
					<dim>17</dim>
					<dim>30</dim>
				</port>
				<port id="1" precision="FP16">
					<dim>1</dim>
					<dim>1</dim>
					<dim>1</dim>
					<dim>1</dim>
				</port>
			</input>
			<output>
				<port id="2" names="449" precision="FP16">
					<dim>1</dim>
					<dim>256</dim>
					<dim>17</dim>
					<dim>30</dim>
				</port>
			</output>
		</layer>
		<layer id="184" name="Clip_146" type="Clamp" version="opset1">
			<data max="6" min="0"/>
			<input>
				<port id="0" precision="FP16">
					<dim>1</dim>
					<dim>256</dim>
					<dim>17</dim>
					<dim>30</dim>
				</port>
			</input>
			<output>
				<port id="1" names="452" precision="FP16">
					<dim>1</dim>
					<dim>256</dim>
					<dim>17</dim>
					<dim>30</dim>
				</port>
			</output>
		</layer>
		<layer id="185" name="Constant_147" type="Const" version="opset1">
			<data element_type="f16" offset="984" shape="1, 1, 1, 1" size="2"/>
			<output>
				<port id="0" names="453" precision="FP16">
					<dim>1</dim>
					<dim>1</dim>
					<dim>1</dim>
					<dim>1</dim>
				</port>
			</output>
		</layer>
		<layer id="186" name="Div_148" type="Multiply" version="opset1">
			<data auto_broadcast="numpy"/>
			<input>
				<port id="0" precision="FP16">
					<dim>1</dim>
					<dim>256</dim>
					<dim>17</dim>
					<dim>30</dim>
				</port>
				<port id="1" precision="FP16">
					<dim>1</dim>
					<dim>1</dim>
					<dim>1</dim>
					<dim>1</dim>
				</port>
			</input>
			<output>
				<port id="2" names="454" precision="FP16">
					<dim>1</dim>
					<dim>256</dim>
					<dim>17</dim>
					<dim>30</dim>
				</port>
			</output>
		</layer>
		<layer id="187" name="Mul_149" type="Multiply" version="opset1">
			<data auto_broadcast="numpy"/>
			<input>
				<port id="0" precision="FP16">
					<dim>1</dim>
					<dim>256</dim>
					<dim>17</dim>
					<dim>30</dim>
				</port>
				<port id="1" precision="FP16">
					<dim>1</dim>
					<dim>256</dim>
					<dim>17</dim>
					<dim>30</dim>
				</port>
			</input>
			<output>
				<port id="2" names="455" precision="FP16">
					<dim>1</dim>
					<dim>256</dim>
					<dim>17</dim>
					<dim>30</dim>
				</port>
			</output>
		</layer>
		<layer id="188" name="1003" type="Const" version="opset1">
			<data element_type="f16" offset="297178" shape="256, 256, 1, 1" size="131072"/>
			<output>
				<port id="0" names="1003" precision="FP16">
					<dim>256</dim>
					<dim>256</dim>
					<dim>1</dim>
					<dim>1</dim>
				</port>
			</output>
		</layer>
		<layer id="189" name="Conv_150/WithoutBiases" type="Convolution" version="opset1">
			<data auto_pad="explicit" dilations="1, 1" pads_begin="0, 0" pads_end="0, 0" strides="1, 1"/>
			<input>
				<port id="0" precision="FP16">
					<dim>1</dim>
					<dim>256</dim>
					<dim>17</dim>
					<dim>30</dim>
				</port>
				<port id="1" precision="FP16">
					<dim>256</dim>
					<dim>256</dim>
					<dim>1</dim>
					<dim>1</dim>
				</port>
			</input>
			<output>
				<port id="2" precision="FP16">
					<dim>1</dim>
					<dim>256</dim>
					<dim>17</dim>
					<dim>30</dim>
				</port>
			</output>
		</layer>
		<layer id="190" name="Conv_150/Dims7789" type="Const" version="opset1">
			<data element_type="f16" offset="428250" shape="1, 256, 1, 1" size="512"/>
			<output>
				<port id="0" precision="FP16">
					<dim>1</dim>
					<dim>256</dim>
					<dim>1</dim>
					<dim>1</dim>
				</port>
			</output>
		</layer>
		<layer id="191" name="Conv_150" type="Add" version="opset1">
			<data auto_broadcast="numpy"/>
			<input>
				<port id="0" precision="FP16">
					<dim>1</dim>
					<dim>256</dim>
					<dim>17</dim>
					<dim>30</dim>
				</port>
				<port id="1" precision="FP16">
					<dim>1</dim>
					<dim>256</dim>
					<dim>1</dim>
					<dim>1</dim>
				</port>
			</input>
			<output>
				<port id="2" names="1002" precision="FP16">
					<dim>1</dim>
					<dim>256</dim>
					<dim>17</dim>
					<dim>30</dim>
				</port>
			</output>
		</layer>
		<layer id="192" name="Constant_151" type="Const" version="opset1">
			<data element_type="f16" offset="982" shape="1, 1, 1, 1" size="2"/>
			<output>
				<port id="0" names="458" precision="FP16">
					<dim>1</dim>
					<dim>1</dim>
					<dim>1</dim>
					<dim>1</dim>
				</port>
			</output>
		</layer>
		<layer id="193" name="Add_152" type="Add" version="opset1">
			<data auto_broadcast="numpy"/>
			<input>
				<port id="0" precision="FP16">
					<dim>1</dim>
					<dim>256</dim>
					<dim>17</dim>
					<dim>30</dim>
				</port>
				<port id="1" precision="FP16">
					<dim>1</dim>
					<dim>1</dim>
					<dim>1</dim>
					<dim>1</dim>
				</port>
			</input>
			<output>
				<port id="2" names="459" precision="FP16">
					<dim>1</dim>
					<dim>256</dim>
					<dim>17</dim>
					<dim>30</dim>
				</port>
			</output>
		</layer>
		<layer id="194" name="Clip_155" type="Clamp" version="opset1">
			<data max="6" min="0"/>
			<input>
				<port id="0" precision="FP16">
					<dim>1</dim>
					<dim>256</dim>
					<dim>17</dim>
					<dim>30</dim>
				</port>
			</input>
			<output>
				<port id="1" names="462" precision="FP16">
					<dim>1</dim>
					<dim>256</dim>
					<dim>17</dim>
					<dim>30</dim>
				</port>
			</output>
		</layer>
		<layer id="195" name="Constant_156" type="Const" version="opset1">
			<data element_type="f16" offset="984" shape="1, 1, 1, 1" size="2"/>
			<output>
				<port id="0" names="463" precision="FP16">
					<dim>1</dim>
					<dim>1</dim>
					<dim>1</dim>
					<dim>1</dim>
				</port>
			</output>
		</layer>
		<layer id="196" name="Div_157" type="Multiply" version="opset1">
			<data auto_broadcast="numpy"/>
			<input>
				<port id="0" precision="FP16">
					<dim>1</dim>
					<dim>256</dim>
					<dim>17</dim>
					<dim>30</dim>
				</port>
				<port id="1" precision="FP16">
					<dim>1</dim>
					<dim>1</dim>
					<dim>1</dim>
					<dim>1</dim>
				</port>
			</input>
			<output>
				<port id="2" names="464" precision="FP16">
					<dim>1</dim>
					<dim>256</dim>
					<dim>17</dim>
					<dim>30</dim>
				</port>
			</output>
		</layer>
		<layer id="197" name="Mul_158" type="Multiply" version="opset1">
			<data auto_broadcast="numpy"/>
			<input>
				<port id="0" precision="FP16">
					<dim>1</dim>
					<dim>256</dim>
					<dim>17</dim>
					<dim>30</dim>
				</port>
				<port id="1" precision="FP16">
					<dim>1</dim>
					<dim>256</dim>
					<dim>17</dim>
					<dim>30</dim>
				</port>
			</input>
			<output>
				<port id="2" names="465" precision="FP16">
					<dim>1</dim>
					<dim>256</dim>
					<dim>17</dim>
					<dim>30</dim>
				</port>
			</output>
		</layer>
		<layer id="198" name="1006" type="Const" version="opset1">
			<data element_type="f16" offset="428762" shape="256, 1, 1, 5, 5" size="12800"/>
			<output>
				<port id="0" names="1006" precision="FP16">
					<dim>256</dim>
					<dim>1</dim>
					<dim>1</dim>
					<dim>5</dim>
					<dim>5</dim>
				</port>
			</output>
		</layer>
		<layer id="199" name="Conv_159/WithoutBiases" type="GroupConvolution" version="opset1">
			<data auto_pad="explicit" dilations="1, 1" pads_begin="2, 2" pads_end="2, 2" strides="1, 1"/>
			<input>
				<port id="0" precision="FP16">
					<dim>1</dim>
					<dim>256</dim>
					<dim>17</dim>
					<dim>30</dim>
				</port>
				<port id="1" precision="FP16">
					<dim>256</dim>
					<dim>1</dim>
					<dim>1</dim>
					<dim>5</dim>
					<dim>5</dim>
				</port>
			</input>
			<output>
				<port id="2" precision="FP16">
					<dim>1</dim>
					<dim>256</dim>
					<dim>17</dim>
					<dim>30</dim>
				</port>
			</output>
		</layer>
		<layer id="200" name="Conv_159/Dims7711" type="Const" version="opset1">
			<data element_type="f16" offset="441562" shape="1, 256, 1, 1" size="512"/>
			<output>
				<port id="0" precision="FP16">
					<dim>1</dim>
					<dim>256</dim>
					<dim>1</dim>
					<dim>1</dim>
				</port>
			</output>
		</layer>
		<layer id="201" name="Conv_159" type="Add" version="opset1">
			<data auto_broadcast="numpy"/>
			<input>
				<port id="0" precision="FP16">
					<dim>1</dim>
					<dim>256</dim>
					<dim>17</dim>
					<dim>30</dim>
				</port>
				<port id="1" precision="FP16">
					<dim>1</dim>
					<dim>256</dim>
					<dim>1</dim>
					<dim>1</dim>
				</port>
			</input>
			<output>
				<port id="2" names="1005" precision="FP16">
					<dim>1</dim>
					<dim>256</dim>
					<dim>17</dim>
					<dim>30</dim>
				</port>
			</output>
		</layer>
		<layer id="202" name="Constant_160" type="Const" version="opset1">
			<data element_type="f16" offset="982" shape="1, 1, 1, 1" size="2"/>
			<output>
				<port id="0" names="468" precision="FP16">
					<dim>1</dim>
					<dim>1</dim>
					<dim>1</dim>
					<dim>1</dim>
				</port>
			</output>
		</layer>
		<layer id="203" name="Add_161" type="Add" version="opset1">
			<data auto_broadcast="numpy"/>
			<input>
				<port id="0" precision="FP16">
					<dim>1</dim>
					<dim>256</dim>
					<dim>17</dim>
					<dim>30</dim>
				</port>
				<port id="1" precision="FP16">
					<dim>1</dim>
					<dim>1</dim>
					<dim>1</dim>
					<dim>1</dim>
				</port>
			</input>
			<output>
				<port id="2" names="469" precision="FP16">
					<dim>1</dim>
					<dim>256</dim>
					<dim>17</dim>
					<dim>30</dim>
				</port>
			</output>
		</layer>
		<layer id="204" name="Clip_164" type="Clamp" version="opset1">
			<data max="6" min="0"/>
			<input>
				<port id="0" precision="FP16">
					<dim>1</dim>
					<dim>256</dim>
					<dim>17</dim>
					<dim>30</dim>
				</port>
			</input>
			<output>
				<port id="1" names="472" precision="FP16">
					<dim>1</dim>
					<dim>256</dim>
					<dim>17</dim>
					<dim>30</dim>
				</port>
			</output>
		</layer>
		<layer id="205" name="Constant_165" type="Const" version="opset1">
			<data element_type="f16" offset="984" shape="1, 1, 1, 1" size="2"/>
			<output>
				<port id="0" names="473" precision="FP16">
					<dim>1</dim>
					<dim>1</dim>
					<dim>1</dim>
					<dim>1</dim>
				</port>
			</output>
		</layer>
		<layer id="206" name="Div_166" type="Multiply" version="opset1">
			<data auto_broadcast="numpy"/>
			<input>
				<port id="0" precision="FP16">
					<dim>1</dim>
					<dim>256</dim>
					<dim>17</dim>
					<dim>30</dim>
				</port>
				<port id="1" precision="FP16">
					<dim>1</dim>
					<dim>1</dim>
					<dim>1</dim>
					<dim>1</dim>
				</port>
			</input>
			<output>
				<port id="2" names="474" precision="FP16">
					<dim>1</dim>
					<dim>256</dim>
					<dim>17</dim>
					<dim>30</dim>
				</port>
			</output>
		</layer>
		<layer id="207" name="Mul_167" type="Multiply" version="opset1">
			<data auto_broadcast="numpy"/>
			<input>
				<port id="0" precision="FP16">
					<dim>1</dim>
					<dim>256</dim>
					<dim>17</dim>
					<dim>30</dim>
				</port>
				<port id="1" precision="FP16">
					<dim>1</dim>
					<dim>256</dim>
					<dim>17</dim>
					<dim>30</dim>
				</port>
			</input>
			<output>
				<port id="2" names="475" precision="FP16">
					<dim>1</dim>
					<dim>256</dim>
					<dim>17</dim>
					<dim>30</dim>
				</port>
			</output>
		</layer>
		<layer id="208" name="1009" type="Const" version="opset1">
			<data element_type="f16" offset="442074" shape="256, 256, 1, 1" size="131072"/>
			<output>
				<port id="0" names="1009" precision="FP16">
					<dim>256</dim>
					<dim>256</dim>
					<dim>1</dim>
					<dim>1</dim>
				</port>
			</output>
		</layer>
		<layer id="209" name="Conv_168/WithoutBiases" type="Convolution" version="opset1">
			<data auto_pad="explicit" dilations="1, 1" pads_begin="0, 0" pads_end="0, 0" strides="1, 1"/>
			<input>
				<port id="0" precision="FP16">
					<dim>1</dim>
					<dim>256</dim>
					<dim>17</dim>
					<dim>30</dim>
				</port>
				<port id="1" precision="FP16">
					<dim>256</dim>
					<dim>256</dim>
					<dim>1</dim>
					<dim>1</dim>
				</port>
			</input>
			<output>
				<port id="2" precision="FP16">
					<dim>1</dim>
					<dim>256</dim>
					<dim>17</dim>
					<dim>30</dim>
				</port>
			</output>
		</layer>
		<layer id="210" name="Conv_168/Dims7687" type="Const" version="opset1">
			<data element_type="f16" offset="573146" shape="1, 256, 1, 1" size="512"/>
			<output>
				<port id="0" precision="FP16">
					<dim>1</dim>
					<dim>256</dim>
					<dim>1</dim>
					<dim>1</dim>
				</port>
			</output>
		</layer>
		<layer id="211" name="Conv_168" type="Add" version="opset1">
			<data auto_broadcast="numpy"/>
			<input>
				<port id="0" precision="FP16">
					<dim>1</dim>
					<dim>256</dim>
					<dim>17</dim>
					<dim>30</dim>
				</port>
				<port id="1" precision="FP16">
					<dim>1</dim>
					<dim>256</dim>
					<dim>1</dim>
					<dim>1</dim>
				</port>
			</input>
			<output>
				<port id="2" names="1008" precision="FP16">
					<dim>1</dim>
					<dim>256</dim>
					<dim>17</dim>
					<dim>30</dim>
				</port>
			</output>
		</layer>
		<layer id="212" name="Constant_169" type="Const" version="opset1">
			<data element_type="f16" offset="982" shape="1, 1, 1, 1" size="2"/>
			<output>
				<port id="0" names="478" precision="FP16">
					<dim>1</dim>
					<dim>1</dim>
					<dim>1</dim>
					<dim>1</dim>
				</port>
			</output>
		</layer>
		<layer id="213" name="Add_170" type="Add" version="opset1">
			<data auto_broadcast="numpy"/>
			<input>
				<port id="0" precision="FP16">
					<dim>1</dim>
					<dim>256</dim>
					<dim>17</dim>
					<dim>30</dim>
				</port>
				<port id="1" precision="FP16">
					<dim>1</dim>
					<dim>1</dim>
					<dim>1</dim>
					<dim>1</dim>
				</port>
			</input>
			<output>
				<port id="2" names="479" precision="FP16">
					<dim>1</dim>
					<dim>256</dim>
					<dim>17</dim>
					<dim>30</dim>
				</port>
			</output>
		</layer>
		<layer id="214" name="Clip_173" type="Clamp" version="opset1">
			<data max="6" min="0"/>
			<input>
				<port id="0" precision="FP16">
					<dim>1</dim>
					<dim>256</dim>
					<dim>17</dim>
					<dim>30</dim>
				</port>
			</input>
			<output>
				<port id="1" names="482" precision="FP16">
					<dim>1</dim>
					<dim>256</dim>
					<dim>17</dim>
					<dim>30</dim>
				</port>
			</output>
		</layer>
		<layer id="215" name="Constant_174" type="Const" version="opset1">
			<data element_type="f16" offset="984" shape="1, 1, 1, 1" size="2"/>
			<output>
				<port id="0" names="483" precision="FP16">
					<dim>1</dim>
					<dim>1</dim>
					<dim>1</dim>
					<dim>1</dim>
				</port>
			</output>
		</layer>
		<layer id="216" name="Div_175" type="Multiply" version="opset1">
			<data auto_broadcast="numpy"/>
			<input>
				<port id="0" precision="FP16">
					<dim>1</dim>
					<dim>256</dim>
					<dim>17</dim>
					<dim>30</dim>
				</port>
				<port id="1" precision="FP16">
					<dim>1</dim>
					<dim>1</dim>
					<dim>1</dim>
					<dim>1</dim>
				</port>
			</input>
			<output>
				<port id="2" names="484" precision="FP16">
					<dim>1</dim>
					<dim>256</dim>
					<dim>17</dim>
					<dim>30</dim>
				</port>
			</output>
		</layer>
		<layer id="217" name="Mul_176" type="Multiply" version="opset1">
			<data auto_broadcast="numpy"/>
			<input>
				<port id="0" precision="FP16">
					<dim>1</dim>
					<dim>256</dim>
					<dim>17</dim>
					<dim>30</dim>
				</port>
				<port id="1" precision="FP16">
					<dim>1</dim>
					<dim>256</dim>
					<dim>17</dim>
					<dim>30</dim>
				</port>
			</input>
			<output>
				<port id="2" names="485" precision="FP16">
					<dim>1</dim>
					<dim>256</dim>
					<dim>17</dim>
					<dim>30</dim>
				</port>
			</output>
		</layer>
		<layer id="218" name="1012" type="Const" version="opset1">
			<data element_type="f16" offset="573658" shape="256, 1, 1, 5, 5" size="12800"/>
			<output>
				<port id="0" names="1012" precision="FP16">
					<dim>256</dim>
					<dim>1</dim>
					<dim>1</dim>
					<dim>5</dim>
					<dim>5</dim>
				</port>
			</output>
		</layer>
		<layer id="219" name="Conv_177/WithoutBiases" type="GroupConvolution" version="opset1">
			<data auto_pad="explicit" dilations="1, 1" pads_begin="2, 2" pads_end="2, 2" strides="1, 1"/>
			<input>
				<port id="0" precision="FP16">
					<dim>1</dim>
					<dim>256</dim>
					<dim>17</dim>
					<dim>30</dim>
				</port>
				<port id="1" precision="FP16">
					<dim>256</dim>
					<dim>1</dim>
					<dim>1</dim>
					<dim>5</dim>
					<dim>5</dim>
				</port>
			</input>
			<output>
				<port id="2" precision="FP16">
					<dim>1</dim>
					<dim>256</dim>
					<dim>17</dim>
					<dim>30</dim>
				</port>
			</output>
		</layer>
		<layer id="220" name="Conv_177/Dims7825" type="Const" version="opset1">
			<data element_type="f16" offset="586458" shape="1, 256, 1, 1" size="512"/>
			<output>
				<port id="0" precision="FP16">
					<dim>1</dim>
					<dim>256</dim>
					<dim>1</dim>
					<dim>1</dim>
				</port>
			</output>
		</layer>
		<layer id="221" name="Conv_177" type="Add" version="opset1">
			<data auto_broadcast="numpy"/>
			<input>
				<port id="0" precision="FP16">
					<dim>1</dim>
					<dim>256</dim>
					<dim>17</dim>
					<dim>30</dim>
				</port>
				<port id="1" precision="FP16">
					<dim>1</dim>
					<dim>256</dim>
					<dim>1</dim>
					<dim>1</dim>
				</port>
			</input>
			<output>
				<port id="2" names="1011" precision="FP16">
					<dim>1</dim>
					<dim>256</dim>
					<dim>17</dim>
					<dim>30</dim>
				</port>
			</output>
		</layer>
		<layer id="222" name="Constant_178" type="Const" version="opset1">
			<data element_type="f16" offset="982" shape="1, 1, 1, 1" size="2"/>
			<output>
				<port id="0" names="488" precision="FP16">
					<dim>1</dim>
					<dim>1</dim>
					<dim>1</dim>
					<dim>1</dim>
				</port>
			</output>
		</layer>
		<layer id="223" name="Add_179" type="Add" version="opset1">
			<data auto_broadcast="numpy"/>
			<input>
				<port id="0" precision="FP16">
					<dim>1</dim>
					<dim>256</dim>
					<dim>17</dim>
					<dim>30</dim>
				</port>
				<port id="1" precision="FP16">
					<dim>1</dim>
					<dim>1</dim>
					<dim>1</dim>
					<dim>1</dim>
				</port>
			</input>
			<output>
				<port id="2" names="489" precision="FP16">
					<dim>1</dim>
					<dim>256</dim>
					<dim>17</dim>
					<dim>30</dim>
				</port>
			</output>
		</layer>
		<layer id="224" name="Clip_182" type="Clamp" version="opset1">
			<data max="6" min="0"/>
			<input>
				<port id="0" precision="FP16">
					<dim>1</dim>
					<dim>256</dim>
					<dim>17</dim>
					<dim>30</dim>
				</port>
			</input>
			<output>
				<port id="1" names="492" precision="FP16">
					<dim>1</dim>
					<dim>256</dim>
					<dim>17</dim>
					<dim>30</dim>
				</port>
			</output>
		</layer>
		<layer id="225" name="Constant_183" type="Const" version="opset1">
			<data element_type="f16" offset="984" shape="1, 1, 1, 1" size="2"/>
			<output>
				<port id="0" names="493" precision="FP16">
					<dim>1</dim>
					<dim>1</dim>
					<dim>1</dim>
					<dim>1</dim>
				</port>
			</output>
		</layer>
		<layer id="226" name="Div_184" type="Multiply" version="opset1">
			<data auto_broadcast="numpy"/>
			<input>
				<port id="0" precision="FP16">
					<dim>1</dim>
					<dim>256</dim>
					<dim>17</dim>
					<dim>30</dim>
				</port>
				<port id="1" precision="FP16">
					<dim>1</dim>
					<dim>1</dim>
					<dim>1</dim>
					<dim>1</dim>
				</port>
			</input>
			<output>
				<port id="2" names="494" precision="FP16">
					<dim>1</dim>
					<dim>256</dim>
					<dim>17</dim>
					<dim>30</dim>
				</port>
			</output>
		</layer>
		<layer id="227" name="Mul_185" type="Multiply" version="opset1">
			<data auto_broadcast="numpy"/>
			<input>
				<port id="0" precision="FP16">
					<dim>1</dim>
					<dim>256</dim>
					<dim>17</dim>
					<dim>30</dim>
				</port>
				<port id="1" precision="FP16">
					<dim>1</dim>
					<dim>256</dim>
					<dim>17</dim>
					<dim>30</dim>
				</port>
			</input>
			<output>
				<port id="2" names="495" precision="FP16">
					<dim>1</dim>
					<dim>256</dim>
					<dim>17</dim>
					<dim>30</dim>
				</port>
			</output>
		</layer>
		<layer id="228" name="1015" type="Const" version="opset1">
			<data element_type="f16" offset="586970" shape="256, 256, 1, 1" size="131072"/>
			<output>
				<port id="0" names="1015" precision="FP16">
					<dim>256</dim>
					<dim>256</dim>
					<dim>1</dim>
					<dim>1</dim>
				</port>
			</output>
		</layer>
		<layer id="229" name="Conv_186/WithoutBiases" type="Convolution" version="opset1">
			<data auto_pad="explicit" dilations="1, 1" pads_begin="0, 0" pads_end="0, 0" strides="1, 1"/>
			<input>
				<port id="0" precision="FP16">
					<dim>1</dim>
					<dim>256</dim>
					<dim>17</dim>
					<dim>30</dim>
				</port>
				<port id="1" precision="FP16">
					<dim>256</dim>
					<dim>256</dim>
					<dim>1</dim>
					<dim>1</dim>
				</port>
			</input>
			<output>
				<port id="2" precision="FP16">
					<dim>1</dim>
					<dim>256</dim>
					<dim>17</dim>
					<dim>30</dim>
				</port>
			</output>
		</layer>
		<layer id="230" name="Conv_186/Dims7693" type="Const" version="opset1">
			<data element_type="f16" offset="718042" shape="1, 256, 1, 1" size="512"/>
			<output>
				<port id="0" precision="FP16">
					<dim>1</dim>
					<dim>256</dim>
					<dim>1</dim>
					<dim>1</dim>
				</port>
			</output>
		</layer>
		<layer id="231" name="Conv_186" type="Add" version="opset1">
			<data auto_broadcast="numpy"/>
			<input>
				<port id="0" precision="FP16">
					<dim>1</dim>
					<dim>256</dim>
					<dim>17</dim>
					<dim>30</dim>
				</port>
				<port id="1" precision="FP16">
					<dim>1</dim>
					<dim>256</dim>
					<dim>1</dim>
					<dim>1</dim>
				</port>
			</input>
			<output>
				<port id="2" names="1014" precision="FP16">
					<dim>1</dim>
					<dim>256</dim>
					<dim>17</dim>
					<dim>30</dim>
				</port>
			</output>
		</layer>
		<layer id="232" name="Constant_187" type="Const" version="opset1">
			<data element_type="f16" offset="982" shape="1, 1, 1, 1" size="2"/>
			<output>
				<port id="0" names="498" precision="FP16">
					<dim>1</dim>
					<dim>1</dim>
					<dim>1</dim>
					<dim>1</dim>
				</port>
			</output>
		</layer>
		<layer id="233" name="Add_188" type="Add" version="opset1">
			<data auto_broadcast="numpy"/>
			<input>
				<port id="0" precision="FP16">
					<dim>1</dim>
					<dim>256</dim>
					<dim>17</dim>
					<dim>30</dim>
				</port>
				<port id="1" precision="FP16">
					<dim>1</dim>
					<dim>1</dim>
					<dim>1</dim>
					<dim>1</dim>
				</port>
			</input>
			<output>
				<port id="2" names="499" precision="FP16">
					<dim>1</dim>
					<dim>256</dim>
					<dim>17</dim>
					<dim>30</dim>
				</port>
			</output>
		</layer>
		<layer id="234" name="Clip_191" type="Clamp" version="opset1">
			<data max="6" min="0"/>
			<input>
				<port id="0" precision="FP16">
					<dim>1</dim>
					<dim>256</dim>
					<dim>17</dim>
					<dim>30</dim>
				</port>
			</input>
			<output>
				<port id="1" names="502" precision="FP16">
					<dim>1</dim>
					<dim>256</dim>
					<dim>17</dim>
					<dim>30</dim>
				</port>
			</output>
		</layer>
		<layer id="235" name="Constant_192" type="Const" version="opset1">
			<data element_type="f16" offset="984" shape="1, 1, 1, 1" size="2"/>
			<output>
				<port id="0" names="503" precision="FP16">
					<dim>1</dim>
					<dim>1</dim>
					<dim>1</dim>
					<dim>1</dim>
				</port>
			</output>
		</layer>
		<layer id="236" name="Div_193" type="Multiply" version="opset1">
			<data auto_broadcast="numpy"/>
			<input>
				<port id="0" precision="FP16">
					<dim>1</dim>
					<dim>256</dim>
					<dim>17</dim>
					<dim>30</dim>
				</port>
				<port id="1" precision="FP16">
					<dim>1</dim>
					<dim>1</dim>
					<dim>1</dim>
					<dim>1</dim>
				</port>
			</input>
			<output>
				<port id="2" names="504" precision="FP16">
					<dim>1</dim>
					<dim>256</dim>
					<dim>17</dim>
					<dim>30</dim>
				</port>
			</output>
		</layer>
		<layer id="237" name="Mul_194" type="Multiply" version="opset1">
			<data auto_broadcast="numpy"/>
			<input>
				<port id="0" precision="FP16">
					<dim>1</dim>
					<dim>256</dim>
					<dim>17</dim>
					<dim>30</dim>
				</port>
				<port id="1" precision="FP16">
					<dim>1</dim>
					<dim>256</dim>
					<dim>17</dim>
					<dim>30</dim>
				</port>
			</input>
			<output>
				<port id="2" names="505" precision="FP16">
					<dim>1</dim>
					<dim>256</dim>
					<dim>17</dim>
					<dim>30</dim>
				</port>
			</output>
		</layer>
		<layer id="238" name="1018" type="Const" version="opset1">
			<data element_type="f16" offset="718554" shape="256, 1, 1, 5, 5" size="12800"/>
			<output>
				<port id="0" names="1018" precision="FP16">
					<dim>256</dim>
					<dim>1</dim>
					<dim>1</dim>
					<dim>5</dim>
					<dim>5</dim>
				</port>
			</output>
		</layer>
		<layer id="239" name="Conv_195/WithoutBiases" type="GroupConvolution" version="opset1">
			<data auto_pad="explicit" dilations="1, 1" pads_begin="2, 2" pads_end="2, 2" strides="1, 1"/>
			<input>
				<port id="0" precision="FP16">
					<dim>1</dim>
					<dim>256</dim>
					<dim>17</dim>
					<dim>30</dim>
				</port>
				<port id="1" precision="FP16">
					<dim>256</dim>
					<dim>1</dim>
					<dim>1</dim>
					<dim>5</dim>
					<dim>5</dim>
				</port>
			</input>
			<output>
				<port id="2" precision="FP16">
					<dim>1</dim>
					<dim>256</dim>
					<dim>17</dim>
					<dim>30</dim>
				</port>
			</output>
		</layer>
		<layer id="240" name="Conv_195/Dims7669" type="Const" version="opset1">
			<data element_type="f16" offset="731354" shape="1, 256, 1, 1" size="512"/>
			<output>
				<port id="0" precision="FP16">
					<dim>1</dim>
					<dim>256</dim>
					<dim>1</dim>
					<dim>1</dim>
				</port>
			</output>
		</layer>
		<layer id="241" name="Conv_195" type="Add" version="opset1">
			<data auto_broadcast="numpy"/>
			<input>
				<port id="0" precision="FP16">
					<dim>1</dim>
					<dim>256</dim>
					<dim>17</dim>
					<dim>30</dim>
				</port>
				<port id="1" precision="FP16">
					<dim>1</dim>
					<dim>256</dim>
					<dim>1</dim>
					<dim>1</dim>
				</port>
			</input>
			<output>
				<port id="2" names="1017" precision="FP16">
					<dim>1</dim>
					<dim>256</dim>
					<dim>17</dim>
					<dim>30</dim>
				</port>
			</output>
		</layer>
		<layer id="242" name="Constant_196" type="Const" version="opset1">
			<data element_type="f16" offset="982" shape="1, 1, 1, 1" size="2"/>
			<output>
				<port id="0" names="508" precision="FP16">
					<dim>1</dim>
					<dim>1</dim>
					<dim>1</dim>
					<dim>1</dim>
				</port>
			</output>
		</layer>
		<layer id="243" name="Add_197" type="Add" version="opset1">
			<data auto_broadcast="numpy"/>
			<input>
				<port id="0" precision="FP16">
					<dim>1</dim>
					<dim>256</dim>
					<dim>17</dim>
					<dim>30</dim>
				</port>
				<port id="1" precision="FP16">
					<dim>1</dim>
					<dim>1</dim>
					<dim>1</dim>
					<dim>1</dim>
				</port>
			</input>
			<output>
				<port id="2" names="509" precision="FP16">
					<dim>1</dim>
					<dim>256</dim>
					<dim>17</dim>
					<dim>30</dim>
				</port>
			</output>
		</layer>
		<layer id="244" name="Clip_200" type="Clamp" version="opset1">
			<data max="6" min="0"/>
			<input>
				<port id="0" precision="FP16">
					<dim>1</dim>
					<dim>256</dim>
					<dim>17</dim>
					<dim>30</dim>
				</port>
			</input>
			<output>
				<port id="1" names="512" precision="FP16">
					<dim>1</dim>
					<dim>256</dim>
					<dim>17</dim>
					<dim>30</dim>
				</port>
			</output>
		</layer>
		<layer id="245" name="Constant_201" type="Const" version="opset1">
			<data element_type="f16" offset="984" shape="1, 1, 1, 1" size="2"/>
			<output>
				<port id="0" names="513" precision="FP16">
					<dim>1</dim>
					<dim>1</dim>
					<dim>1</dim>
					<dim>1</dim>
				</port>
			</output>
		</layer>
		<layer id="246" name="Div_202" type="Multiply" version="opset1">
			<data auto_broadcast="numpy"/>
			<input>
				<port id="0" precision="FP16">
					<dim>1</dim>
					<dim>256</dim>
					<dim>17</dim>
					<dim>30</dim>
				</port>
				<port id="1" precision="FP16">
					<dim>1</dim>
					<dim>1</dim>
					<dim>1</dim>
					<dim>1</dim>
				</port>
			</input>
			<output>
				<port id="2" names="514" precision="FP16">
					<dim>1</dim>
					<dim>256</dim>
					<dim>17</dim>
					<dim>30</dim>
				</port>
			</output>
		</layer>
		<layer id="247" name="Mul_203" type="Multiply" version="opset1">
			<data auto_broadcast="numpy"/>
			<input>
				<port id="0" precision="FP16">
					<dim>1</dim>
					<dim>256</dim>
					<dim>17</dim>
					<dim>30</dim>
				</port>
				<port id="1" precision="FP16">
					<dim>1</dim>
					<dim>256</dim>
					<dim>17</dim>
					<dim>30</dim>
				</port>
			</input>
			<output>
				<port id="2" names="515" precision="FP16">
					<dim>1</dim>
					<dim>256</dim>
					<dim>17</dim>
					<dim>30</dim>
				</port>
			</output>
		</layer>
		<layer id="248" name="1021" type="Const" version="opset1">
			<data element_type="f16" offset="731866" shape="256, 256, 1, 1" size="131072"/>
			<output>
				<port id="0" names="1021" precision="FP16">
					<dim>256</dim>
					<dim>256</dim>
					<dim>1</dim>
					<dim>1</dim>
				</port>
			</output>
		</layer>
		<layer id="249" name="Conv_204/WithoutBiases" type="Convolution" version="opset1">
			<data auto_pad="explicit" dilations="1, 1" pads_begin="0, 0" pads_end="0, 0" strides="1, 1"/>
			<input>
				<port id="0" precision="FP16">
					<dim>1</dim>
					<dim>256</dim>
					<dim>17</dim>
					<dim>30</dim>
				</port>
				<port id="1" precision="FP16">
					<dim>256</dim>
					<dim>256</dim>
					<dim>1</dim>
					<dim>1</dim>
				</port>
			</input>
			<output>
				<port id="2" precision="FP16">
					<dim>1</dim>
					<dim>256</dim>
					<dim>17</dim>
					<dim>30</dim>
				</port>
			</output>
		</layer>
		<layer id="250" name="Conv_204/Dims7741" type="Const" version="opset1">
			<data element_type="f16" offset="862938" shape="1, 256, 1, 1" size="512"/>
			<output>
				<port id="0" precision="FP16">
					<dim>1</dim>
					<dim>256</dim>
					<dim>1</dim>
					<dim>1</dim>
				</port>
			</output>
		</layer>
		<layer id="251" name="Conv_204" type="Add" version="opset1">
			<data auto_broadcast="numpy"/>
			<input>
				<port id="0" precision="FP16">
					<dim>1</dim>
					<dim>256</dim>
					<dim>17</dim>
					<dim>30</dim>
				</port>
				<port id="1" precision="FP16">
					<dim>1</dim>
					<dim>256</dim>
					<dim>1</dim>
					<dim>1</dim>
				</port>
			</input>
			<output>
				<port id="2" names="1020" precision="FP16">
					<dim>1</dim>
					<dim>256</dim>
					<dim>17</dim>
					<dim>30</dim>
				</port>
			</output>
		</layer>
		<layer id="252" name="Constant_205" type="Const" version="opset1">
			<data element_type="f16" offset="982" shape="1, 1, 1, 1" size="2"/>
			<output>
				<port id="0" names="518" precision="FP16">
					<dim>1</dim>
					<dim>1</dim>
					<dim>1</dim>
					<dim>1</dim>
				</port>
			</output>
		</layer>
		<layer id="253" name="Add_206" type="Add" version="opset1">
			<data auto_broadcast="numpy"/>
			<input>
				<port id="0" precision="FP16">
					<dim>1</dim>
					<dim>256</dim>
					<dim>17</dim>
					<dim>30</dim>
				</port>
				<port id="1" precision="FP16">
					<dim>1</dim>
					<dim>1</dim>
					<dim>1</dim>
					<dim>1</dim>
				</port>
			</input>
			<output>
				<port id="2" names="519" precision="FP16">
					<dim>1</dim>
					<dim>256</dim>
					<dim>17</dim>
					<dim>30</dim>
				</port>
			</output>
		</layer>
		<layer id="254" name="Clip_209" type="Clamp" version="opset1">
			<data max="6" min="0"/>
			<input>
				<port id="0" precision="FP16">
					<dim>1</dim>
					<dim>256</dim>
					<dim>17</dim>
					<dim>30</dim>
				</port>
			</input>
			<output>
				<port id="1" names="522" precision="FP16">
					<dim>1</dim>
					<dim>256</dim>
					<dim>17</dim>
					<dim>30</dim>
				</port>
			</output>
		</layer>
		<layer id="255" name="Constant_210" type="Const" version="opset1">
			<data element_type="f16" offset="984" shape="1, 1, 1, 1" size="2"/>
			<output>
				<port id="0" names="523" precision="FP16">
					<dim>1</dim>
					<dim>1</dim>
					<dim>1</dim>
					<dim>1</dim>
				</port>
			</output>
		</layer>
		<layer id="256" name="Div_211" type="Multiply" version="opset1">
			<data auto_broadcast="numpy"/>
			<input>
				<port id="0" precision="FP16">
					<dim>1</dim>
					<dim>256</dim>
					<dim>17</dim>
					<dim>30</dim>
				</port>
				<port id="1" precision="FP16">
					<dim>1</dim>
					<dim>1</dim>
					<dim>1</dim>
					<dim>1</dim>
				</port>
			</input>
			<output>
				<port id="2" names="524" precision="FP16">
					<dim>1</dim>
					<dim>256</dim>
					<dim>17</dim>
					<dim>30</dim>
				</port>
			</output>
		</layer>
		<layer id="257" name="Mul_212" type="Multiply" version="opset1">
			<data auto_broadcast="numpy"/>
			<input>
				<port id="0" precision="FP16">
					<dim>1</dim>
					<dim>256</dim>
					<dim>17</dim>
					<dim>30</dim>
				</port>
				<port id="1" precision="FP16">
					<dim>1</dim>
					<dim>256</dim>
					<dim>17</dim>
					<dim>30</dim>
				</port>
			</input>
			<output>
				<port id="2" names="525" precision="FP16">
					<dim>1</dim>
					<dim>256</dim>
					<dim>17</dim>
					<dim>30</dim>
				</port>
			</output>
		</layer>
		<layer id="258" name="1024" type="Const" version="opset1">
			<data element_type="f16" offset="863450" shape="256, 1, 1, 5, 5" size="12800"/>
			<output>
				<port id="0" names="1024" precision="FP16">
					<dim>256</dim>
					<dim>1</dim>
					<dim>1</dim>
					<dim>5</dim>
					<dim>5</dim>
				</port>
			</output>
		</layer>
		<layer id="259" name="Conv_213/WithoutBiases" type="GroupConvolution" version="opset1">
			<data auto_pad="explicit" dilations="1, 1" pads_begin="2, 2" pads_end="2, 2" strides="1, 1"/>
			<input>
				<port id="0" precision="FP16">
					<dim>1</dim>
					<dim>256</dim>
					<dim>17</dim>
					<dim>30</dim>
				</port>
				<port id="1" precision="FP16">
					<dim>256</dim>
					<dim>1</dim>
					<dim>1</dim>
					<dim>5</dim>
					<dim>5</dim>
				</port>
			</input>
			<output>
				<port id="2" precision="FP16">
					<dim>1</dim>
					<dim>256</dim>
					<dim>17</dim>
					<dim>30</dim>
				</port>
			</output>
		</layer>
		<layer id="260" name="Conv_213/Dims7735" type="Const" version="opset1">
			<data element_type="f16" offset="876250" shape="1, 256, 1, 1" size="512"/>
			<output>
				<port id="0" precision="FP16">
					<dim>1</dim>
					<dim>256</dim>
					<dim>1</dim>
					<dim>1</dim>
				</port>
			</output>
		</layer>
		<layer id="261" name="Conv_213" type="Add" version="opset1">
			<data auto_broadcast="numpy"/>
			<input>
				<port id="0" precision="FP16">
					<dim>1</dim>
					<dim>256</dim>
					<dim>17</dim>
					<dim>30</dim>
				</port>
				<port id="1" precision="FP16">
					<dim>1</dim>
					<dim>256</dim>
					<dim>1</dim>
					<dim>1</dim>
				</port>
			</input>
			<output>
				<port id="2" names="1023" precision="FP16">
					<dim>1</dim>
					<dim>256</dim>
					<dim>17</dim>
					<dim>30</dim>
				</port>
			</output>
		</layer>
		<layer id="262" name="Constant_214" type="Const" version="opset1">
			<data element_type="f16" offset="982" shape="1, 1, 1, 1" size="2"/>
			<output>
				<port id="0" names="528" precision="FP16">
					<dim>1</dim>
					<dim>1</dim>
					<dim>1</dim>
					<dim>1</dim>
				</port>
			</output>
		</layer>
		<layer id="263" name="Add_215" type="Add" version="opset1">
			<data auto_broadcast="numpy"/>
			<input>
				<port id="0" precision="FP16">
					<dim>1</dim>
					<dim>256</dim>
					<dim>17</dim>
					<dim>30</dim>
				</port>
				<port id="1" precision="FP16">
					<dim>1</dim>
					<dim>1</dim>
					<dim>1</dim>
					<dim>1</dim>
				</port>
			</input>
			<output>
				<port id="2" names="529" precision="FP16">
					<dim>1</dim>
					<dim>256</dim>
					<dim>17</dim>
					<dim>30</dim>
				</port>
			</output>
		</layer>
		<layer id="264" name="Clip_218" type="Clamp" version="opset1">
			<data max="6" min="0"/>
			<input>
				<port id="0" precision="FP16">
					<dim>1</dim>
					<dim>256</dim>
					<dim>17</dim>
					<dim>30</dim>
				</port>
			</input>
			<output>
				<port id="1" names="532" precision="FP16">
					<dim>1</dim>
					<dim>256</dim>
					<dim>17</dim>
					<dim>30</dim>
				</port>
			</output>
		</layer>
		<layer id="265" name="Constant_219" type="Const" version="opset1">
			<data element_type="f16" offset="984" shape="1, 1, 1, 1" size="2"/>
			<output>
				<port id="0" names="533" precision="FP16">
					<dim>1</dim>
					<dim>1</dim>
					<dim>1</dim>
					<dim>1</dim>
				</port>
			</output>
		</layer>
		<layer id="266" name="Div_220" type="Multiply" version="opset1">
			<data auto_broadcast="numpy"/>
			<input>
				<port id="0" precision="FP16">
					<dim>1</dim>
					<dim>256</dim>
					<dim>17</dim>
					<dim>30</dim>
				</port>
				<port id="1" precision="FP16">
					<dim>1</dim>
					<dim>1</dim>
					<dim>1</dim>
					<dim>1</dim>
				</port>
			</input>
			<output>
				<port id="2" names="534" precision="FP16">
					<dim>1</dim>
					<dim>256</dim>
					<dim>17</dim>
					<dim>30</dim>
				</port>
			</output>
		</layer>
		<layer id="267" name="Mul_221" type="Multiply" version="opset1">
			<data auto_broadcast="numpy"/>
			<input>
				<port id="0" precision="FP16">
					<dim>1</dim>
					<dim>256</dim>
					<dim>17</dim>
					<dim>30</dim>
				</port>
				<port id="1" precision="FP16">
					<dim>1</dim>
					<dim>256</dim>
					<dim>17</dim>
					<dim>30</dim>
				</port>
			</input>
			<output>
				<port id="2" names="535" precision="FP16">
					<dim>1</dim>
					<dim>256</dim>
					<dim>17</dim>
					<dim>30</dim>
				</port>
			</output>
		</layer>
		<layer id="268" name="771" type="Const" version="opset1">
			<data element_type="i64" offset="34" shape="" size="8"/>
			<output>
				<port id="0" precision="I64"/>
			</output>
		</layer>
		<layer id="269" name="GlobalAveragePool_222/input_rank/shape_of" type="ShapeOf" version="opset3">
			<data output_type="i64"/>
			<input>
				<port id="0" precision="FP16">
					<dim>1</dim>
					<dim>256</dim>
					<dim>17</dim>
					<dim>30</dim>
				</port>
			</input>
			<output>
				<port id="1" precision="I64">
					<dim>4</dim>
				</port>
			</output>
		</layer>
		<layer id="270" name="GlobalAveragePool_222/input_rank/rank_of" type="ShapeOf" version="opset3">
			<data output_type="i64"/>
			<input>
				<port id="0" precision="I64">
					<dim>4</dim>
				</port>
			</input>
			<output>
				<port id="1" precision="I64">
					<dim>1</dim>
				</port>
			</output>
		</layer>
		<layer id="271" name="GlobalAveragePool_222/input_rank/0d_rank_of/value" type="Const" version="opset1">
			<data element_type="i64" offset="876762" shape="1" size="8"/>
			<output>
				<port id="0" precision="I64">
					<dim>1</dim>
				</port>
			</output>
		</layer>
		<layer id="272" name="GlobalAveragePool_222/input_rank" type="Squeeze" version="opset1">
			<input>
				<port id="0" precision="I64">
					<dim>1</dim>
				</port>
				<port id="1" precision="I64">
					<dim>1</dim>
				</port>
			</input>
			<output>
				<port id="2" precision="I64"/>
			</output>
		</layer>
		<layer id="273" name="773" type="Const" version="opset1">
			<data element_type="i64" offset="0" shape="" size="8"/>
			<output>
				<port id="0" precision="I64"/>
			</output>
		</layer>
		<layer id="274" name="GlobalAveragePool_222/global_pooling_reduce_axis" type="Range" version="opset4">
			<data output_type="i64"/>
			<input>
				<port id="0" precision="I64"/>
				<port id="1" precision="I64"/>
				<port id="2" precision="I64"/>
			</input>
			<output>
				<port id="3" precision="I64">
					<dim>2</dim>
				</port>
			</output>
		</layer>
		<layer id="275" name="GlobalAveragePool_222/reduce" type="ReduceMean" version="opset1">
			<data keep_dims="true"/>
			<input>
				<port id="0" precision="FP16">
					<dim>1</dim>
					<dim>256</dim>
					<dim>17</dim>
					<dim>30</dim>
				</port>
				<port id="1" precision="I64">
					<dim>2</dim>
				</port>
			</input>
			<output>
				<port id="2" names="536" precision="FP16">
					<dim>1</dim>
					<dim>256</dim>
					<dim>1</dim>
					<dim>1</dim>
				</port>
			</output>
		</layer>
		<layer id="276" name="backbone.blocks6.0.se.conv1.weight" type="Const" version="opset1">
			<data element_type="f16" offset="876770" shape="64, 256, 1, 1" size="32768"/>
			<output>
				<port id="0" names="backbone.blocks6.0.se.conv1.weight" precision="FP16">
					<dim>64</dim>
					<dim>256</dim>
					<dim>1</dim>
					<dim>1</dim>
				</port>
			</output>
		</layer>
		<layer id="277" name="Conv_223/WithoutBiases" type="Convolution" version="opset1">
			<data auto_pad="explicit" dilations="1, 1" pads_begin="0, 0" pads_end="0, 0" strides="1, 1"/>
			<input>
				<port id="0" precision="FP16">
					<dim>1</dim>
					<dim>256</dim>
					<dim>1</dim>
					<dim>1</dim>
				</port>
				<port id="1" precision="FP16">
					<dim>64</dim>
					<dim>256</dim>
					<dim>1</dim>
					<dim>1</dim>
				</port>
			</input>
			<output>
				<port id="2" precision="FP16">
					<dim>1</dim>
					<dim>64</dim>
					<dim>1</dim>
					<dim>1</dim>
				</port>
			</output>
		</layer>
		<layer id="278" name="Conv_223/Dims7945" type="Const" version="opset1">
			<data element_type="f16" offset="909538" shape="1, 64, 1, 1" size="128"/>
			<output>
				<port id="0" precision="FP16">
					<dim>1</dim>
					<dim>64</dim>
					<dim>1</dim>
					<dim>1</dim>
				</port>
			</output>
		</layer>
		<layer id="279" name="Conv_223" type="Add" version="opset1">
			<data auto_broadcast="numpy"/>
			<input>
				<port id="0" precision="FP16">
					<dim>1</dim>
					<dim>64</dim>
					<dim>1</dim>
					<dim>1</dim>
				</port>
				<port id="1" precision="FP16">
					<dim>1</dim>
					<dim>64</dim>
					<dim>1</dim>
					<dim>1</dim>
				</port>
			</input>
			<output>
				<port id="2" names="537" precision="FP16">
					<dim>1</dim>
					<dim>64</dim>
					<dim>1</dim>
					<dim>1</dim>
				</port>
			</output>
		</layer>
		<layer id="280" name="Relu_224" type="ReLU" version="opset1">
			<input>
				<port id="0" precision="FP16">
					<dim>1</dim>
					<dim>64</dim>
					<dim>1</dim>
					<dim>1</dim>
				</port>
			</input>
			<output>
				<port id="1" names="538" precision="FP16">
					<dim>1</dim>
					<dim>64</dim>
					<dim>1</dim>
					<dim>1</dim>
				</port>
			</output>
		</layer>
		<layer id="281" name="backbone.blocks6.0.se.conv2.weight" type="Const" version="opset1">
			<data element_type="f16" offset="909666" shape="256, 64, 1, 1" size="32768"/>
			<output>
				<port id="0" names="backbone.blocks6.0.se.conv2.weight" precision="FP16">
					<dim>256</dim>
					<dim>64</dim>
					<dim>1</dim>
					<dim>1</dim>
				</port>
			</output>
		</layer>
		<layer id="282" name="Conv_225/WithoutBiases" type="Convolution" version="opset1">
			<data auto_pad="explicit" dilations="1, 1" pads_begin="0, 0" pads_end="0, 0" strides="1, 1"/>
			<input>
				<port id="0" precision="FP16">
					<dim>1</dim>
					<dim>64</dim>
					<dim>1</dim>
					<dim>1</dim>
				</port>
				<port id="1" precision="FP16">
					<dim>256</dim>
					<dim>64</dim>
					<dim>1</dim>
					<dim>1</dim>
				</port>
			</input>
			<output>
				<port id="2" precision="FP16">
					<dim>1</dim>
					<dim>256</dim>
					<dim>1</dim>
					<dim>1</dim>
				</port>
			</output>
		</layer>
		<layer id="283" name="Conv_225/Dims7921" type="Const" version="opset1">
			<data element_type="f16" offset="942434" shape="1, 256, 1, 1" size="512"/>
			<output>
				<port id="0" precision="FP16">
					<dim>1</dim>
					<dim>256</dim>
					<dim>1</dim>
					<dim>1</dim>
				</port>
			</output>
		</layer>
		<layer id="284" name="Conv_225" type="Add" version="opset1">
			<data auto_broadcast="numpy"/>
			<input>
				<port id="0" precision="FP16">
					<dim>1</dim>
					<dim>256</dim>
					<dim>1</dim>
					<dim>1</dim>
				</port>
				<port id="1" precision="FP16">
					<dim>1</dim>
					<dim>256</dim>
					<dim>1</dim>
					<dim>1</dim>
				</port>
			</input>
			<output>
				<port id="2" names="539" precision="FP16">
					<dim>1</dim>
					<dim>256</dim>
					<dim>1</dim>
					<dim>1</dim>
				</port>
			</output>
		</layer>
		<layer id="285" name="Mul_227" type="Swish" version="opset4">
			<input>
				<port id="0" precision="FP16">
					<dim>1</dim>
					<dim>256</dim>
					<dim>1</dim>
					<dim>1</dim>
				</port>
			</input>
			<output>
				<port id="1" names="541" precision="FP16">
					<dim>1</dim>
					<dim>256</dim>
					<dim>1</dim>
					<dim>1</dim>
				</port>
			</output>
		</layer>
		<layer id="286" name="Mul_228" type="Multiply" version="opset1">
			<data auto_broadcast="numpy"/>
			<input>
				<port id="0" precision="FP16">
					<dim>1</dim>
					<dim>256</dim>
					<dim>17</dim>
					<dim>30</dim>
				</port>
				<port id="1" precision="FP16">
					<dim>1</dim>
					<dim>256</dim>
					<dim>1</dim>
					<dim>1</dim>
				</port>
			</input>
			<output>
				<port id="2" names="542" precision="FP16">
					<dim>1</dim>
					<dim>256</dim>
					<dim>17</dim>
					<dim>30</dim>
				</port>
			</output>
		</layer>
		<layer id="287" name="1027" type="Const" version="opset1">
			<data element_type="f16" offset="942946" shape="512, 256, 1, 1" size="262144"/>
			<output>
				<port id="0" names="1027" precision="FP16">
					<dim>512</dim>
					<dim>256</dim>
					<dim>1</dim>
					<dim>1</dim>
				</port>
			</output>
		</layer>
		<layer id="288" name="Conv_229/WithoutBiases" type="Convolution" version="opset1">
			<data auto_pad="explicit" dilations="1, 1" pads_begin="0, 0" pads_end="0, 0" strides="1, 1"/>
			<input>
				<port id="0" precision="FP16">
					<dim>1</dim>
					<dim>256</dim>
					<dim>17</dim>
					<dim>30</dim>
				</port>
				<port id="1" precision="FP16">
					<dim>512</dim>
					<dim>256</dim>
					<dim>1</dim>
					<dim>1</dim>
				</port>
			</input>
			<output>
				<port id="2" precision="FP16">
					<dim>1</dim>
					<dim>512</dim>
					<dim>17</dim>
					<dim>30</dim>
				</port>
			</output>
		</layer>
		<layer id="289" name="Conv_229/Dims7681" type="Const" version="opset1">
			<data element_type="f16" offset="1205090" shape="1, 512, 1, 1" size="1024"/>
			<output>
				<port id="0" precision="FP16">
					<dim>1</dim>
					<dim>512</dim>
					<dim>1</dim>
					<dim>1</dim>
				</port>
			</output>
		</layer>
		<layer id="290" name="Conv_229" type="Add" version="opset1">
			<data auto_broadcast="numpy"/>
			<input>
				<port id="0" precision="FP16">
					<dim>1</dim>
					<dim>512</dim>
					<dim>17</dim>
					<dim>30</dim>
				</port>
				<port id="1" precision="FP16">
					<dim>1</dim>
					<dim>512</dim>
					<dim>1</dim>
					<dim>1</dim>
				</port>
			</input>
			<output>
				<port id="2" names="1026" precision="FP16">
					<dim>1</dim>
					<dim>512</dim>
					<dim>17</dim>
					<dim>30</dim>
				</port>
			</output>
		</layer>
		<layer id="291" name="Constant_230" type="Const" version="opset1">
			<data element_type="f16" offset="982" shape="1, 1, 1, 1" size="2"/>
			<output>
				<port id="0" names="545" precision="FP16">
					<dim>1</dim>
					<dim>1</dim>
					<dim>1</dim>
					<dim>1</dim>
				</port>
			</output>
		</layer>
		<layer id="292" name="Add_231" type="Add" version="opset1">
			<data auto_broadcast="numpy"/>
			<input>
				<port id="0" precision="FP16">
					<dim>1</dim>
					<dim>512</dim>
					<dim>17</dim>
					<dim>30</dim>
				</port>
				<port id="1" precision="FP16">
					<dim>1</dim>
					<dim>1</dim>
					<dim>1</dim>
					<dim>1</dim>
				</port>
			</input>
			<output>
				<port id="2" names="546" precision="FP16">
					<dim>1</dim>
					<dim>512</dim>
					<dim>17</dim>
					<dim>30</dim>
				</port>
			</output>
		</layer>
		<layer id="293" name="Clip_234" type="Clamp" version="opset1">
			<data max="6" min="0"/>
			<input>
				<port id="0" precision="FP16">
					<dim>1</dim>
					<dim>512</dim>
					<dim>17</dim>
					<dim>30</dim>
				</port>
			</input>
			<output>
				<port id="1" names="549" precision="FP16">
					<dim>1</dim>
					<dim>512</dim>
					<dim>17</dim>
					<dim>30</dim>
				</port>
			</output>
		</layer>
		<layer id="294" name="Constant_235" type="Const" version="opset1">
			<data element_type="f16" offset="984" shape="1, 1, 1, 1" size="2"/>
			<output>
				<port id="0" names="550" precision="FP16">
					<dim>1</dim>
					<dim>1</dim>
					<dim>1</dim>
					<dim>1</dim>
				</port>
			</output>
		</layer>
		<layer id="295" name="Div_236" type="Multiply" version="opset1">
			<data auto_broadcast="numpy"/>
			<input>
				<port id="0" precision="FP16">
					<dim>1</dim>
					<dim>512</dim>
					<dim>17</dim>
					<dim>30</dim>
				</port>
				<port id="1" precision="FP16">
					<dim>1</dim>
					<dim>1</dim>
					<dim>1</dim>
					<dim>1</dim>
				</port>
			</input>
			<output>
				<port id="2" names="551" precision="FP16">
					<dim>1</dim>
					<dim>512</dim>
					<dim>17</dim>
					<dim>30</dim>
				</port>
			</output>
		</layer>
		<layer id="296" name="Mul_237" type="Multiply" version="opset1">
			<data auto_broadcast="numpy"/>
			<input>
				<port id="0" precision="FP16">
					<dim>1</dim>
					<dim>512</dim>
					<dim>17</dim>
					<dim>30</dim>
				</port>
				<port id="1" precision="FP16">
					<dim>1</dim>
					<dim>512</dim>
					<dim>17</dim>
					<dim>30</dim>
				</port>
			</input>
			<output>
				<port id="2" names="552" precision="FP16">
					<dim>1</dim>
					<dim>512</dim>
					<dim>17</dim>
					<dim>30</dim>
				</port>
			</output>
		</layer>
		<layer id="297" name="1030" type="Const" version="opset1">
			<data element_type="f16" offset="1206114" shape="512, 1, 1, 5, 5" size="25600"/>
			<output>
				<port id="0" names="1030" precision="FP16">
					<dim>512</dim>
					<dim>1</dim>
					<dim>1</dim>
					<dim>5</dim>
					<dim>5</dim>
				</port>
			</output>
		</layer>
		<layer id="298" name="Conv_238/WithoutBiases" type="GroupConvolution" version="opset1">
			<data auto_pad="explicit" dilations="1, 1" pads_begin="2, 2" pads_end="2, 2" strides="1, 1"/>
			<input>
				<port id="0" precision="FP16">
					<dim>1</dim>
					<dim>512</dim>
					<dim>17</dim>
					<dim>30</dim>
				</port>
				<port id="1" precision="FP16">
					<dim>512</dim>
					<dim>1</dim>
					<dim>1</dim>
					<dim>5</dim>
					<dim>5</dim>
				</port>
			</input>
			<output>
				<port id="2" precision="FP16">
					<dim>1</dim>
					<dim>512</dim>
					<dim>17</dim>
					<dim>30</dim>
				</port>
			</output>
		</layer>
		<layer id="299" name="Conv_238/Dims7705" type="Const" version="opset1">
			<data element_type="f16" offset="1231714" shape="1, 512, 1, 1" size="1024"/>
			<output>
				<port id="0" precision="FP16">
					<dim>1</dim>
					<dim>512</dim>
					<dim>1</dim>
					<dim>1</dim>
				</port>
			</output>
		</layer>
		<layer id="300" name="Conv_238" type="Add" version="opset1">
			<data auto_broadcast="numpy"/>
			<input>
				<port id="0" precision="FP16">
					<dim>1</dim>
					<dim>512</dim>
					<dim>17</dim>
					<dim>30</dim>
				</port>
				<port id="1" precision="FP16">
					<dim>1</dim>
					<dim>512</dim>
					<dim>1</dim>
					<dim>1</dim>
				</port>
			</input>
			<output>
				<port id="2" names="1029" precision="FP16">
					<dim>1</dim>
					<dim>512</dim>
					<dim>17</dim>
					<dim>30</dim>
				</port>
			</output>
		</layer>
		<layer id="301" name="Constant_239" type="Const" version="opset1">
			<data element_type="f16" offset="982" shape="1, 1, 1, 1" size="2"/>
			<output>
				<port id="0" names="555" precision="FP16">
					<dim>1</dim>
					<dim>1</dim>
					<dim>1</dim>
					<dim>1</dim>
				</port>
			</output>
		</layer>
		<layer id="302" name="Add_240" type="Add" version="opset1">
			<data auto_broadcast="numpy"/>
			<input>
				<port id="0" precision="FP16">
					<dim>1</dim>
					<dim>512</dim>
					<dim>17</dim>
					<dim>30</dim>
				</port>
				<port id="1" precision="FP16">
					<dim>1</dim>
					<dim>1</dim>
					<dim>1</dim>
					<dim>1</dim>
				</port>
			</input>
			<output>
				<port id="2" names="556" precision="FP16">
					<dim>1</dim>
					<dim>512</dim>
					<dim>17</dim>
					<dim>30</dim>
				</port>
			</output>
		</layer>
		<layer id="303" name="Clip_243" type="Clamp" version="opset1">
			<data max="6" min="0"/>
			<input>
				<port id="0" precision="FP16">
					<dim>1</dim>
					<dim>512</dim>
					<dim>17</dim>
					<dim>30</dim>
				</port>
			</input>
			<output>
				<port id="1" names="559" precision="FP16">
					<dim>1</dim>
					<dim>512</dim>
					<dim>17</dim>
					<dim>30</dim>
				</port>
			</output>
		</layer>
		<layer id="304" name="Constant_244" type="Const" version="opset1">
			<data element_type="f16" offset="984" shape="1, 1, 1, 1" size="2"/>
			<output>
				<port id="0" names="560" precision="FP16">
					<dim>1</dim>
					<dim>1</dim>
					<dim>1</dim>
					<dim>1</dim>
				</port>
			</output>
		</layer>
		<layer id="305" name="Div_245" type="Multiply" version="opset1">
			<data auto_broadcast="numpy"/>
			<input>
				<port id="0" precision="FP16">
					<dim>1</dim>
					<dim>512</dim>
					<dim>17</dim>
					<dim>30</dim>
				</port>
				<port id="1" precision="FP16">
					<dim>1</dim>
					<dim>1</dim>
					<dim>1</dim>
					<dim>1</dim>
				</port>
			</input>
			<output>
				<port id="2" names="561" precision="FP16">
					<dim>1</dim>
					<dim>512</dim>
					<dim>17</dim>
					<dim>30</dim>
				</port>
			</output>
		</layer>
		<layer id="306" name="Mul_246" type="Multiply" version="opset1">
			<data auto_broadcast="numpy"/>
			<input>
				<port id="0" precision="FP16">
					<dim>1</dim>
					<dim>512</dim>
					<dim>17</dim>
					<dim>30</dim>
				</port>
				<port id="1" precision="FP16">
					<dim>1</dim>
					<dim>512</dim>
					<dim>17</dim>
					<dim>30</dim>
				</port>
			</input>
			<output>
				<port id="2" names="562" precision="FP16">
					<dim>1</dim>
					<dim>512</dim>
					<dim>17</dim>
					<dim>30</dim>
				</port>
			</output>
		</layer>
		<layer id="307" name="776" type="Const" version="opset1">
			<data element_type="i64" offset="34" shape="" size="8"/>
			<output>
				<port id="0" precision="I64"/>
			</output>
		</layer>
		<layer id="308" name="GlobalAveragePool_247/input_rank/shape_of" type="ShapeOf" version="opset3">
			<data output_type="i64"/>
			<input>
				<port id="0" precision="FP16">
					<dim>1</dim>
					<dim>512</dim>
					<dim>17</dim>
					<dim>30</dim>
				</port>
			</input>
			<output>
				<port id="1" precision="I64">
					<dim>4</dim>
				</port>
			</output>
		</layer>
		<layer id="309" name="GlobalAveragePool_247/input_rank/rank_of" type="ShapeOf" version="opset3">
			<data output_type="i64"/>
			<input>
				<port id="0" precision="I64">
					<dim>4</dim>
				</port>
			</input>
			<output>
				<port id="1" precision="I64">
					<dim>1</dim>
				</port>
			</output>
		</layer>
		<layer id="310" name="GlobalAveragePool_247/input_rank/0d_rank_of/value" type="Const" version="opset1">
			<data element_type="i64" offset="876762" shape="1" size="8"/>
			<output>
				<port id="0" precision="I64">
					<dim>1</dim>
				</port>
			</output>
		</layer>
		<layer id="311" name="GlobalAveragePool_247/input_rank" type="Squeeze" version="opset1">
			<input>
				<port id="0" precision="I64">
					<dim>1</dim>
				</port>
				<port id="1" precision="I64">
					<dim>1</dim>
				</port>
			</input>
			<output>
				<port id="2" precision="I64"/>
			</output>
		</layer>
		<layer id="312" name="778" type="Const" version="opset1">
			<data element_type="i64" offset="0" shape="" size="8"/>
			<output>
				<port id="0" precision="I64"/>
			</output>
		</layer>
		<layer id="313" name="GlobalAveragePool_247/global_pooling_reduce_axis" type="Range" version="opset4">
			<data output_type="i64"/>
			<input>
				<port id="0" precision="I64"/>
				<port id="1" precision="I64"/>
				<port id="2" precision="I64"/>
			</input>
			<output>
				<port id="3" precision="I64">
					<dim>2</dim>
				</port>
			</output>
		</layer>
		<layer id="314" name="GlobalAveragePool_247/reduce" type="ReduceMean" version="opset1">
			<data keep_dims="true"/>
			<input>
				<port id="0" precision="FP16">
					<dim>1</dim>
					<dim>512</dim>
					<dim>17</dim>
					<dim>30</dim>
				</port>
				<port id="1" precision="I64">
					<dim>2</dim>
				</port>
			</input>
			<output>
				<port id="2" names="563" precision="FP16">
					<dim>1</dim>
					<dim>512</dim>
					<dim>1</dim>
					<dim>1</dim>
				</port>
			</output>
		</layer>
		<layer id="315" name="backbone.blocks6.1.se.conv1.weight" type="Const" version="opset1">
			<data element_type="f16" offset="1232738" shape="128, 512, 1, 1" size="131072"/>
			<output>
				<port id="0" names="backbone.blocks6.1.se.conv1.weight" precision="FP16">
					<dim>128</dim>
					<dim>512</dim>
					<dim>1</dim>
					<dim>1</dim>
				</port>
			</output>
		</layer>
		<layer id="316" name="Conv_248/WithoutBiases" type="Convolution" version="opset1">
			<data auto_pad="explicit" dilations="1, 1" pads_begin="0, 0" pads_end="0, 0" strides="1, 1"/>
			<input>
				<port id="0" precision="FP16">
					<dim>1</dim>
					<dim>512</dim>
					<dim>1</dim>
					<dim>1</dim>
				</port>
				<port id="1" precision="FP16">
					<dim>128</dim>
					<dim>512</dim>
					<dim>1</dim>
					<dim>1</dim>
				</port>
			</input>
			<output>
				<port id="2" precision="FP16">
					<dim>1</dim>
					<dim>128</dim>
					<dim>1</dim>
					<dim>1</dim>
				</port>
			</output>
		</layer>
		<layer id="317" name="Conv_248/Dims7843" type="Const" version="opset1">
			<data element_type="f16" offset="1363810" shape="1, 128, 1, 1" size="256"/>
			<output>
				<port id="0" precision="FP16">
					<dim>1</dim>
					<dim>128</dim>
					<dim>1</dim>
					<dim>1</dim>
				</port>
			</output>
		</layer>
		<layer id="318" name="Conv_248" type="Add" version="opset1">
			<data auto_broadcast="numpy"/>
			<input>
				<port id="0" precision="FP16">
					<dim>1</dim>
					<dim>128</dim>
					<dim>1</dim>
					<dim>1</dim>
				</port>
				<port id="1" precision="FP16">
					<dim>1</dim>
					<dim>128</dim>
					<dim>1</dim>
					<dim>1</dim>
				</port>
			</input>
			<output>
				<port id="2" names="564" precision="FP16">
					<dim>1</dim>
					<dim>128</dim>
					<dim>1</dim>
					<dim>1</dim>
				</port>
			</output>
		</layer>
		<layer id="319" name="Relu_249" type="ReLU" version="opset1">
			<input>
				<port id="0" precision="FP16">
					<dim>1</dim>
					<dim>128</dim>
					<dim>1</dim>
					<dim>1</dim>
				</port>
			</input>
			<output>
				<port id="1" names="565" precision="FP16">
					<dim>1</dim>
					<dim>128</dim>
					<dim>1</dim>
					<dim>1</dim>
				</port>
			</output>
		</layer>
		<layer id="320" name="backbone.blocks6.1.se.conv2.weight" type="Const" version="opset1">
			<data element_type="f16" offset="1364066" shape="512, 128, 1, 1" size="131072"/>
			<output>
				<port id="0" names="backbone.blocks6.1.se.conv2.weight" precision="FP16">
					<dim>512</dim>
					<dim>128</dim>
					<dim>1</dim>
					<dim>1</dim>
				</port>
			</output>
		</layer>
		<layer id="321" name="Conv_250/WithoutBiases" type="Convolution" version="opset1">
			<data auto_pad="explicit" dilations="1, 1" pads_begin="0, 0" pads_end="0, 0" strides="1, 1"/>
			<input>
				<port id="0" precision="FP16">
					<dim>1</dim>
					<dim>128</dim>
					<dim>1</dim>
					<dim>1</dim>
				</port>
				<port id="1" precision="FP16">
					<dim>512</dim>
					<dim>128</dim>
					<dim>1</dim>
					<dim>1</dim>
				</port>
			</input>
			<output>
				<port id="2" precision="FP16">
					<dim>1</dim>
					<dim>512</dim>
					<dim>1</dim>
					<dim>1</dim>
				</port>
			</output>
		</layer>
		<layer id="322" name="Conv_250/Dims7885" type="Const" version="opset1">
			<data element_type="f16" offset="1495138" shape="1, 512, 1, 1" size="1024"/>
			<output>
				<port id="0" precision="FP16">
					<dim>1</dim>
					<dim>512</dim>
					<dim>1</dim>
					<dim>1</dim>
				</port>
			</output>
		</layer>
		<layer id="323" name="Conv_250" type="Add" version="opset1">
			<data auto_broadcast="numpy"/>
			<input>
				<port id="0" precision="FP16">
					<dim>1</dim>
					<dim>512</dim>
					<dim>1</dim>
					<dim>1</dim>
				</port>
				<port id="1" precision="FP16">
					<dim>1</dim>
					<dim>512</dim>
					<dim>1</dim>
					<dim>1</dim>
				</port>
			</input>
			<output>
				<port id="2" names="566" precision="FP16">
					<dim>1</dim>
					<dim>512</dim>
					<dim>1</dim>
					<dim>1</dim>
				</port>
			</output>
		</layer>
		<layer id="324" name="Mul_252" type="Swish" version="opset4">
			<input>
				<port id="0" precision="FP16">
					<dim>1</dim>
					<dim>512</dim>
					<dim>1</dim>
					<dim>1</dim>
				</port>
			</input>
			<output>
				<port id="1" names="568" precision="FP16">
					<dim>1</dim>
					<dim>512</dim>
					<dim>1</dim>
					<dim>1</dim>
				</port>
			</output>
		</layer>
		<layer id="325" name="Mul_253" type="Multiply" version="opset1">
			<data auto_broadcast="numpy"/>
			<input>
				<port id="0" precision="FP16">
					<dim>1</dim>
					<dim>512</dim>
					<dim>17</dim>
					<dim>30</dim>
				</port>
				<port id="1" precision="FP16">
					<dim>1</dim>
					<dim>512</dim>
					<dim>1</dim>
					<dim>1</dim>
				</port>
			</input>
			<output>
				<port id="2" names="569" precision="FP16">
					<dim>1</dim>
					<dim>512</dim>
					<dim>17</dim>
					<dim>30</dim>
				</port>
			</output>
		</layer>
		<layer id="326" name="1033" type="Const" version="opset1">
			<data element_type="f16" offset="1496162" shape="512, 512, 1, 1" size="524288"/>
			<output>
				<port id="0" names="1033" precision="FP16">
					<dim>512</dim>
					<dim>512</dim>
					<dim>1</dim>
					<dim>1</dim>
				</port>
			</output>
		</layer>
		<layer id="327" name="Conv_254/WithoutBiases" type="Convolution" version="opset1">
			<data auto_pad="explicit" dilations="1, 1" pads_begin="0, 0" pads_end="0, 0" strides="1, 1"/>
			<input>
				<port id="0" precision="FP16">
					<dim>1</dim>
					<dim>512</dim>
					<dim>17</dim>
					<dim>30</dim>
				</port>
				<port id="1" precision="FP16">
					<dim>512</dim>
					<dim>512</dim>
					<dim>1</dim>
					<dim>1</dim>
				</port>
			</input>
			<output>
				<port id="2" precision="FP16">
					<dim>1</dim>
					<dim>512</dim>
					<dim>17</dim>
					<dim>30</dim>
				</port>
			</output>
		</layer>
		<layer id="328" name="Conv_254/Dims7813" type="Const" version="opset1">
			<data element_type="f16" offset="2020450" shape="1, 512, 1, 1" size="1024"/>
			<output>
				<port id="0" precision="FP16">
					<dim>1</dim>
					<dim>512</dim>
					<dim>1</dim>
					<dim>1</dim>
				</port>
			</output>
		</layer>
		<layer id="329" name="Conv_254" type="Add" version="opset1">
			<data auto_broadcast="numpy"/>
			<input>
				<port id="0" precision="FP16">
					<dim>1</dim>
					<dim>512</dim>
					<dim>17</dim>
					<dim>30</dim>
				</port>
				<port id="1" precision="FP16">
					<dim>1</dim>
					<dim>512</dim>
					<dim>1</dim>
					<dim>1</dim>
				</port>
			</input>
			<output>
				<port id="2" names="1032" precision="FP16">
					<dim>1</dim>
					<dim>512</dim>
					<dim>17</dim>
					<dim>30</dim>
				</port>
			</output>
		</layer>
		<layer id="330" name="Constant_255" type="Const" version="opset1">
			<data element_type="f16" offset="982" shape="1, 1, 1, 1" size="2"/>
			<output>
				<port id="0" names="572" precision="FP16">
					<dim>1</dim>
					<dim>1</dim>
					<dim>1</dim>
					<dim>1</dim>
				</port>
			</output>
		</layer>
		<layer id="331" name="Add_256" type="Add" version="opset1">
			<data auto_broadcast="numpy"/>
			<input>
				<port id="0" precision="FP16">
					<dim>1</dim>
					<dim>512</dim>
					<dim>17</dim>
					<dim>30</dim>
				</port>
				<port id="1" precision="FP16">
					<dim>1</dim>
					<dim>1</dim>
					<dim>1</dim>
					<dim>1</dim>
				</port>
			</input>
			<output>
				<port id="2" names="573" precision="FP16">
					<dim>1</dim>
					<dim>512</dim>
					<dim>17</dim>
					<dim>30</dim>
				</port>
			</output>
		</layer>
		<layer id="332" name="Clip_259" type="Clamp" version="opset1">
			<data max="6" min="0"/>
			<input>
				<port id="0" precision="FP16">
					<dim>1</dim>
					<dim>512</dim>
					<dim>17</dim>
					<dim>30</dim>
				</port>
			</input>
			<output>
				<port id="1" names="576" precision="FP16">
					<dim>1</dim>
					<dim>512</dim>
					<dim>17</dim>
					<dim>30</dim>
				</port>
			</output>
		</layer>
		<layer id="333" name="Constant_260" type="Const" version="opset1">
			<data element_type="f16" offset="984" shape="1, 1, 1, 1" size="2"/>
			<output>
				<port id="0" names="577" precision="FP16">
					<dim>1</dim>
					<dim>1</dim>
					<dim>1</dim>
					<dim>1</dim>
				</port>
			</output>
		</layer>
		<layer id="334" name="Div_261" type="Multiply" version="opset1">
			<data auto_broadcast="numpy"/>
			<input>
				<port id="0" precision="FP16">
					<dim>1</dim>
					<dim>512</dim>
					<dim>17</dim>
					<dim>30</dim>
				</port>
				<port id="1" precision="FP16">
					<dim>1</dim>
					<dim>1</dim>
					<dim>1</dim>
					<dim>1</dim>
				</port>
			</input>
			<output>
				<port id="2" names="578" precision="FP16">
					<dim>1</dim>
					<dim>512</dim>
					<dim>17</dim>
					<dim>30</dim>
				</port>
			</output>
		</layer>
		<layer id="335" name="Mul_262" type="Multiply" version="opset1">
			<data auto_broadcast="numpy"/>
			<input>
				<port id="0" precision="FP16">
					<dim>1</dim>
					<dim>512</dim>
					<dim>17</dim>
					<dim>30</dim>
				</port>
				<port id="1" precision="FP16">
					<dim>1</dim>
					<dim>512</dim>
					<dim>17</dim>
					<dim>30</dim>
				</port>
			</input>
			<output>
				<port id="2" names="579" precision="FP16">
					<dim>1</dim>
					<dim>512</dim>
					<dim>17</dim>
					<dim>30</dim>
				</port>
			</output>
		</layer>
		<layer id="336" name="1036" type="Const" version="opset1">
			<data element_type="f16" offset="2021474" shape="128, 512, 1, 1" size="131072"/>
			<output>
				<port id="0" names="1036" precision="FP16">
					<dim>128</dim>
					<dim>512</dim>
					<dim>1</dim>
					<dim>1</dim>
				</port>
			</output>
		</layer>
		<layer id="337" name="Conv_263/WithoutBiases" type="Convolution" version="opset1">
			<data auto_pad="explicit" dilations="1, 1" pads_begin="0, 0" pads_end="0, 0" strides="1, 1"/>
			<input>
				<port id="0" precision="FP16">
					<dim>1</dim>
					<dim>512</dim>
					<dim>17</dim>
					<dim>30</dim>
				</port>
				<port id="1" precision="FP16">
					<dim>128</dim>
					<dim>512</dim>
					<dim>1</dim>
					<dim>1</dim>
				</port>
			</input>
			<output>
				<port id="2" precision="FP16">
					<dim>1</dim>
					<dim>128</dim>
					<dim>17</dim>
					<dim>30</dim>
				</port>
			</output>
		</layer>
		<layer id="338" name="Conv_263/Dims7777" type="Const" version="opset1">
			<data element_type="f16" offset="2152546" shape="1, 128, 1, 1" size="256"/>
			<output>
				<port id="0" precision="FP16">
					<dim>1</dim>
					<dim>128</dim>
					<dim>1</dim>
					<dim>1</dim>
				</port>
			</output>
		</layer>
		<layer id="339" name="Conv_263" type="Add" version="opset1">
			<data auto_broadcast="numpy"/>
			<input>
				<port id="0" precision="FP16">
					<dim>1</dim>
					<dim>128</dim>
					<dim>17</dim>
					<dim>30</dim>
				</port>
				<port id="1" precision="FP16">
					<dim>1</dim>
					<dim>128</dim>
					<dim>1</dim>
					<dim>1</dim>
				</port>
			</input>
			<output>
				<port id="2" names="1035" precision="FP16">
					<dim>1</dim>
					<dim>128</dim>
					<dim>17</dim>
					<dim>30</dim>
				</port>
			</output>
		</layer>
		<layer id="340" name="Relu_264" type="ReLU" version="opset1">
			<input>
				<port id="0" precision="FP16">
					<dim>1</dim>
					<dim>128</dim>
					<dim>17</dim>
					<dim>30</dim>
				</port>
			</input>
			<output>
				<port id="1" names="582" precision="FP16">
					<dim>1</dim>
					<dim>128</dim>
					<dim>17</dim>
					<dim>30</dim>
				</port>
			</output>
		</layer>
		<layer id="341" name="781" type="Const" version="opset1">
			<data element_type="i64" offset="34" shape="" size="8"/>
			<output>
				<port id="0" precision="I64"/>
			</output>
		</layer>
		<layer id="342" name="GlobalAveragePool_265/input_rank/shape_of" type="ShapeOf" version="opset3">
			<data output_type="i64"/>
			<input>
				<port id="0" precision="FP16">
					<dim>1</dim>
					<dim>512</dim>
					<dim>17</dim>
					<dim>30</dim>
				</port>
			</input>
			<output>
				<port id="1" precision="I64">
					<dim>4</dim>
				</port>
			</output>
		</layer>
		<layer id="343" name="GlobalAveragePool_265/input_rank/rank_of" type="ShapeOf" version="opset3">
			<data output_type="i64"/>
			<input>
				<port id="0" precision="I64">
					<dim>4</dim>
				</port>
			</input>
			<output>
				<port id="1" precision="I64">
					<dim>1</dim>
				</port>
			</output>
		</layer>
		<layer id="344" name="GlobalAveragePool_265/input_rank/0d_rank_of/value" type="Const" version="opset1">
			<data element_type="i64" offset="876762" shape="1" size="8"/>
			<output>
				<port id="0" precision="I64">
					<dim>1</dim>
				</port>
			</output>
		</layer>
		<layer id="345" name="GlobalAveragePool_265/input_rank" type="Squeeze" version="opset1">
			<input>
				<port id="0" precision="I64">
					<dim>1</dim>
				</port>
				<port id="1" precision="I64">
					<dim>1</dim>
				</port>
			</input>
			<output>
				<port id="2" precision="I64"/>
			</output>
		</layer>
		<layer id="346" name="783" type="Const" version="opset1">
			<data element_type="i64" offset="0" shape="" size="8"/>
			<output>
				<port id="0" precision="I64"/>
			</output>
		</layer>
		<layer id="347" name="GlobalAveragePool_265/global_pooling_reduce_axis" type="Range" version="opset4">
			<data output_type="i64"/>
			<input>
				<port id="0" precision="I64"/>
				<port id="1" precision="I64"/>
				<port id="2" precision="I64"/>
			</input>
			<output>
				<port id="3" precision="I64">
					<dim>2</dim>
				</port>
			</output>
		</layer>
		<layer id="348" name="GlobalAveragePool_265/reduce" type="ReduceMean" version="opset1">
			<data keep_dims="true"/>
			<input>
				<port id="0" precision="FP16">
					<dim>1</dim>
					<dim>512</dim>
					<dim>17</dim>
					<dim>30</dim>
				</port>
				<port id="1" precision="I64">
					<dim>2</dim>
				</port>
			</input>
			<output>
				<port id="2" names="583" precision="FP16">
					<dim>1</dim>
					<dim>512</dim>
					<dim>1</dim>
					<dim>1</dim>
				</port>
			</output>
		</layer>
		<layer id="349" name="aspp.aspp2.1.weight" type="Const" version="opset1">
			<data element_type="f16" offset="2152802" shape="128, 512, 1, 1" size="131072"/>
			<output>
				<port id="0" names="aspp.aspp2.1.weight" precision="FP16">
					<dim>128</dim>
					<dim>512</dim>
					<dim>1</dim>
					<dim>1</dim>
				</port>
			</output>
		</layer>
		<layer id="350" name="Conv_266" type="Convolution" version="opset1">
			<data auto_pad="explicit" dilations="1, 1" pads_begin="0, 0" pads_end="0, 0" strides="1, 1"/>
			<input>
				<port id="0" precision="FP16">
…
		<edge from-layer="305" from-port="2" to-layer="306" to-port="1"/>
		<edge from-layer="306" from-port="2" to-layer="325" to-port="0"/>
		<edge from-layer="306" from-port="2" to-layer="308" to-port="0"/>
		<edge from-layer="306" from-port="2" to-layer="314" to-port="0"/>
		<edge from-layer="307" from-port="0" to-layer="313" to-port="0"/>
		<edge from-layer="308" from-port="1" to-layer="309" to-port="0"/>
		<edge from-layer="309" from-port="1" to-layer="311" to-port="0"/>
		<edge from-layer="310" from-port="0" to-layer="311" to-port="1"/>
		<edge from-layer="311" from-port="2" to-layer="313" to-port="1"/>
		<edge from-layer="312" from-port="0" to-layer="313" to-port="2"/>
		<edge from-layer="313" from-port="3" to-layer="314" to-port="1"/>
		<edge from-layer="314" from-port="2" to-layer="316" to-port="0"/>
		<edge from-layer="315" from-port="0" to-layer="316" to-port="1"/>
		<edge from-layer="316" from-port="2" to-layer="318" to-port="0"/>
		<edge from-layer="317" from-port="0" to-layer="318" to-port="1"/>
		<edge from-layer="318" from-port="2" to-layer="319" to-port="0"/>
		<edge from-layer="319" from-port="1" to-layer="321" to-port="0"/>
		<edge from-layer="320" from-port="0" to-layer="321" to-port="1"/>
		<edge from-layer="321" from-port="2" to-layer="323" to-port="0"/>
		<edge from-layer="322" from-port="0" to-layer="323" to-port="1"/>
		<edge from-layer="323" from-port="2" to-layer="324" to-port="0"/>
		<edge from-layer="324" from-port="1" to-layer="325" to-port="1"/>
		<edge from-layer="325" from-port="2" to-layer="327" to-port="0"/>
		<edge from-layer="326" from-port="0" to-layer="327" to-port="1"/>
		<edge from-layer="327" from-port="2" to-layer="329" to-port="0"/>
		<edge from-layer="328" from-port="0" to-layer="329" to-port="1"/>
		<edge from-layer="329" from-port="2" to-layer="331" to-port="0"/>
		<edge from-layer="329" from-port="2" to-layer="335" to-port="0"/>
		<edge from-layer="330" from-port="0" to-layer="331" to-port="1"/>
		<edge from-layer="331" from-port="2" to-layer="332" to-port="0"/>
		<edge from-layer="332" from-port="1" to-layer="334" to-port="0"/>
		<edge from-layer="333" from-port="0" to-layer="334" to-port="1"/>
		<edge from-layer="334" from-port="2" to-layer="335" to-port="1"/>
		<edge from-layer="335" from-port="2" to-layer="337" to-port="0"/>
		<edge from-layer="335" from-port="2" to-layer="342" to-port="0"/>
		<edge from-layer="335" from-port="2" to-layer="348" to-port="0"/>
		<edge from-layer="336" from-port="0" to-layer="337" to-port="1"/>
		<edge from-layer="337" from-port="2" to-layer="339" to-port="0"/>
		<edge from-layer="338" from-port="0" to-layer="339" to-port="1"/>
		<edge from-layer="339" from-port="2" to-layer="340" to-port="0"/>
		<edge from-layer="340" from-port="1" to-layer="352" to-port="0"/>
		<edge from-layer="341" from-port="0" to-layer="347" to-port="0"/>
		<edge from-layer="342" from-port="1" to-layer="343" to-port="0"/>
		<edge from-layer="343" from-port="1" to-layer="345" to-port="0"/>
		<edge from-layer="344" from-port="0" to-layer="345" to-port="1"/>
		<edge from-layer="345" from-port="2" to-layer="347" to-port="1"/>
		<edge from-layer="346" from-port="0" to-layer="347" to-port="2"/>
		<edge from-layer="347" from-port="3" to-layer="348" to-port="1"/>
		<edge from-layer="348" from-port="2" to-layer="350" to-port="0"/>
		<edge from-layer="349" from-port="0" to-layer="350" to-port="1"/>
		<edge from-layer="350" from-port="2" to-layer="351" to-port="0"/>
		<edge from-layer="351" from-port="1" to-layer="352" to-port="1"/>
		<edge from-layer="352" from-port="2" to-layer="355" to-port="0"/>
		<edge from-layer="353" from-port="0" to-layer="355" to-port="1"/>
		<edge from-layer="354" from-port="0" to-layer="355" to-port="2"/>
		<edge from-layer="355" from-port="4" to-layer="358" to-port="0"/>
		<edge from-layer="355" from-port="4" to-layer="364" to-port="0"/>
		<edge from-layer="355" from-port="4" to-layer="373" to-port="0"/>
		<edge from-layer="355" from-port="3" to-layer="413" to-port="0"/>
		<edge from-layer="355" from-port="4" to-layer="405" to-port="0"/>
		<edge from-layer="355" from-port="4" to-layer="393" to-port="0"/>
		<edge from-layer="355" from-port="4" to-layer="382" to-port="0"/>
		<edge from-layer="356" from-port="0" to-layer="402" to-port="0"/>
		<edge from-layer="357" from-port="0" to-layer="392" to-port="0"/>
		<edge from-layer="358" from-port="1" to-layer="361" to-port="0"/>
		<edge from-layer="359" from-port="0" to-layer="361" to-port="1"/>
		<edge from-layer="360" from-port="0" to-layer="361" to-port="2"/>
		<edge from-layer="361" from-port="3" to-layer="363" to-port="0"/>
		<edge from-layer="362" from-port="0" to-layer="363" to-port="1"/>
		<edge from-layer="363" from-port="2" to-layer="391" to-port="0"/>
		<edge from-layer="364" from-port="1" to-layer="368" to-port="0"/>
		<edge from-layer="365" from-port="0" to-layer="368" to-port="1"/>
		<edge from-layer="366" from-port="0" to-layer="368" to-port="2"/>
		<edge from-layer="367" from-port="0" to-layer="368" to-port="3"/>
		<edge from-layer="368" from-port="4" to-layer="370" to-port="0"/>
		<edge from-layer="369" from-port="0" to-layer="370" to-port="1"/>
		<edge from-layer="370" from-port="2" to-layer="372" to-port="0"/>
		<edge from-layer="371" from-port="0" to-layer="372" to-port="1"/>
		<edge from-layer="372" from-port="2" to-layer="391" to-port="1"/>
		<edge from-layer="373" from-port="1" to-layer="377" to-port="0"/>
		<edge from-layer="374" from-port="0" to-layer="377" to-port="1"/>
		<edge from-layer="375" from-port="0" to-layer="377" to-port="2"/>
		<edge from-layer="376" from-port="0" to-layer="377" to-port="3"/>
		<edge from-layer="377" from-port="4" to-layer="379" to-port="0"/>
		<edge from-layer="378" from-port="0" to-layer="379" to-port="1"/>
		<edge from-layer="379" from-port="2" to-layer="381" to-port="0"/>
		<edge from-layer="380" from-port="0" to-layer="381" to-port="1"/>
		<edge from-layer="381" from-port="2" to-layer="391" to-port="2"/>
		<edge from-layer="382" from-port="1" to-layer="386" to-port="0"/>
		<edge from-layer="383" from-port="0" to-layer="386" to-port="1"/>
		<edge from-layer="384" from-port="0" to-layer="386" to-port="2"/>
		<edge from-layer="385" from-port="0" to-layer="386" to-port="3"/>
		<edge from-layer="386" from-port="4" to-layer="388" to-port="0"/>
		<edge from-layer="387" from-port="0" to-layer="388" to-port="1"/>
		<edge from-layer="388" from-port="2" to-layer="390" to-port="0"/>
		<edge from-layer="389" from-port="0" to-layer="390" to-port="1"/>
		<edge from-layer="390" from-port="2" to-layer="391" to-port="3"/>
		<edge from-layer="391" from-port="4" to-layer="392" to-port="1"/>
		<edge from-layer="392" from-port="2" to-layer="393" to-port="1"/>
		<edge from-layer="392" from-port="2" to-layer="404" to-port="1"/>
		<edge from-layer="392" from-port="2" to-layer="403" to-port="1"/>
		<edge from-layer="393" from-port="2" to-layer="395" to-port="0"/>
		<edge from-layer="394" from-port="0" to-layer="395" to-port="1"/>
		<edge from-layer="395" from-port="2" to-layer="397" to-port="0"/>
		<edge from-layer="396" from-port="0" to-layer="397" to-port="1"/>
		<edge from-layer="397" from-port="2" to-layer="398" to-port="0"/>
		<edge from-layer="398" from-port="1" to-layer="401" to-port="0"/>
		<edge from-layer="399" from-port="0" to-layer="401" to-port="1"/>
		<edge from-layer="400" from-port="0" to-layer="401" to-port="2"/>
		<edge from-layer="401" from-port="4" to-layer="411" to-port="0"/>
		<edge from-layer="401" from-port="3" to-layer="404" to-port="0"/>
		<edge from-layer="401" from-port="4" to-layer="402" to-port="1"/>
		<edge from-layer="402" from-port="2" to-layer="403" to-port="0"/>
		<edge from-layer="403" from-port="2" to-layer="412" to-port="0"/>
		<edge from-layer="404" from-port="2" to-layer="405" to-port="1"/>
		<edge from-layer="405" from-port="2" to-layer="407" to-port="0"/>
		<edge from-layer="406" from-port="0" to-layer="407" to-port="1"/>
		<edge from-layer="407" from-port="2" to-layer="409" to-port="0"/>
		<edge from-layer="408" from-port="0" to-layer="409" to-port="1"/>
		<edge from-layer="409" from-port="2" to-layer="410" to-port="0"/>
		<edge from-layer="410" from-port="1" to-layer="411" to-port="1"/>
		<edge from-layer="411" from-port="2" to-layer="412" to-port="1"/>
		<edge from-layer="412" from-port="2" to-layer="413" to-port="1"/>
		<edge from-layer="413" from-port="2" to-layer="414" to-port="0"/>
		<edge from-layer="413" from-port="2" to-layer="428" to-port="0"/>
		<edge from-layer="414" from-port="1" to-layer="415" to-port="0"/>
		<edge from-layer="415" from-port="1" to-layer="417" to-port="0"/>
		<edge from-layer="416" from-port="0" to-layer="417" to-port="1"/>
		<edge from-layer="417" from-port="2" to-layer="419" to-port="0"/>
		<edge from-layer="418" from-port="0" to-layer="419" to-port="1"/>
		<edge from-layer="419" from-port="2" to-layer="420" to-port="0"/>
		<edge from-layer="420" from-port="1" to-layer="421" to-port="0"/>
		<edge from-layer="421" from-port="1" to-layer="425" to-port="0"/>
		<edge from-layer="422" from-port="0" to-layer="425" to-port="1"/>
		<edge from-layer="423" from-port="0" to-layer="425" to-port="2"/>
		<edge from-layer="424" from-port="0" to-layer="425" to-port="3"/>
		<edge from-layer="425" from-port="4" to-layer="428" to-port="1"/>
		<edge from-layer="426" from-port="0" to-layer="428" to-port="2"/>
		<edge from-layer="427" from-port="0" to-layer="428" to-port="3"/>
		<edge from-layer="428" from-port="4" to-layer="448" to-port="0"/>
		<edge from-layer="429" from-port="0" to-layer="448" to-port="1"/>
		<edge from-layer="430" from-port="0" to-layer="446" to-port="0"/>
		<edge from-layer="431" from-port="0" to-layer="446" to-port="1"/>
		<edge from-layer="432" from-port="1" to-layer="698" to-port="2"/>
		<edge from-layer="432" from-port="1" to-layer="667" to-port="0"/>
		<edge from-layer="432" from-port="1" to-layer="685" to-port="0"/>
		<edge from-layer="432" from-port="1" to-layer="433" to-port="0"/>
		<edge from-layer="433" from-port="1" to-layer="434" to-port="0"/>
		<edge from-layer="433" from-port="1" to-layer="582" to-port="2"/>
		<edge from-layer="433" from-port="1" to-layer="569" to-port="0"/>
		<edge from-layer="433" from-port="1" to-layer="551" to-port="0"/>
		<edge from-layer="434" from-port="1" to-layer="435" to-port="0"/>
		<edge from-layer="434" from-port="1" to-layer="466" to-port="2"/>
		<edge from-layer="434" from-port="1" to-layer="453" to-port="0"/>
		<edge from-layer="435" from-port="1" to-layer="438" to-port="0"/>
		<edge from-layer="436" from-port="0" to-layer="438" to-port="1"/>
		<edge from-layer="437" from-port="0" to-layer="438" to-port="2"/>
		<edge from-layer="438" from-port="3" to-layer="440" to-port="0"/>
		<edge from-layer="439" from-port="0" to-layer="440" to-port="1"/>
		<edge from-layer="440" from-port="2" to-layer="441" to-port="0"/>
		<edge from-layer="441" from-port="1" to-layer="444" to-port="0"/>
		<edge from-layer="442" from-port="0" to-layer="444" to-port="1"/>
		<edge from-layer="443" from-port="0" to-layer="444" to-port="2"/>
		<edge from-layer="444" from-port="3" to-layer="446" to-port="2"/>
		<edge from-layer="445" from-port="0" to-layer="446" to-port="3"/>
		<edge from-layer="446" from-port="4" to-layer="448" to-port="2"/>
		<edge from-layer="447" from-port="0" to-layer="448" to-port="3"/>
		<edge from-layer="448" from-port="4" to-layer="465" to-port="0"/>
		<edge from-layer="449" from-port="0" to-layer="465" to-port="1"/>
		<edge from-layer="450" from-port="0" to-layer="463" to-port="0"/>
		<edge from-layer="451" from-port="0" to-layer="463" to-port="1"/>
		<edge from-layer="452" from-port="0" to-layer="463" to-port="2"/>
		<edge from-layer="453" from-port="1" to-layer="456" to-port="0"/>
		<edge from-layer="454" from-port="0" to-layer="456" to-port="1"/>
		<edge from-layer="455" from-port="0" to-layer="456" to-port="2"/>
		<edge from-layer="456" from-port="3" to-layer="458" to-port="0"/>
		<edge from-layer="457" from-port="0" to-layer="458" to-port="1"/>
		<edge from-layer="458" from-port="2" to-layer="459" to-port="0"/>
		<edge from-layer="459" from-port="1" to-layer="462" to-port="0"/>
		<edge from-layer="460" from-port="0" to-layer="462" to-port="1"/>
		<edge from-layer="461" from-port="0" to-layer="462" to-port="2"/>
		<edge from-layer="462" from-port="3" to-layer="463" to-port="3"/>
		<edge from-layer="463" from-port="4" to-layer="465" to-port="2"/>
		<edge from-layer="464" from-port="0" to-layer="465" to-port="3"/>
		<edge from-layer="465" from-port="4" to-layer="466" to-port="0"/>
		<edge from-layer="466" from-port="3" to-layer="468" to-port="0"/>
		<edge from-layer="467" from-port="0" to-layer="468" to-port="1"/>
		<edge from-layer="468" from-port="2" to-layer="470" to-port="0"/>
		<edge from-layer="469" from-port="0" to-layer="470" to-port="1"/>
		<edge from-layer="470" from-port="2" to-layer="471" to-port="0"/>
		<edge from-layer="471" from-port="1" to-layer="474" to-port="0"/>
		<edge from-layer="472" from-port="0" to-layer="474" to-port="1"/>
		<edge from-layer="473" from-port="0" to-layer="474" to-port="2"/>
		<edge from-layer="474" from-port="4" to-layer="492" to-port="0"/>
		<edge from-layer="474" from-port="4" to-layer="501" to-port="0"/>
		<edge from-layer="474" from-port="4" to-layer="512" to-port="0"/>
		<edge from-layer="474" from-port="4" to-layer="524" to-port="0"/>
		<edge from-layer="474" from-port="3" to-layer="532" to-port="0"/>
		<edge from-layer="474" from-port="4" to-layer="477" to-port="0"/>
		<edge from-layer="474" from-port="4" to-layer="483" to-port="0"/>
		<edge from-layer="475" from-port="0" to-layer="521" to-port="0"/>
		<edge from-layer="476" from-port="0" to-layer="511" to-port="0"/>
		<edge from-layer="477" from-port="1" to-layer="480" to-port="0"/>
		<edge from-layer="478" from-port="0" to-layer="480" to-port="1"/>
		<edge from-layer="479" from-port="0" to-layer="480" to-port="2"/>
		<edge from-layer="480" from-port="3" to-layer="482" to-port="0"/>
		<edge from-layer="481" from-port="0" to-layer="482" to-port="1"/>
		<edge from-layer="482" from-port="2" to-layer="510" to-port="0"/>
		<edge from-layer="483" from-port="1" to-layer="487" to-port="0"/>
		<edge from-layer="484" from-port="0" to-layer="487" to-port="1"/>
		<edge from-layer="485" from-port="0" to-layer="487" to-port="2"/>
		<edge from-layer="486" from-port="0" to-layer="487" to-port="3"/>
		<edge from-layer="487" from-port="4" to-layer="489" to-port="0"/>
		<edge from-layer="488" from-port="0" to-layer="489" to-port="1"/>
		<edge from-layer="489" from-port="2" to-layer="491" to-port="0"/>
		<edge from-layer="490" from-port="0" to-layer="491" to-port="1"/>
		<edge from-layer="491" from-port="2" to-layer="510" to-port="1"/>
		<edge from-layer="492" from-port="1" to-layer="496" to-port="0"/>
		<edge from-layer="493" from-port="0" to-layer="496" to-port="1"/>
		<edge from-layer="494" from-port="0" to-layer="496" to-port="2"/>
		<edge from-layer="495" from-port="0" to-layer="496" to-port="3"/>
		<edge from-layer="496" from-port="4" to-layer="498" to-port="0"/>
		<edge from-layer="497" from-port="0" to-layer="498" to-port="1"/>
		<edge from-layer="498" from-port="2" to-layer="500" to-port="0"/>
		<edge from-layer="499" from-port="0" to-layer="500" to-port="1"/>
		<edge from-layer="500" from-port="2" to-layer="510" to-port="2"/>
		<edge from-layer="501" from-port="1" to-layer="505" to-port="0"/>
		<edge from-layer="502" from-port="0" to-layer="505" to-port="1"/>
		<edge from-layer="503" from-port="0" to-layer="505" to-port="2"/>
		<edge from-layer="504" from-port="0" to-layer="505" to-port="3"/>
		<edge from-layer="505" from-port="4" to-layer="507" to-port="0"/>
		<edge from-layer="506" from-port="0" to-layer="507" to-port="1"/>
		<edge from-layer="507" from-port="2" to-layer="509" to-port="0"/>
		<edge from-layer="508" from-port="0" to-layer="509" to-port="1"/>
		<edge from-layer="509" from-port="2" to-layer="510" to-port="3"/>
		<edge from-layer="510" from-port="4" to-layer="511" to-port="1"/>
		<edge from-layer="511" from-port="2" to-layer="512" to-port="1"/>
		<edge from-layer="511" from-port="2" to-layer="522" to-port="1"/>
		<edge from-layer="511" from-port="2" to-layer="523" to-port="1"/>
		<edge from-layer="512" from-port="2" to-layer="514" to-port="0"/>
		<edge from-layer="513" from-port="0" to-layer="514" to-port="1"/>
		<edge from-layer="514" from-port="2" to-layer="516" to-port="0"/>
		<edge from-layer="515" from-port="0" to-layer="516" to-port="1"/>
		<edge from-layer="516" from-port="2" to-layer="517" to-port="0"/>
		<edge from-layer="517" from-port="1" to-layer="520" to-port="0"/>
		<edge from-layer="518" from-port="0" to-layer="520" to-port="1"/>
		<edge from-layer="519" from-port="0" to-layer="520" to-port="2"/>
		<edge from-layer="520" from-port="4" to-layer="521" to-port="1"/>
		<edge from-layer="520" from-port="3" to-layer="523" to-port="0"/>
		<edge from-layer="520" from-port="4" to-layer="530" to-port="0"/>
		<edge from-layer="521" from-port="2" to-layer="522" to-port="0"/>
		<edge from-layer="522" from-port="2" to-layer="531" to-port="0"/>
		<edge from-layer="523" from-port="2" to-layer="524" to-port="1"/>
		<edge from-layer="524" from-port="2" to-layer="526" to-port="0"/>
		<edge from-layer="525" from-port="0" to-layer="526" to-port="1"/>
		<edge from-layer="526" from-port="2" to-layer="528" to-port="0"/>
		<edge from-layer="527" from-port="0" to-layer="528" to-port="1"/>
		<edge from-layer="528" from-port="2" to-layer="529" to-port="0"/>
		<edge from-layer="529" from-port="1" to-layer="530" to-port="1"/>
		<edge from-layer="530" from-port="2" to-layer="531" to-port="1"/>
		<edge from-layer="531" from-port="2" to-layer="532" to-port="1"/>
		<edge from-layer="532" from-port="2" to-layer="547" to-port="0"/>
		<edge from-layer="532" from-port="2" to-layer="533" to-port="0"/>
		<edge from-layer="533" from-port="1" to-layer="534" to-port="0"/>
		<edge from-layer="534" from-port="1" to-layer="536" to-port="0"/>
		<edge from-layer="535" from-port="0" to-layer="536" to-port="1"/>
		<edge from-layer="536" from-port="2" to-layer="538" to-port="0"/>
		<edge from-layer="537" from-port="0" to-layer="538" to-port="1"/>
		<edge from-layer="538" from-port="2" to-layer="539" to-port="0"/>
		<edge from-layer="539" from-port="1" to-layer="540" to-port="0"/>
		<edge from-layer="540" from-port="1" to-layer="544" to-port="0"/>
		<edge from-layer="541" from-port="0" to-layer="544" to-port="1"/>
		<edge from-layer="542" from-port="0" to-layer="544" to-port="2"/>
		<edge from-layer="543" from-port="0" to-layer="544" to-port="3"/>
		<edge from-layer="544" from-port="4" to-layer="547" to-port="1"/>
		<edge from-layer="545" from-port="0" to-layer="547" to-port="2"/>
		<edge from-layer="546" from-port="0" to-layer="547" to-port="3"/>
		<edge from-layer="547" from-port="4" to-layer="564" to-port="0"/>
		<edge from-layer="548" from-port="0" to-layer="564" to-port="1"/>
		<edge from-layer="549" from-port="0" to-layer="562" to-port="0"/>
		<edge from-layer="550" from-port="0" to-layer="562" to-port="1"/>
		<edge from-layer="551" from-port="1" to-layer="554" to-port="0"/>
		<edge from-layer="552" from-port="0" to-layer="554" to-port="1"/>
		<edge from-layer="553" from-port="0" to-layer="554" to-port="2"/>
		<edge from-layer="554" from-port="3" to-layer="556" to-port="0"/>
		<edge from-layer="555" from-port="0" to-layer="556" to-port="1"/>
		<edge from-layer="556" from-port="2" to-layer="557" to-port="0"/>
		<edge from-layer="557" from-port="1" to-layer="560" to-port="0"/>
		<edge from-layer="558" from-port="0" to-layer="560" to-port="1"/>
		<edge from-layer="559" from-port="0" to-layer="560" to-port="2"/>
		<edge from-layer="560" from-port="3" to-layer="562" to-port="2"/>
		<edge from-layer="561" from-port="0" to-layer="562" to-port="3"/>
		<edge from-layer="562" from-port="4" to-layer="564" to-port="2"/>
		<edge from-layer="563" from-port="0" to-layer="564" to-port="3"/>
		<edge from-layer="564" from-port="4" to-layer="581" to-port="0"/>
		<edge from-layer="565" from-port="0" to-layer="581" to-port="1"/>
		<edge from-layer="566" from-port="0" to-layer="579" to-port="0"/>
		<edge from-layer="567" from-port="0" to-layer="579" to-port="1"/>
		<edge from-layer="568" from-port="0" to-layer="579" to-port="2"/>
		<edge from-layer="569" from-port="1" to-layer="572" to-port="0"/>
		<edge from-layer="570" from-port="0" to-layer="572" to-port="1"/>
		<edge from-layer="571" from-port="0" to-layer="572" to-port="2"/>
		<edge from-layer="572" from-port="3" to-layer="574" to-port="0"/>
		<edge from-layer="573" from-port="0" to-layer="574" to-port="1"/>
		<edge from-layer="574" from-port="2" to-layer="575" to-port="0"/>
		<edge from-layer="575" from-port="1" to-layer="578" to-port="0"/>
		<edge from-layer="576" from-port="0" to-layer="578" to-port="1"/>
		<edge from-layer="577" from-port="0" to-layer="578" to-port="2"/>
		<edge from-layer="578" from-port="3" to-layer="579" to-port="3"/>
		<edge from-layer="579" from-port="4" to-layer="581" to-port="2"/>
		<edge from-layer="580" from-port="0" to-layer="581" to-port="3"/>
		<edge from-layer="581" from-port="4" to-layer="582" to-port="0"/>
		<edge from-layer="582" from-port="3" to-layer="584" to-port="0"/>
		<edge from-layer="583" from-port="0" to-layer="584" to-port="1"/>
		<edge from-layer="584" from-port="2" to-layer="586" to-port="0"/>
		<edge from-layer="585" from-port="0" to-layer="586" to-port="1"/>
		<edge from-layer="586" from-port="2" to-layer="587" to-port="0"/>
		<edge from-layer="587" from-port="1" to-layer="590" to-port="0"/>
		<edge from-layer="588" from-port="0" to-layer="590" to-port="1"/>
		<edge from-layer="589" from-port="0" to-layer="590" to-port="2"/>
		<edge from-layer="590" from-port="4" to-layer="593" to-port="0"/>
		<edge from-layer="590" from-port="4" to-layer="628" to-port="0"/>
		<edge from-layer="590" from-port="4" to-layer="640" to-port="0"/>
		<edge from-layer="590" from-port="3" to-layer="648" to-port="0"/>
		<edge from-layer="590" from-port="4" to-layer="608" to-port="0"/>
		<edge from-layer="590" from-port="4" to-layer="617" to-port="0"/>
		<edge from-layer="590" from-port="4" to-layer="599" to-port="0"/>
		<edge from-layer="591" from-port="0" to-layer="637" to-port="0"/>
		<edge from-layer="592" from-port="0" to-layer="627" to-port="0"/>
		<edge from-layer="593" from-port="1" to-layer="596" to-port="0"/>
		<edge from-layer="594" from-port="0" to-layer="596" to-port="1"/>
		<edge from-layer="595" from-port="0" to-layer="596" to-port="2"/>
		<edge from-layer="596" from-port="3" to-layer="598" to-port="0"/>
		<edge from-layer="597" from-port="0" to-layer="598" to-port="1"/>
		<edge from-layer="598" from-port="2" to-layer="626" to-port="0"/>
		<edge from-layer="599" from-port="1" to-layer="603" to-port="0"/>
		<edge from-layer="600" from-port="0" to-layer="603" to-port="1"/>
		<edge from-layer="601" from-port="0" to-layer="603" to-port="2"/>
		<edge from-layer="602" from-port="0" to-layer="603" to-port="3"/>
		<edge from-layer="603" from-port="4" to-layer="605" to-port="0"/>
		<edge from-layer="604" from-port="0" to-layer="605" to-port="1"/>
		<edge from-layer="605" from-port="2" to-layer="607" to-port="0"/>
		<edge from-layer="606" from-port="0" to-layer="607" to-port="1"/>
		<edge from-layer="607" from-port="2" to-layer="626" to-port="1"/>
		<edge from-layer="608" from-port="1" to-layer="612" to-port="0"/>
		<edge from-layer="609" from-port="0" to-layer="612" to-port="1"/>
		<edge from-layer="610" from-port="0" to-layer="612" to-port="2"/>
		<edge from-layer="611" from-port="0" to-layer="612" to-port="3"/>
		<edge from-layer="612" from-port="4" to-layer="614" to-port="0"/>
		<edge from-layer="613" from-port="0" to-layer="614" to-port="1"/>
		<edge from-layer="614" from-port="2" to-layer="616" to-port="0"/>
		<edge from-layer="615" from-port="0" to-layer="616" to-port="1"/>
		<edge from-layer="616" from-port="2" to-layer="626" to-port="2"/>
		<edge from-layer="617" from-port="1" to-layer="621" to-port="0"/>
		<edge from-layer="618" from-port="0" to-layer="621" to-port="1"/>
		<edge from-layer="619" from-port="0" to-layer="621" to-port="2"/>
		<edge from-layer="620" from-port="0" to-layer="621" to-port="3"/>
		<edge from-layer="621" from-port="4" to-layer="623" to-port="0"/>
		<edge from-layer="622" from-port="0" to-layer="623" to-port="1"/>
		<edge from-layer="623" from-port="2" to-layer="625" to-port="0"/>
		<edge from-layer="624" from-port="0" to-layer="625" to-port="1"/>
		<edge from-layer="625" from-port="2" to-layer="626" to-port="3"/>
		<edge from-layer="626" from-port="4" to-layer="627" to-port="1"/>
		<edge from-layer="627" from-port="2" to-layer="628" to-port="1"/>
		<edge from-layer="627" from-port="2" to-layer="639" to-port="1"/>
		<edge from-layer="627" from-port="2" to-layer="638" to-port="1"/>
		<edge from-layer="628" from-port="2" to-layer="630" to-port="0"/>
		<edge from-layer="629" from-port="0" to-layer="630" to-port="1"/>
		<edge from-layer="630" from-port="2" to-layer="632" to-port="0"/>
		<edge from-layer="631" from-port="0" to-layer="632" to-port="1"/>
		<edge from-layer="632" from-port="2" to-layer="633" to-port="0"/>
		<edge from-layer="633" from-port="1" to-layer="636" to-port="0"/>
		<edge from-layer="634" from-port="0" to-layer="636" to-port="1"/>
		<edge from-layer="635" from-port="0" to-layer="636" to-port="2"/>
		<edge from-layer="636" from-port="4" to-layer="646" to-port="0"/>
		<edge from-layer="636" from-port="4" to-layer="637" to-port="1"/>
		<edge from-layer="636" from-port="3" to-layer="639" to-port="0"/>
		<edge from-layer="637" from-port="2" to-layer="638" to-port="0"/>
		<edge from-layer="638" from-port="2" to-layer="647" to-port="0"/>
		<edge from-layer="639" from-port="2" to-layer="640" to-port="1"/>
		<edge from-layer="640" from-port="2" to-layer="642" to-port="0"/>
		<edge from-layer="641" from-port="0" to-layer="642" to-port="1"/>
		<edge from-layer="642" from-port="2" to-layer="644" to-port="0"/>
		<edge from-layer="643" from-port="0" to-layer="644" to-port="1"/>
		<edge from-layer="644" from-port="2" to-layer="645" to-port="0"/>
		<edge from-layer="645" from-port="1" to-layer="646" to-port="1"/>
		<edge from-layer="646" from-port="2" to-layer="647" to-port="1"/>
		<edge from-layer="647" from-port="2" to-layer="648" to-port="1"/>
		<edge from-layer="648" from-port="2" to-layer="649" to-port="0"/>
		<edge from-layer="648" from-port="2" to-layer="663" to-port="0"/>
		<edge from-layer="649" from-port="1" to-layer="650" to-port="0"/>
		<edge from-layer="650" from-port="1" to-layer="652" to-port="0"/>
		<edge from-layer="651" from-port="0" to-layer="652" to-port="1"/>
		<edge from-layer="652" from-port="2" to-layer="654" to-port="0"/>
		<edge from-layer="653" from-port="0" to-layer="654" to-port="1"/>
		<edge from-layer="654" from-port="2" to-layer="655" to-port="0"/>
		<edge from-layer="655" from-port="1" to-layer="656" to-port="0"/>
		<edge from-layer="656" from-port="1" to-layer="660" to-port="0"/>
		<edge from-layer="657" from-port="0" to-layer="660" to-port="1"/>
		<edge from-layer="658" from-port="0" to-layer="660" to-port="2"/>
		<edge from-layer="659" from-port="0" to-layer="660" to-port="3"/>
		<edge from-layer="660" from-port="4" to-layer="663" to-port="1"/>
		<edge from-layer="661" from-port="0" to-layer="663" to-port="2"/>
		<edge from-layer="662" from-port="0" to-layer="663" to-port="3"/>
		<edge from-layer="663" from-port="4" to-layer="680" to-port="0"/>
		<edge from-layer="664" from-port="0" to-layer="680" to-port="1"/>
		<edge from-layer="665" from-port="0" to-layer="678" to-port="0"/>
		<edge from-layer="666" from-port="0" to-layer="678" to-port="1"/>
		<edge from-layer="667" from-port="1" to-layer="670" to-port="0"/>
		<edge from-layer="668" from-port="0" to-layer="670" to-port="1"/>
		<edge from-layer="669" from-port="0" to-layer="670" to-port="2"/>
		<edge from-layer="670" from-port="3" to-layer="672" to-port="0"/>
		<edge from-layer="671" from-port="0" to-layer="672" to-port="1"/>
		<edge from-layer="672" from-port="2" to-layer="673" to-port="0"/>
		<edge from-layer="673" from-port="1" to-layer="676" to-port="0"/>
		<edge from-layer="674" from-port="0" to-layer="676" to-port="1"/>
		<edge from-layer="675" from-port="0" to-layer="676" to-port="2"/>
		<edge from-layer="676" from-port="3" to-layer="678" to-port="2"/>
		<edge from-layer="677" from-port="0" to-layer="678" to-port="3"/>
		<edge from-layer="678" from-port="4" to-layer="680" to-port="2"/>
		<edge from-layer="679" from-port="0" to-layer="680" to-port="3"/>
		<edge from-layer="680" from-port="4" to-layer="697" to-port="0"/>
		<edge from-layer="681" from-port="0" to-layer="697" to-port="1"/>
		<edge from-layer="682" from-port="0" to-layer="695" to-port="0"/>
		<edge from-layer="683" from-port="0" to-layer="695" to-port="1"/>
		<edge from-layer="684" from-port="0" to-layer="695" to-port="2"/>
		<edge from-layer="685" from-port="1" to-layer="688" to-port="0"/>
		<edge from-layer="686" from-port="0" to-layer="688" to-port="1"/>
		<edge from-layer="687" from-port="0" to-layer="688" to-port="2"/>
		<edge from-layer="688" from-port="3" to-layer="690" to-port="0"/>
		<edge from-layer="689" from-port="0" to-layer="690" to-port="1"/>
		<edge from-layer="690" from-port="2" to-layer="691" to-port="0"/>
		<edge from-layer="691" from-port="1" to-layer="694" to-port="0"/>
		<edge from-layer="692" from-port="0" to-layer="694" to-port="1"/>
		<edge from-layer="693" from-port="0" to-layer="694" to-port="2"/>
		<edge from-layer="694" from-port="3" to-layer="695" to-port="3"/>
		<edge from-layer="695" from-port="4" to-layer="697" to-port="2"/>
		<edge from-layer="696" from-port="0" to-layer="697" to-port="3"/>
		<edge from-layer="697" from-port="4" to-layer="698" to-port="0"/>
		<edge from-layer="698" from-port="3" to-layer="700" to-port="0"/>
		<edge from-layer="699" from-port="0" to-layer="700" to-port="1"/>
		<edge from-layer="700" from-port="2" to-layer="702" to-port="0"/>
		<edge from-layer="701" from-port="0" to-layer="702" to-port="1"/>
		<edge from-layer="702" from-port="2" to-layer="703" to-port="0"/>
		<edge from-layer="703" from-port="1" to-layer="706" to-port="0"/>
		<edge from-layer="704" from-port="0" to-layer="706" to-port="1"/>
		<edge from-layer="705" from-port="0" to-layer="706" to-port="2"/>
		<edge from-layer="706" from-port="4" to-layer="709" to-port="0"/>
		<edge from-layer="706" from-port="4" to-layer="744" to-port="0"/>
		<edge from-layer="706" from-port="4" to-layer="756" to-port="0"/>
		<edge from-layer="706" from-port="3" to-layer="764" to-port="0"/>
		<edge from-layer="706" from-port="4" to-layer="715" to-port="0"/>
		<edge from-layer="706" from-port="4" to-layer="724" to-port="0"/>
		<edge from-layer="706" from-port="4" to-layer="733" to-port="0"/>
		<edge from-layer="707" from-port="0" to-layer="753" to-port="0"/>
		<edge from-layer="708" from-port="0" to-layer="743" to-port="0"/>
		<edge from-layer="709" from-port="1" to-layer="712" to-port="0"/>
		<edge from-layer="710" from-port="0" to-layer="712" to-port="1"/>
		<edge from-layer="711" from-port="0" to-layer="712" to-port="2"/>
		<edge from-layer="712" from-port="3" to-layer="714" to-port="0"/>
		<edge from-layer="713" from-port="0" to-layer="714" to-port="1"/>
		<edge from-layer="714" from-port="2" to-layer="742" to-port="0"/>
		<edge from-layer="715" from-port="1" to-layer="719" to-port="0"/>
		<edge from-layer="716" from-port="0" to-layer="719" to-port="1"/>
		<edge from-layer="717" from-port="0" to-layer="719" to-port="2"/>
		<edge from-layer="718" from-port="0" to-layer="719" to-port="3"/>
		<edge from-layer="719" from-port="4" to-layer="721" to-port="0"/>
		<edge from-layer="720" from-port="0" to-layer="721" to-port="1"/>
		<edge from-layer="721" from-port="2" to-layer="723" to-port="0"/>
		<edge from-layer="722" from-port="0" to-layer="723" to-port="1"/>
		<edge from-layer="723" from-port="2" to-layer="742" to-port="1"/>
		<edge from-layer="724" from-port="1" to-layer="728" to-port="0"/>
		<edge from-layer="725" from-port="0" to-layer="728" to-port="1"/>
		<edge from-layer="726" from-port="0" to-layer="728" to-port="2"/>
		<edge from-layer="727" from-port="0" to-layer="728" to-port="3"/>
		<edge from-layer="728" from-port="4" to-layer="730" to-port="0"/>
		<edge from-layer="729" from-port="0" to-layer="730" to-port="1"/>
		<edge from-layer="730" from-port="2" to-layer="732" to-port="0"/>
		<edge from-layer="731" from-port="0" to-layer="732" to-port="1"/>
		<edge from-layer="732" from-port="2" to-layer="742" to-port="2"/>
		<edge from-layer="733" from-port="1" to-layer="737" to-port="0"/>
		<edge from-layer="734" from-port="0" to-layer="737" to-port="1"/>
		<edge from-layer="735" from-port="0" to-layer="737" to-port="2"/>
		<edge from-layer="736" from-port="0" to-layer="737" to-port="3"/>
		<edge from-layer="737" from-port="4" to-layer="739" to-port="0"/>
		<edge from-layer="738" from-port="0" to-layer="739" to-port="1"/>
		<edge from-layer="739" from-port="2" to-layer="741" to-port="0"/>
		<edge from-layer="740" from-port="0" to-layer="741" to-port="1"/>
		<edge from-layer="741" from-port="2" to-layer="742" to-port="3"/>
		<edge from-layer="742" from-port="4" to-layer="743" to-port="1"/>
		<edge from-layer="743" from-port="2" to-layer="744" to-port="1"/>
		<edge from-layer="743" from-port="2" to-layer="755" to-port="1"/>
		<edge from-layer="743" from-port="2" to-layer="754" to-port="1"/>
		<edge from-layer="744" from-port="2" to-layer="746" to-port="0"/>
		<edge from-layer="745" from-port="0" to-layer="746" to-port="1"/>
		<edge from-layer="746" from-port="2" to-layer="748" to-port="0"/>
		<edge from-layer="747" from-port="0" to-layer="748" to-port="1"/>
		<edge from-layer="748" from-port="2" to-layer="749" to-port="0"/>
		<edge from-layer="749" from-port="1" to-layer="752" to-port="0"/>
		<edge from-layer="750" from-port="0" to-layer="752" to-port="1"/>
		<edge from-layer="751" from-port="0" to-layer="752" to-port="2"/>
		<edge from-layer="752" from-port="4" to-layer="753" to-port="1"/>
		<edge from-layer="752" from-port="4" to-layer="762" to-port="0"/>
		<edge from-layer="752" from-port="3" to-layer="755" to-port="0"/>
		<edge from-layer="753" from-port="2" to-layer="754" to-port="0"/>
		<edge from-layer="754" from-port="2" to-layer="763" to-port="0"/>
		<edge from-layer="755" from-port="2" to-layer="756" to-port="1"/>
		<edge from-layer="756" from-port="2" to-layer="758" to-port="0"/>
		<edge from-layer="757" from-port="0" to-layer="758" to-port="1"/>
		<edge from-layer="758" from-port="2" to-layer="760" to-port="0"/>
		<edge from-layer="759" from-port="0" to-layer="760" to-port="1"/>
		<edge from-layer="760" from-port="2" to-layer="761" to-port="0"/>
		<edge from-layer="761" from-port="1" to-layer="762" to-port="1"/>
		<edge from-layer="762" from-port="2" to-layer="763" to-port="1"/>
		<edge from-layer="763" from-port="2" to-layer="764" to-port="1"/>
		<edge from-layer="764" from-port="2" to-layer="779" to-port="0"/>
		<edge from-layer="764" from-port="2" to-layer="765" to-port="0"/>
		<edge from-layer="765" from-port="1" to-layer="766" to-port="0"/>
		<edge from-layer="766" from-port="1" to-layer="768" to-port="0"/>
		<edge from-layer="767" from-port="0" to-layer="768" to-port="1"/>
		<edge from-layer="768" from-port="2" to-layer="770" to-port="0"/>
		<edge from-layer="769" from-port="0" to-layer="770" to-port="1"/>
		<edge from-layer="770" from-port="2" to-layer="771" to-port="0"/>
		<edge from-layer="771" from-port="1" to-layer="772" to-port="0"/>
		<edge from-layer="772" from-port="1" to-layer="776" to-port="0"/>
		<edge from-layer="773" from-port="0" to-layer="776" to-port="1"/>
		<edge from-layer="774" from-port="0" to-layer="776" to-port="2"/>
		<edge from-layer="775" from-port="0" to-layer="776" to-port="3"/>
		<edge from-layer="776" from-port="4" to-layer="779" to-port="1"/>
		<edge from-layer="777" from-port="0" to-layer="779" to-port="2"/>
		<edge from-layer="778" from-port="0" to-layer="779" to-port="3"/>
		<edge from-layer="779" from-port="4" to-layer="796" to-port="0"/>
		<edge from-layer="780" from-port="0" to-layer="796" to-port="1"/>
		<edge from-layer="781" from-port="0" to-layer="794" to-port="0"/>
		<edge from-layer="782" from-port="0" to-layer="794" to-port="1"/>
		<edge from-layer="783" from-port="1" to-layer="786" to-port="0"/>
		<edge from-layer="784" from-port="0" to-layer="786" to-port="1"/>
		<edge from-layer="785" from-port="0" to-layer="786" to-port="2"/>
		<edge from-layer="786" from-port="3" to-layer="788" to-port="0"/>
		<edge from-layer="787" from-port="0" to-layer="788" to-port="1"/>
		<edge from-layer="788" from-port="2" to-layer="789" to-port="0"/>
		<edge from-layer="789" from-port="1" to-layer="792" to-port="0"/>
		<edge from-layer="790" from-port="0" to-layer="792" to-port="1"/>
		<edge from-layer="791" from-port="0" to-layer="792" to-port="2"/>
		<edge from-layer="792" from-port="3" to-layer="794" to-port="2"/>
		<edge from-layer="793" from-port="0" to-layer="794" to-port="3"/>
		<edge from-layer="794" from-port="4" to-layer="796" to-port="2"/>
		<edge from-layer="795" from-port="0" to-layer="796" to-port="3"/>
		<edge from-layer="796" from-port="4" to-layer="813" to-port="0"/>
		<edge from-layer="797" from-port="0" to-layer="813" to-port="1"/>
		<edge from-layer="798" from-port="0" to-layer="811" to-port="0"/>
		<edge from-layer="799" from-port="0" to-layer="811" to-port="1"/>
		<edge from-layer="800" from-port="0" to-layer="811" to-port="2"/>
		<edge from-layer="801" from-port="1" to-layer="804" to-port="0"/>
		<edge from-layer="802" from-port="0" to-layer="804" to-port="1"/>
		<edge from-layer="803" from-port="0" to-layer="804" to-port="2"/>
		<edge from-layer="804" from-port="3" to-layer="806" to-port="0"/>
		<edge from-layer="805" from-port="0" to-layer="806" to-port="1"/>
		<edge from-layer="806" from-port="2" to-layer="807" to-port="0"/>
		<edge from-layer="807" from-port="1" to-layer="810" to-port="0"/>
		<edge from-layer="808" from-port="0" to-layer="810" to-port="1"/>
		<edge from-layer="809" from-port="0" to-layer="810" to-port="2"/>
		<edge from-layer="810" from-port="3" to-layer="811" to-port="3"/>
		<edge from-layer="811" from-port="4" to-layer="813" to-port="2"/>
		<edge from-layer="812" from-port="0" to-layer="813" to-port="3"/>
		<edge from-layer="813" from-port="4" to-layer="814" to-port="0"/>
		<edge from-layer="814" from-port="2" to-layer="816" to-port="0"/>
		<edge from-layer="815" from-port="0" to-layer="816" to-port="1"/>
		<edge from-layer="816" from-port="2" to-layer="818" to-port="0"/>
		<edge from-layer="817" from-port="0" to-layer="818" to-port="1"/>
		<edge from-layer="818" from-port="2" to-layer="819" to-port="0"/>
		<edge from-layer="819" from-port="1" to-layer="821" to-port="0"/>
		<edge from-layer="820" from-port="0" to-layer="821" to-port="1"/>
		<edge from-layer="821" from-port="2" to-layer="823" to-port="0"/>
		<edge from-layer="822" from-port="0" to-layer="823" to-port="1"/>
		<edge from-layer="823" from-port="2" to-layer="824" to-port="0"/>
		<edge from-layer="824" from-port="1" to-layer="826" to-port="0"/>
		<edge from-layer="824" from-port="1" to-layer="847" to-port="2"/>
		<edge from-layer="825" from-port="0" to-layer="826" to-port="1"/>
		<edge from-layer="826" from-port="2" to-layer="828" to-port="0"/>
		<edge from-layer="827" from-port="0" to-layer="828" to-port="1"/>
		<edge from-layer="828" from-port="2" to-layer="831" to-port="0"/>
		<edge from-layer="829" from-port="0" to-layer="831" to-port="1"/>
		<edge from-layer="830" from-port="0" to-layer="831" to-port="2"/>
		<edge from-layer="831" from-port="4" to-layer="832" to-port="1"/>
		<edge from-layer="831" from-port="3" to-layer="832" to-port="0"/>
		<edge from-layer="832" from-port="2" to-layer="839" to-port="0"/>
		<edge from-layer="832" from-port="2" to-layer="833" to-port="1"/>
		<edge from-layer="833" from-port="2" to-layer="835" to-port="0"/>
		<edge from-layer="834" from-port="0" to-layer="835" to-port="1"/>
		<edge from-layer="835" from-port="2" to-layer="841" to-port="0"/>
		<edge from-layer="836" from-port="0" to-layer="837" to-port="1"/>
		<edge from-layer="837" from-port="2" to-layer="840" to-port="0"/>
		<edge from-layer="837" from-port="2" to-layer="845" to-port="0"/>
		<edge from-layer="837" from-port="2" to-layer="845" to-port="1"/>
		<edge from-layer="837" from-port="2" to-layer="901" to-port="1"/>
		<edge from-layer="838" from-port="0" to-layer="839" to-port="1"/>
		<edge from-layer="839" from-port="2" to-layer="840" to-port="1"/>
		<edge from-layer="839" from-port="2" to-layer="902" to-port="0"/>
		<edge from-layer="840" from-port="2" to-layer="841" to-port="1"/>
		<edge from-layer="841" from-port="2" to-layer="847" to-port="0"/>
		<edge from-layer="842" from-port="2" to-layer="844" to-port="0"/>
		<edge from-layer="843" from-port="0" to-layer="844" to-port="1"/>
		<edge from-layer="844" from-port="2" to-layer="846" to-port="0"/>
		<edge from-layer="845" from-port="2" to-layer="846" to-port="1"/>
		<edge from-layer="846" from-port="2" to-layer="847" to-port="1"/>
		<edge from-layer="847" from-port="3" to-layer="849" to-port="0"/>
		<edge from-layer="848" from-port="0" to-layer="849" to-port="1"/>
		<edge from-layer="849" from-port="2" to-layer="851" to-port="0"/>
		<edge from-layer="850" from-port="0" to-layer="851" to-port="1"/>
		<edge from-layer="851" from-port="2" to-layer="852" to-port="0"/>
		<edge from-layer="852" from-port="1" to-layer="854" to-port="0"/>
		<edge from-layer="853" from-port="0" to-layer="854" to-port="1"/>
		<edge from-layer="854" from-port="2" to-layer="856" to-port="0"/>
		<edge from-layer="855" from-port="0" to-layer="856" to-port="1"/>
		<edge from-layer="856" from-port="2" to-layer="857" to-port="0"/>
		<edge from-layer="857" from-port="1" to-layer="859" to-port="0"/>
		<edge from-layer="858" from-port="0" to-layer="859" to-port="1"/>
		<edge from-layer="859" from-port="2" to-layer="861" to-port="0"/>
		<edge from-layer="860" from-port="0" to-layer="861" to-port="1"/>
		<edge from-layer="861" from-port="2" to-layer="862" to-port="0"/>
		<edge from-layer="861" from-port="2" to-layer="896" to-port="0"/>
		<edge from-layer="861" from-port="2" to-layer="886" to-port="0"/>
		<edge from-layer="861" from-port="2" to-layer="901" to-port="0"/>
		<edge from-layer="862" from-port="1" to-layer="866" to-port="0"/>
		<edge from-layer="863" from-port="0" to-layer="866" to-port="1"/>
		<edge from-layer="864" from-port="0" to-layer="866" to-port="2"/>
		<edge from-layer="865" from-port="0" to-layer="866" to-port="3"/>
		<edge from-layer="866" from-port="4" to-layer="880" to-port="0"/>
		<edge from-layer="867" from-port="1" to-layer="870" to-port="0"/>
		<edge from-layer="868" from-port="0" to-layer="870" to-port="1"/>
		<edge from-layer="869" from-port="0" to-layer="870" to-port="2"/>
		<edge from-layer="870" from-port="3" to-layer="872" to-port="0"/>
		<edge from-layer="870" from-port="3" to-layer="909" to-port="0"/>
		<edge from-layer="871" from-port="0" to-layer="872" to-port="1"/>
		<edge from-layer="872" from-port="2" to-layer="879" to-port="0"/>
		<edge from-layer="873" from-port="1" to-layer="876" to-port="0"/>
		<edge from-layer="874" from-port="0" to-layer="876" to-port="1"/>
		<edge from-layer="875" from-port="0" to-layer="876" to-port="2"/>
		<edge from-layer="876" from-port="3" to-layer="878" to-port="0"/>
		<edge from-layer="876" from-port="3" to-layer="911" to-port="0"/>
		<edge from-layer="877" from-port="0" to-layer="878" to-port="1"/>
		<edge from-layer="878" from-port="2" to-layer="879" to-port="1"/>
		<edge from-layer="879" from-port="2" to-layer="880" to-port="1"/>
		<edge from-layer="880" from-port="2" to-layer="884" to-port="0"/>
		<edge from-layer="880" from-port="2" to-layer="885" to-port="0"/>
		<edge from-layer="881" from-port="0" to-layer="884" to-port="1"/>
		<edge from-layer="882" from-port="0" to-layer="884" to-port="2"/>
		<edge from-layer="883" from-port="0" to-layer="884" to-port="3"/>
		<edge from-layer="884" from-port="4" to-layer="896" to-port="1"/>
		<edge from-layer="885" from-port="1" to-layer="888" to-port="0"/>
		<edge from-layer="886" from-port="1" to-layer="887" to-port="0"/>
		<edge from-layer="887" from-port="1" to-layer="888" to-port="1"/>
		<edge from-layer="888" from-port="2" to-layer="890" to-port="0"/>
		<edge from-layer="889" from-port="0" to-layer="890" to-port="1"/>
		<edge from-layer="890" from-port="2" to-layer="894" to-port="0"/>
		<edge from-layer="891" from-port="0" to-layer="894" to-port="1"/>
		<edge from-layer="892" from-port="0" to-layer="894" to-port="2"/>
		<edge from-layer="893" from-port="0" to-layer="894" to-port="3"/>
		<edge from-layer="894" from-port="4" to-layer="896" to-port="2"/>
		<edge from-layer="895" from-port="0" to-layer="896" to-port="3"/>
		<edge from-layer="896" from-port="4" to-layer="900" to-port="0"/>
		<edge from-layer="897" from-port="0" to-layer="898" to-port="1"/>
		<edge from-layer="898" from-port="2" to-layer="899" to-port="1"/>
		<edge from-layer="899" from-port="2" to-layer="900" to-port="1"/>
		<edge from-layer="900" from-port="2" to-layer="930" to-port="0"/>
		<edge from-layer="901" from-port="2" to-layer="902" to-port="1"/>
		<edge from-layer="902" from-port="2" to-layer="903" to-port="0"/>
		<edge from-layer="902" from-port="2" to-layer="919" to-port="0"/>
		<edge from-layer="902" from-port="2" to-layer="929" to-port="0"/>
		<edge from-layer="903" from-port="1" to-layer="907" to-port="0"/>
		<edge from-layer="904" from-port="0" to-layer="907" to-port="1"/>
		<edge from-layer="905" from-port="0" to-layer="907" to-port="2"/>
		<edge from-layer="906" from-port="0" to-layer="907" to-port="3"/>
		<edge from-layer="907" from-port="4" to-layer="913" to-port="0"/>
		<edge from-layer="908" from-port="0" to-layer="909" to-port="1"/>
		<edge from-layer="909" from-port="2" to-layer="912" to-port="0"/>
		<edge from-layer="910" from-port="0" to-layer="911" to-port="1"/>
		<edge from-layer="911" from-port="2" to-layer="912" to-port="1"/>
		<edge from-layer="912" from-port="2" to-layer="913" to-port="1"/>
		<edge from-layer="913" from-port="2" to-layer="917" to-port="0"/>
		<edge from-layer="913" from-port="2" to-layer="918" to-port="0"/>
		<edge from-layer="914" from-port="0" to-layer="917" to-port="1"/>
		<edge from-layer="915" from-port="0" to-layer="917" to-port="2"/>
		<edge from-layer="916" from-port="0" to-layer="917" to-port="3"/>
		<edge from-layer="917" from-port="4" to-layer="929" to-port="1"/>
		<edge from-layer="918" from-port="1" to-layer="921" to-port="0"/>
		<edge from-layer="919" from-port="1" to-layer="920" to-port="0"/>
		<edge from-layer="920" from-port="1" to-layer="921" to-port="1"/>
		<edge from-layer="921" from-port="2" to-layer="923" to-port="0"/>
		<edge from-layer="922" from-port="0" to-layer="923" to-port="1"/>
		<edge from-layer="923" from-port="2" to-layer="927" to-port="0"/>
		<edge from-layer="924" from-port="0" to-layer="927" to-port="1"/>
		<edge from-layer="925" from-port="0" to-layer="927" to-port="2"/>
		<edge from-layer="926" from-port="0" to-layer="927" to-port="3"/>
		<edge from-layer="927" from-port="4" to-layer="929" to-port="2"/>
		<edge from-layer="928" from-port="0" to-layer="929" to-port="3"/>
		<edge from-layer="929" from-port="4" to-layer="930" to-port="1"/>
		<edge from-layer="930" from-port="2" to-layer="933" to-port="0"/>
		<edge from-layer="931" from-port="0" to-layer="933" to-port="1"/>
		<edge from-layer="932" from-port="0" to-layer="933" to-port="2"/>
		<edge from-layer="933" from-port="4" to-layer="934" to-port="0"/>
		<edge from-layer="934" from-port="1" to-layer="935" to-port="0"/>
	</edges>
	<meta_data>
		<MO_version value="2021.4.0-3839-cd81789d294-releases/2021/4"/>
		<cli_parameters>
			<caffe_parser_path value="DIR"/>
			<data_type value="FP16"/>
			<disable_nhwc_to_nchw value="False"/>
			<disable_omitting_optional value="False"/>
			<disable_resnet_optimization value="False"/>
			<disable_weights_compression value="False"/>
			<enable_concat_optimization value="False"/>
			<enable_flattening_nested_params value="False"/>
			<enable_ssd_gluoncv value="False"/>
			<extensions value="DIR"/>
			<framework value="onnx"/>
			<freeze_placeholder_with_value value="{}"/>
			<generate_deprecated_IR_V7 value="False"/>
			<input value="src"/>
			<input_model value="DIR\robust.onnx"/>
			<input_model_is_text value="False"/>
			<input_shape value="[1,3,1080,1920]"/>
			<k value="DIR\CustomLayersMapping.xml"/>
			<keep_shape_ops value="True"/>
			<legacy_ir_generation value="False"/>
			<legacy_mxnet_model value="False"/>
			<log_level value="ERROR"/>
			<mean_scale_values value="{'src': {'mean': None, 'scale': array([255., 255., 255.])}}"/>
			<mean_values value="()"/>
			<model_name value="robust"/>
			<output value="['pha']"/>
			<output_dir value="DIR"/>
			<placeholder_data_types value="{}"/>
			<placeholder_shapes value="{'src': array([   1,    3, 1080, 1920], dtype=int64)}"/>
			<progress value="False"/>
			<remove_memory value="False"/>
			<remove_output_softmax value="False"/>
			<reverse_input_channels value="True"/>
			<save_params_from_nd value="False"/>
			<scale_values value="src[255,255,255]"/>
			<silent value="False"/>
			<static_shape value="False"/>
			<stream_output value="False"/>
			<transform value=""/>
			<unset unset_cli_parameters="batch, counts, disable_fusing, disable_gfusing, finegrain_fusing, input_checkpoint, input_meta_graph, input_proto, input_symbol, mean_file, mean_file_offsets, move_to_preprocess, nd_prefix_name, pretrained_model_name, saved_model_dir, saved_model_tags, scale, tensorboard_logdir, tensorflow_custom_layer_libraries, tensorflow_custom_operations_config_update, tensorflow_object_detection_api_pipeline_config, tensorflow_use_custom_operations_config, transformations_config"/>
		</cli_parameters>
	</meta_data>
</net>
