<?xml version="1.0" ?>
<net name="robust" version="10">
	<layers>
		<layer id="0" name="src" type="Parameter" version="opset1">
			<data element_type="f16" shape="1, 3, 1080, 1920"/>
			<output>
				<port id="0" names="src" precision="FP16">
					<dim>1</dim>
					<dim>3</dim>
					<dim>1080</dim>
					<dim>1920</dim>
				</port>
			</output>
		</layer>
		<layer id="1" name="src/reverse_input_channels36042/Split_input_port_1/value3605640700" type="Const" version="opset1">
			<data element_type="i64" offset="0" shape="" size="8"/>
			<output>
				<port id="0" precision="I64"/>
			</output>
		</layer>
		<layer id="2" name="src/reverse_input_channels36042/Split" type="Split" version="opset1">
			<data num_splits="3"/>
			<input>
				<port id="0" precision="FP16">
					<dim>1</dim>
					<dim>3</dim>
					<dim>1080</dim>
					<dim>1920</dim>
				</port>
				<port id="1" precision="I64"/>
			</input>
			<output>
				<port id="2" precision="FP16">
					<dim>1</dim>
					<dim>1</dim>
					<dim>1080</dim>
					<dim>1920</dim>
				</port>
				<port id="3" precision="FP16">
					<dim>1</dim>
					<dim>1</dim>
					<dim>1080</dim>
					<dim>1920</dim>
				</port>
				<port id="4" precision="FP16">
					<dim>1</dim>
					<dim>1</dim>
					<dim>1080</dim>
					<dim>1920</dim>
				</port>
			</output>
		</layer>
		<layer id="3" name="src/reverse_input_channels36042/Concat" type="Concat" version="opset1">
			<data axis="1"/>
			<input>
				<port id="0" precision="FP16">
					<dim>1</dim>
					<dim>1</dim>
					<dim>1080</dim>
					<dim>1920</dim>
				</port>
				<port id="1" precision="FP16">
					<dim>1</dim>
					<dim>1</dim>
					<dim>1080</dim>
					<dim>1920</dim>
				</port>
				<port id="2" precision="FP16">
					<dim>1</dim>
					<dim>1</dim>
					<dim>1080</dim>
					<dim>1920</dim>
				</port>
			</input>
			<output>
				<port id="3" precision="FP16">
					<dim>1</dim>
					<dim>3</dim>
					<dim>1080</dim>
					<dim>1920</dim>
				</port>
			</output>
		</layer>
		<layer id="4" name="src/scale_input_port_1/value3843" type="Const" version="opset1">
			<data element_type="f16" offset="8" shape="1, 3, 1, 1" size="6"/>
			<output>
				<port id="0" precision="FP16">
					<dim>1</dim>
					<dim>3</dim>
					<dim>1</dim>
					<dim>1</dim>
				</port>
			</output>
		</layer>
		<layer id="5" name="src/scale" type="Multiply" version="opset1">
			<data auto_broadcast="numpy"/>
			<input>
				<port id="0" precision="FP16">
					<dim>1</dim>
					<dim>3</dim>
					<dim>1080</dim>
					<dim>1920</dim>
				</port>
				<port id="1" precision="FP16">
					<dim>1</dim>
					<dim>3</dim>
					<dim>1</dim>
					<dim>1</dim>
				</port>
			</input>
			<output>
				<port id="2" precision="FP16">
					<dim>1</dim>
					<dim>3</dim>
					<dim>1080</dim>
					<dim>1920</dim>
				</port>
			</output>
		</layer>
		<layer id="6" name="Resize_1/ShapeOf" type="ShapeOf" version="opset3">
			<data output_type="i64"/>
			<input>
				<port id="0" precision="FP16">
					<dim>1</dim>
					<dim>3</dim>
					<dim>1080</dim>
					<dim>1920</dim>
				</port>
			</input>
			<output>
				<port id="1" precision="I64">
					<dim>4</dim>
				</port>
			</output>
		</layer>
		<layer id="7" name="7163" type="Convert" version="opset1">
			<data destination_type="f32"/>
			<input>
				<port id="0" precision="I64">
					<dim>4</dim>
				</port>
			</input>
			<output>
				<port id="1" precision="FP32">
					<dim>4</dim>
				</port>
			</output>
		</layer>
		<layer id="8" name="1247" type="Const" version="opset1">
			<data element_type="f32" offset="14" shape="4" size="16"/>
			<output>
				<port id="0" names="1247" precision="FP32">
					<dim>4</dim>
				</port>
			</output>
		</layer>
		<layer id="9" name="Resize_1/Mul" type="Multiply" version="opset1">
			<data auto_broadcast="numpy"/>
			<input>
				<port id="0" precision="FP32">
					<dim>4</dim>
				</port>
				<port id="1" precision="FP32">
					<dim>4</dim>
				</port>
			</input>
			<output>
				<port id="2" precision="FP32">
					<dim>4</dim>
				</port>
			</output>
		</layer>
		<layer id="10" name="Resize_1/Add_input_port_1/value716240958" type="Const" version="opset1">
			<data element_type="f32" offset="30" shape="1" size="4"/>
			<output>
				<port id="0" precision="FP32">
					<dim>1</dim>
				</port>
			</output>
		</layer>
		<layer id="11" name="Resize_1/Add" type="Add" version="opset1">
			<data auto_broadcast="numpy"/>
			<input>
				<port id="0" precision="FP32">
					<dim>4</dim>
				</port>
				<port id="1" precision="FP32">
					<dim>1</dim>
				</port>
			</input>
			<output>
				<port id="2" precision="FP32">
					<dim>4</dim>
				</port>
			</output>
		</layer>
		<layer id="12" name="Resize_1/Floor" type="Floor" version="opset1">
			<input>
				<port id="0" precision="FP32">
					<dim>4</dim>
				</port>
			</input>
			<output>
				<port id="1" precision="FP32">
					<dim>4</dim>
				</port>
			</output>
		</layer>
		<layer id="13" name="7167" type="Convert" version="opset1">
			<data destination_type="i64"/>
			<input>
				<port id="0" precision="FP32">
					<dim>4</dim>
				</port>
			</input>
			<output>
				<port id="1" precision="I64">
					<dim>4</dim>
				</port>
			</output>
		</layer>
		<layer id="14" name="Resize_1/StridedSlice_sizes_input_port_1/value714441222" type="Const" version="opset1">
			<data element_type="i64" offset="34" shape="1" size="8"/>
			<output>
				<port id="0" precision="I64">
					<dim>1</dim>
				</port>
			</output>
		</layer>
		<layer id="15" name="Resize_1/StridedSlice_sizes_input_port_2/value714641219" type="Const" version="opset1">
			<data element_type="i64" offset="42" shape="1" size="8"/>
			<output>
				<port id="0" precision="I64">
					<dim>1</dim>
				</port>
			</output>
		</layer>
		<layer id="16" name="Resize_1/StridedSlice_sizes_input_port_3/value714841075" type="Const" version="opset1">
			<data element_type="i64" offset="0" shape="1" size="8"/>
			<output>
				<port id="0" precision="I64">
					<dim>1</dim>
				</port>
			</output>
		</layer>
		<layer id="17" name="Resize_1/StridedSlice_sizes" type="StridedSlice" version="opset1">
			<data begin_mask="0" ellipsis_mask="0" end_mask="0" new_axis_mask="0" shrink_axis_mask="0"/>
			<input>
				<port id="0" precision="I64">
					<dim>4</dim>
				</port>
				<port id="1" precision="I64">
					<dim>1</dim>
				</port>
				<port id="2" precision="I64">
					<dim>1</dim>
				</port>
				<port id="3" precision="I64">
					<dim>1</dim>
				</port>
			</input>
			<output>
				<port id="4" precision="I64">
					<dim>2</dim>
				</port>
			</output>
		</layer>
		<layer id="18" name="Resize_1/StridedSlice_scales717440298" type="Const" version="opset1">
			<data element_type="f32" offset="50" shape="2" size="8"/>
			<output>
				<port id="0" precision="FP32">
					<dim>2</dim>
				</port>
			</output>
		</layer>
		<layer id="19" name="Resize_1/axis715840616" type="Const" version="opset1">
			<data element_type="i64" offset="58" shape="2" size="16"/>
			<output>
				<port id="0" precision="I64">
					<dim>2</dim>
				</port>
			</output>
		</layer>
		<layer id="20" name="Resize_1" type="Interpolate" version="opset4">
			<data antialias="false" coordinate_transformation_mode="pytorch_half_pixel" cube_coeff="-0.75" mode="linear_onnx" nearest_mode="floor" pads_begin="0, 0, 0, 0" pads_end="0, 0, 0, 0" shape_calculation_mode="scales"/>
			<input>
				<port id="0" precision="FP16">
					<dim>1</dim>
					<dim>3</dim>
					<dim>1080</dim>
					<dim>1920</dim>
				</port>
				<port id="1" precision="I64">
					<dim>2</dim>
				</port>
				<port id="2" precision="FP32">
					<dim>2</dim>
				</port>
				<port id="3" precision="I64">
					<dim>2</dim>
				</port>
			</input>
			<output>
				<port id="4" names="385" precision="FP16">
					<dim>1</dim>
					<dim>3</dim>
					<dim>270</dim>
					<dim>480</dim>
				</port>
			</output>
		</layer>
		<layer id="21" name="ReduceMean_532/axis" type="Const" version="opset1">
			<data element_type="i64" offset="0" shape="1" size="8"/>
			<output>
				<port id="0" precision="I64">
					<dim>1</dim>
				</port>
			</output>
		</layer>
		<layer id="22" name="ReduceMean_532" type="ReduceMean" version="opset1">
			<data keep_dims="true"/>
			<input>
				<port id="0" precision="FP16">
					<dim>1</dim>
					<dim>3</dim>
					<dim>270</dim>
					<dim>480</dim>
				</port>
				<port id="1" precision="I64">
					<dim>1</dim>
				</port>
			</input>
			<output>
				<port id="2" names="1021" precision="FP16">
					<dim>1</dim>
					<dim>1</dim>
					<dim>270</dim>
					<dim>480</dim>
				</port>
			</output>
		</layer>
		<layer id="23" name="Concat_533" type="Concat" version="opset1">
			<data axis="1"/>
			<input>
				<port id="0" precision="FP16">
					<dim>1</dim>
					<dim>3</dim>
					<dim>270</dim>
					<dim>480</dim>
				</port>
				<port id="1" precision="FP16">
					<dim>1</dim>
					<dim>1</dim>
					<dim>270</dim>
					<dim>480</dim>
				</port>
			</input>
			<output>
				<port id="2" names="1022" precision="FP16">
					<dim>1</dim>
					<dim>4</dim>
					<dim>270</dim>
					<dim>480</dim>
				</port>
			</output>
		</layer>
		<layer id="24" name="data_mul_16530" type="Const" version="opset1">
			<data element_type="f16" offset="74" shape="1, 3, 1, 1" size="6"/>
			<output>
				<port id="0" precision="FP16">
					<dim>1</dim>
					<dim>3</dim>
					<dim>1</dim>
					<dim>1</dim>
				</port>
			</output>
		</layer>
		<layer id="25" name="Div_5/Fused_Mul_" type="Multiply" version="opset1">
			<data auto_broadcast="numpy"/>
			<input>
				<port id="0" precision="FP16">
					<dim>1</dim>
					<dim>3</dim>
					<dim>270</dim>
					<dim>480</dim>
				</port>
				<port id="1" precision="FP16">
					<dim>1</dim>
					<dim>3</dim>
					<dim>1</dim>
					<dim>1</dim>
				</port>
			</input>
			<output>
				<port id="2" precision="FP16">
					<dim>1</dim>
					<dim>3</dim>
					<dim>270</dim>
					<dim>480</dim>
				</port>
			</output>
		</layer>
		<layer id="26" name="data_add_16532" type="Const" version="opset1">
			<data element_type="f16" offset="80" shape="1, 3, 1, 1" size="6"/>
			<output>
				<port id="0" precision="FP16">
					<dim>1</dim>
					<dim>3</dim>
					<dim>1</dim>
					<dim>1</dim>
				</port>
			</output>
		</layer>
		<layer id="27" name="Sub_3/Fused_Add_" type="Add" version="opset1">
			<data auto_broadcast="numpy"/>
			<input>
				<port id="0" precision="FP16">
					<dim>1</dim>
					<dim>3</dim>
					<dim>270</dim>
					<dim>480</dim>
				</port>
				<port id="1" precision="FP16">
					<dim>1</dim>
					<dim>3</dim>
					<dim>1</dim>
					<dim>1</dim>
				</port>
			</input>
			<output>
				<port id="2" names="389" precision="FP16">
					<dim>1</dim>
					<dim>3</dim>
					<dim>270</dim>
					<dim>480</dim>
				</port>
			</output>
		</layer>
		<layer id="28" name="1086" type="Const" version="opset1">
			<data element_type="f16" offset="86" shape="16, 3, 3, 3" size="864"/>
			<output>
				<port id="0" names="1086" precision="FP16">
					<dim>16</dim>
					<dim>3</dim>
					<dim>3</dim>
					<dim>3</dim>
				</port>
			</output>
		</layer>
		<layer id="29" name="Conv_6/WithoutBiases" type="Convolution" version="opset1">
			<data auto_pad="explicit" dilations="1, 1" pads_begin="1, 1" pads_end="1, 1" strides="2, 2"/>
			<input>
				<port id="0" precision="FP16">
					<dim>1</dim>
					<dim>3</dim>
					<dim>270</dim>
					<dim>480</dim>
				</port>
				<port id="1" precision="FP16">
					<dim>16</dim>
					<dim>3</dim>
					<dim>3</dim>
					<dim>3</dim>
				</port>
			</input>
			<output>
				<port id="2" precision="FP16">
					<dim>1</dim>
					<dim>16</dim>
					<dim>135</dim>
					<dim>240</dim>
				</port>
			</output>
		</layer>
		<layer id="30" name="Conv_6/Dims9289" type="Const" version="opset1">
			<data element_type="f16" offset="950" shape="1, 16, 1, 1" size="32"/>
			<output>
				<port id="0" precision="FP16">
					<dim>1</dim>
					<dim>16</dim>
					<dim>1</dim>
					<dim>1</dim>
				</port>
			</output>
		</layer>
		<layer id="31" name="Conv_6" type="Add" version="opset1">
			<data auto_broadcast="numpy"/>
			<input>
				<port id="0" precision="FP16">
					<dim>1</dim>
					<dim>16</dim>
					<dim>135</dim>
					<dim>240</dim>
				</port>
				<port id="1" precision="FP16">
					<dim>1</dim>
					<dim>16</dim>
					<dim>1</dim>
					<dim>1</dim>
				</port>
			</input>
			<output>
				<port id="2" names="1085" precision="FP16">
					<dim>1</dim>
					<dim>16</dim>
					<dim>135</dim>
					<dim>240</dim>
				</port>
			</output>
		</layer>
		<layer id="32" name="Constant_7" type="Const" version="opset1">
			<data element_type="f16" offset="982" shape="1, 1, 1, 1" size="2"/>
			<output>
				<port id="0" names="392" precision="FP16">
					<dim>1</dim>
					<dim>1</dim>
					<dim>1</dim>
					<dim>1</dim>
				</port>
			</output>
		</layer>
		<layer id="33" name="Add_8" type="Add" version="opset1">
			<data auto_broadcast="numpy"/>
			<input>
				<port id="0" precision="FP16">
					<dim>1</dim>
					<dim>16</dim>
					<dim>135</dim>
					<dim>240</dim>
				</port>
				<port id="1" precision="FP16">
					<dim>1</dim>
					<dim>1</dim>
					<dim>1</dim>
					<dim>1</dim>
				</port>
			</input>
			<output>
				<port id="2" names="393" precision="FP16">
					<dim>1</dim>
					<dim>16</dim>
					<dim>135</dim>
					<dim>240</dim>
				</port>
			</output>
		</layer>
		<layer id="34" name="Clip_11" type="Clamp" version="opset1">
			<data max="6" min="0"/>
			<input>
				<port id="0" precision="FP16">
					<dim>1</dim>
					<dim>16</dim>
					<dim>135</dim>
					<dim>240</dim>
				</port>
			</input>
			<output>
				<port id="1" names="396" precision="FP16">
					<dim>1</dim>
					<dim>16</dim>
					<dim>135</dim>
					<dim>240</dim>
				</port>
			</output>
		</layer>
		<layer id="35" name="Constant_12" type="Const" version="opset1">
			<data element_type="f16" offset="984" shape="1, 1, 1, 1" size="2"/>
			<output>
				<port id="0" names="397" precision="FP16">
					<dim>1</dim>
					<dim>1</dim>
					<dim>1</dim>
					<dim>1</dim>
				</port>
			</output>
		</layer>
		<layer id="36" name="Div_13" type="Multiply" version="opset1">
			<data auto_broadcast="numpy"/>
			<input>
				<port id="0" precision="FP16">
					<dim>1</dim>
					<dim>16</dim>
					<dim>135</dim>
					<dim>240</dim>
				</port>
				<port id="1" precision="FP16">
					<dim>1</dim>
					<dim>1</dim>
					<dim>1</dim>
					<dim>1</dim>
				</port>
			</input>
			<output>
				<port id="2" names="398" precision="FP16">
					<dim>1</dim>
					<dim>16</dim>
					<dim>135</dim>
					<dim>240</dim>
				</port>
			</output>
		</layer>
		<layer id="37" name="Mul_14" type="Multiply" version="opset1">
			<data auto_broadcast="numpy"/>
			<input>
				<port id="0" precision="FP16">
					<dim>1</dim>
					<dim>16</dim>
					<dim>135</dim>
					<dim>240</dim>
				</port>
				<port id="1" precision="FP16">
					<dim>1</dim>
					<dim>16</dim>
					<dim>135</dim>
					<dim>240</dim>
				</port>
			</input>
			<output>
				<port id="2" names="399" precision="FP16">
					<dim>1</dim>
					<dim>16</dim>
					<dim>135</dim>
					<dim>240</dim>
				</port>
			</output>
		</layer>
		<layer id="38" name="1089" type="Const" version="opset1">
			<data element_type="f16" offset="986" shape="16, 1, 1, 3, 3" size="288"/>
			<output>
				<port id="0" names="1089" precision="FP16">
					<dim>16</dim>
					<dim>1</dim>
					<dim>1</dim>
					<dim>3</dim>
					<dim>3</dim>
				</port>
			</output>
		</layer>
		<layer id="39" name="Conv_15/WithoutBiases" type="GroupConvolution" version="opset1">
			<data auto_pad="explicit" dilations="1, 1" pads_begin="1, 1" pads_end="1, 1" strides="1, 1"/>
			<input>
				<port id="0" precision="FP16">
					<dim>1</dim>
					<dim>16</dim>
					<dim>135</dim>
					<dim>240</dim>
				</port>
				<port id="1" precision="FP16">
					<dim>16</dim>
					<dim>1</dim>
					<dim>1</dim>
					<dim>3</dim>
					<dim>3</dim>
				</port>
			</input>
			<output>
				<port id="2" precision="FP16">
					<dim>1</dim>
					<dim>16</dim>
					<dim>135</dim>
					<dim>240</dim>
				</port>
			</output>
		</layer>
		<layer id="40" name="Conv_15/Dims9139" type="Const" version="opset1">
			<data element_type="f16" offset="1274" shape="1, 16, 1, 1" size="32"/>
			<output>
				<port id="0" precision="FP16">
					<dim>1</dim>
					<dim>16</dim>
					<dim>1</dim>
					<dim>1</dim>
				</port>
			</output>
		</layer>
		<layer id="41" name="Conv_15" type="Add" version="opset1">
			<data auto_broadcast="numpy"/>
			<input>
				<port id="0" precision="FP16">
					<dim>1</dim>
					<dim>16</dim>
					<dim>135</dim>
					<dim>240</dim>
				</port>
				<port id="1" precision="FP16">
					<dim>1</dim>
					<dim>16</dim>
					<dim>1</dim>
					<dim>1</dim>
				</port>
			</input>
			<output>
				<port id="2" names="1088" precision="FP16">
					<dim>1</dim>
					<dim>16</dim>
					<dim>135</dim>
					<dim>240</dim>
				</port>
			</output>
		</layer>
		<layer id="42" name="Relu_16" type="ReLU" version="opset1">
			<input>
				<port id="0" precision="FP16">
					<dim>1</dim>
					<dim>16</dim>
					<dim>135</dim>
					<dim>240</dim>
				</port>
			</input>
			<output>
				<port id="1" names="402" precision="FP16">
					<dim>1</dim>
					<dim>16</dim>
					<dim>135</dim>
					<dim>240</dim>
				</port>
			</output>
		</layer>
		<layer id="43" name="1092" type="Const" version="opset1">
			<data element_type="f16" offset="1306" shape="16, 16, 1, 1" size="512"/>
			<output>
				<port id="0" names="1092" precision="FP16">
					<dim>16</dim>
					<dim>16</dim>
					<dim>1</dim>
					<dim>1</dim>
				</port>
			</output>
		</layer>
		<layer id="44" name="Conv_17/WithoutBiases" type="Convolution" version="opset1">
			<data auto_pad="explicit" dilations="1, 1" pads_begin="0, 0" pads_end="0, 0" strides="1, 1"/>
			<input>
				<port id="0" precision="FP16">
					<dim>1</dim>
					<dim>16</dim>
					<dim>135</dim>
					<dim>240</dim>
				</port>
				<port id="1" precision="FP16">
					<dim>16</dim>
					<dim>16</dim>
					<dim>1</dim>
					<dim>1</dim>
				</port>
			</input>
			<output>
				<port id="2" precision="FP16">
					<dim>1</dim>
					<dim>16</dim>
					<dim>135</dim>
					<dim>240</dim>
				</port>
			</output>
		</layer>
		<layer id="45" name="Conv_17/Dims9061" type="Const" version="opset1">
			<data element_type="f16" offset="1818" shape="1, 16, 1, 1" size="32"/>
			<output>
				<port id="0" precision="FP16">
					<dim>1</dim>
					<dim>16</dim>
					<dim>1</dim>
					<dim>1</dim>
				</port>
			</output>
		</layer>
		<layer id="46" name="Conv_17" type="Add" version="opset1">
			<data auto_broadcast="numpy"/>
			<input>
				<port id="0" precision="FP16">
					<dim>1</dim>
					<dim>16</dim>
					<dim>135</dim>
					<dim>240</dim>
				</port>
				<port id="1" precision="FP16">
					<dim>1</dim>
					<dim>16</dim>
					<dim>1</dim>
					<dim>1</dim>
				</port>
			</input>
			<output>
				<port id="2" names="1091" precision="FP16">
					<dim>1</dim>
					<dim>16</dim>
					<dim>135</dim>
					<dim>240</dim>
				</port>
			</output>
		</layer>
		<layer id="47" name="Add_18" type="Add" version="opset1">
			<data auto_broadcast="numpy"/>
			<input>
				<port id="0" precision="FP16">
					<dim>1</dim>
					<dim>16</dim>
					<dim>135</dim>
					<dim>240</dim>
				</port>
				<port id="1" precision="FP16">
					<dim>1</dim>
					<dim>16</dim>
					<dim>135</dim>
					<dim>240</dim>
				</port>
			</input>
			<output>
				<port id="2" names="405" precision="FP16">
					<dim>1</dim>
					<dim>16</dim>
					<dim>135</dim>
					<dim>240</dim>
				</port>
			</output>
		</layer>
		<layer id="48" name="1095" type="Const" version="opset1">
			<data element_type="f16" offset="1850" shape="64, 16, 1, 1" size="2048"/>
			<output>
				<port id="0" names="1095" precision="FP16">
					<dim>64</dim>
					<dim>16</dim>
					<dim>1</dim>
					<dim>1</dim>
				</port>
			</output>
		</layer>
		<layer id="49" name="Conv_19/WithoutBiases" type="Convolution" version="opset1">
			<data auto_pad="explicit" dilations="1, 1" pads_begin="0, 0" pads_end="0, 0" strides="1, 1"/>
			<input>
				<port id="0" precision="FP16">
					<dim>1</dim>
					<dim>16</dim>
					<dim>135</dim>
					<dim>240</dim>
				</port>
				<port id="1" precision="FP16">
					<dim>64</dim>
					<dim>16</dim>
					<dim>1</dim>
					<dim>1</dim>
				</port>
			</input>
			<output>
				<port id="2" precision="FP16">
					<dim>1</dim>
					<dim>64</dim>
					<dim>135</dim>
					<dim>240</dim>
				</port>
			</output>
		</layer>
		<layer id="50" name="Conv_19/Dims9193" type="Const" version="opset1">
			<data element_type="f16" offset="3898" shape="1, 64, 1, 1" size="128"/>
			<output>
				<port id="0" precision="FP16">
					<dim>1</dim>
					<dim>64</dim>
					<dim>1</dim>
					<dim>1</dim>
				</port>
			</output>
		</layer>
		<layer id="51" name="Conv_19" type="Add" version="opset1">
			<data auto_broadcast="numpy"/>
			<input>
				<port id="0" precision="FP16">
					<dim>1</dim>
					<dim>64</dim>
					<dim>135</dim>
					<dim>240</dim>
				</port>
				<port id="1" precision="FP16">
					<dim>1</dim>
					<dim>64</dim>
					<dim>1</dim>
					<dim>1</dim>
				</port>
			</input>
			<output>
				<port id="2" names="1094" precision="FP16">
					<dim>1</dim>
					<dim>64</dim>
					<dim>135</dim>
					<dim>240</dim>
				</port>
			</output>
		</layer>
		<layer id="52" name="Relu_20" type="ReLU" version="opset1">
			<input>
				<port id="0" precision="FP16">
					<dim>1</dim>
					<dim>64</dim>
					<dim>135</dim>
					<dim>240</dim>
				</port>
			</input>
			<output>
				<port id="1" names="408" precision="FP16">
					<dim>1</dim>
					<dim>64</dim>
					<dim>135</dim>
					<dim>240</dim>
				</port>
			</output>
		</layer>
		<layer id="53" name="1098" type="Const" version="opset1">
			<data element_type="f16" offset="4026" shape="64, 1, 1, 3, 3" size="1152"/>
			<output>
				<port id="0" names="1098" precision="FP16">
					<dim>64</dim>
					<dim>1</dim>
					<dim>1</dim>
					<dim>3</dim>
					<dim>3</dim>
				</port>
			</output>
		</layer>
		<layer id="54" name="Conv_21/WithoutBiases" type="GroupConvolution" version="opset1">
			<data auto_pad="explicit" dilations="1, 1" pads_begin="1, 1" pads_end="1, 1" strides="2, 2"/>
			<input>
				<port id="0" precision="FP16">
					<dim>1</dim>
					<dim>64</dim>
					<dim>135</dim>
					<dim>240</dim>
				</port>
				<port id="1" precision="FP16">
					<dim>64</dim>
					<dim>1</dim>
					<dim>1</dim>
					<dim>3</dim>
					<dim>3</dim>
				</port>
			</input>
			<output>
				<port id="2" precision="FP16">
					<dim>1</dim>
					<dim>64</dim>
					<dim>68</dim>
					<dim>120</dim>
				</port>
			</output>
		</layer>
		<layer id="55" name="Conv_21/Dims9175" type="Const" version="opset1">
			<data element_type="f16" offset="5178" shape="1, 64, 1, 1" size="128"/>
			<output>
				<port id="0" precision="FP16">
					<dim>1</dim>
					<dim>64</dim>
					<dim>1</dim>
					<dim>1</dim>
				</port>
			</output>
		</layer>
		<layer id="56" name="Conv_21" type="Add" version="opset1">
			<data auto_broadcast="numpy"/>
			<input>
				<port id="0" precision="FP16">
					<dim>1</dim>
					<dim>64</dim>
					<dim>68</dim>
					<dim>120</dim>
				</port>
				<port id="1" precision="FP16">
					<dim>1</dim>
					<dim>64</dim>
					<dim>1</dim>
					<dim>1</dim>
				</port>
			</input>
			<output>
				<port id="2" names="1097" precision="FP16">
					<dim>1</dim>
					<dim>64</dim>
					<dim>68</dim>
					<dim>120</dim>
				</port>
			</output>
		</layer>
		<layer id="57" name="Relu_22" type="ReLU" version="opset1">
			<input>
				<port id="0" precision="FP16">
					<dim>1</dim>
					<dim>64</dim>
					<dim>68</dim>
					<dim>120</dim>
				</port>
			</input>
			<output>
				<port id="1" names="411" precision="FP16">
					<dim>1</dim>
					<dim>64</dim>
					<dim>68</dim>
					<dim>120</dim>
				</port>
			</output>
		</layer>
		<layer id="58" name="1101" type="Const" version="opset1">
			<data element_type="f16" offset="5306" shape="24, 64, 1, 1" size="3072"/>
			<output>
				<port id="0" names="1101" precision="FP16">
					<dim>24</dim>
					<dim>64</dim>
					<dim>1</dim>
					<dim>1</dim>
				</port>
			</output>
		</layer>
		<layer id="59" name="Conv_23/WithoutBiases" type="Convolution" version="opset1">
			<data auto_pad="explicit" dilations="1, 1" pads_begin="0, 0" pads_end="0, 0" strides="1, 1"/>
			<input>
				<port id="0" precision="FP16">
					<dim>1</dim>
					<dim>64</dim>
					<dim>68</dim>
					<dim>120</dim>
				</port>
				<port id="1" precision="FP16">
					<dim>24</dim>
					<dim>64</dim>
					<dim>1</dim>
					<dim>1</dim>
				</port>
			</input>
			<output>
				<port id="2" precision="FP16">
					<dim>1</dim>
					<dim>24</dim>
					<dim>68</dim>
					<dim>120</dim>
				</port>
			</output>
		</layer>
		<layer id="60" name="Conv_23/Dims9337" type="Const" version="opset1">
			<data element_type="f16" offset="8378" shape="1, 24, 1, 1" size="48"/>
			<output>
				<port id="0" precision="FP16">
					<dim>1</dim>
					<dim>24</dim>
					<dim>1</dim>
					<dim>1</dim>
				</port>
			</output>
		</layer>
		<layer id="61" name="Conv_23" type="Add" version="opset1">
			<data auto_broadcast="numpy"/>
			<input>
				<port id="0" precision="FP16">
					<dim>1</dim>
					<dim>24</dim>
					<dim>68</dim>
					<dim>120</dim>
				</port>
				<port id="1" precision="FP16">
					<dim>1</dim>
					<dim>24</dim>
					<dim>1</dim>
					<dim>1</dim>
				</port>
			</input>
			<output>
				<port id="2" names="1100" precision="FP16">
					<dim>1</dim>
					<dim>24</dim>
					<dim>68</dim>
					<dim>120</dim>
				</port>
			</output>
		</layer>
		<layer id="62" name="1104" type="Const" version="opset1">
			<data element_type="f16" offset="8426" shape="72, 24, 1, 1" size="3456"/>
			<output>
				<port id="0" names="1104" precision="FP16">
					<dim>72</dim>
					<dim>24</dim>
					<dim>1</dim>
					<dim>1</dim>
				</port>
			</output>
		</layer>
		<layer id="63" name="Conv_24/WithoutBiases" type="Convolution" version="opset1">
			<data auto_pad="explicit" dilations="1, 1" pads_begin="0, 0" pads_end="0, 0" strides="1, 1"/>
			<input>
				<port id="0" precision="FP16">
					<dim>1</dim>
					<dim>24</dim>
					<dim>68</dim>
					<dim>120</dim>
				</port>
				<port id="1" precision="FP16">
					<dim>72</dim>
					<dim>24</dim>
					<dim>1</dim>
					<dim>1</dim>
				</port>
			</input>
			<output>
				<port id="2" precision="FP16">
					<dim>1</dim>
					<dim>72</dim>
					<dim>68</dim>
					<dim>120</dim>
				</port>
			</output>
		</layer>
		<layer id="64" name="Conv_24/Dims9307" type="Const" version="opset1">
			<data element_type="f16" offset="11882" shape="1, 72, 1, 1" size="144"/>
			<output>
				<port id="0" precision="FP16">
					<dim>1</dim>
					<dim>72</dim>
					<dim>1</dim>
					<dim>1</dim>
				</port>
			</output>
		</layer>
		<layer id="65" name="Conv_24" type="Add" version="opset1">
			<data auto_broadcast="numpy"/>
			<input>
				<port id="0" precision="FP16">
					<dim>1</dim>
					<dim>72</dim>
					<dim>68</dim>
					<dim>120</dim>
				</port>
				<port id="1" precision="FP16">
					<dim>1</dim>
					<dim>72</dim>
					<dim>1</dim>
					<dim>1</dim>
				</port>
			</input>
			<output>
				<port id="2" names="1103" precision="FP16">
					<dim>1</dim>
					<dim>72</dim>
					<dim>68</dim>
					<dim>120</dim>
				</port>
			</output>
		</layer>
		<layer id="66" name="Relu_25" type="ReLU" version="opset1">
			<input>
				<port id="0" precision="FP16">
					<dim>1</dim>
					<dim>72</dim>
					<dim>68</dim>
					<dim>120</dim>
				</port>
			</input>
			<output>
				<port id="1" names="416" precision="FP16">
					<dim>1</dim>
					<dim>72</dim>
					<dim>68</dim>
					<dim>120</dim>
				</port>
			</output>
		</layer>
		<layer id="67" name="1107" type="Const" version="opset1">
			<data element_type="f16" offset="12026" shape="72, 1, 1, 3, 3" size="1296"/>
			<output>
				<port id="0" names="1107" precision="FP16">
					<dim>72</dim>
					<dim>1</dim>
					<dim>1</dim>
					<dim>3</dim>
					<dim>3</dim>
				</port>
			</output>
		</layer>
		<layer id="68" name="Conv_26/WithoutBiases" type="GroupConvolution" version="opset1">
			<data auto_pad="explicit" dilations="1, 1" pads_begin="1, 1" pads_end="1, 1" strides="1, 1"/>
			<input>
				<port id="0" precision="FP16">
					<dim>1</dim>
					<dim>72</dim>
					<dim>68</dim>
					<dim>120</dim>
				</port>
				<port id="1" precision="FP16">
					<dim>72</dim>
					<dim>1</dim>
					<dim>1</dim>
					<dim>3</dim>
					<dim>3</dim>
				</port>
			</input>
			<output>
				<port id="2" precision="FP16">
					<dim>1</dim>
					<dim>72</dim>
					<dim>68</dim>
					<dim>120</dim>
				</port>
			</output>
		</layer>
		<layer id="69" name="Conv_26/Dims8905" type="Const" version="opset1">
			<data element_type="f16" offset="13322" shape="1, 72, 1, 1" size="144"/>
			<output>
				<port id="0" precision="FP16">
					<dim>1</dim>
					<dim>72</dim>
					<dim>1</dim>
					<dim>1</dim>
				</port>
			</output>
		</layer>
		<layer id="70" name="Conv_26" type="Add" version="opset1">
			<data auto_broadcast="numpy"/>
			<input>
				<port id="0" precision="FP16">
					<dim>1</dim>
					<dim>72</dim>
					<dim>68</dim>
					<dim>120</dim>
				</port>
				<port id="1" precision="FP16">
					<dim>1</dim>
					<dim>72</dim>
					<dim>1</dim>
					<dim>1</dim>
				</port>
			</input>
			<output>
				<port id="2" names="1106" precision="FP16">
					<dim>1</dim>
					<dim>72</dim>
					<dim>68</dim>
					<dim>120</dim>
				</port>
			</output>
		</layer>
		<layer id="71" name="Relu_27" type="ReLU" version="opset1">
			<input>
				<port id="0" precision="FP16">
					<dim>1</dim>
					<dim>72</dim>
					<dim>68</dim>
					<dim>120</dim>
				</port>
			</input>
			<output>
				<port id="1" names="419" precision="FP16">
					<dim>1</dim>
					<dim>72</dim>
					<dim>68</dim>
					<dim>120</dim>
				</port>
			</output>
		</layer>
		<layer id="72" name="1110" type="Const" version="opset1">
			<data element_type="f16" offset="13466" shape="24, 72, 1, 1" size="3456"/>
			<output>
				<port id="0" names="1110" precision="FP16">
					<dim>24</dim>
					<dim>72</dim>
					<dim>1</dim>
					<dim>1</dim>
				</port>
			</output>
		</layer>
		<layer id="73" name="Conv_28/WithoutBiases" type="Convolution" version="opset1">
			<data auto_pad="explicit" dilations="1, 1" pads_begin="0, 0" pads_end="0, 0" strides="1, 1"/>
			<input>
				<port id="0" precision="FP16">
					<dim>1</dim>
					<dim>72</dim>
					<dim>68</dim>
					<dim>120</dim>
				</port>
				<port id="1" precision="FP16">
					<dim>24</dim>
					<dim>72</dim>
					<dim>1</dim>
					<dim>1</dim>
				</port>
			</input>
			<output>
				<port id="2" precision="FP16">
					<dim>1</dim>
					<dim>24</dim>
					<dim>68</dim>
					<dim>120</dim>
				</port>
			</output>
		</layer>
		<layer id="74" name="Conv_28/Dims9067" type="Const" version="opset1">
			<data element_type="f16" offset="16922" shape="1, 24, 1, 1" size="48"/>
			<output>
				<port id="0" precision="FP16">
					<dim>1</dim>
					<dim>24</dim>
					<dim>1</dim>
					<dim>1</dim>
				</port>
			</output>
		</layer>
		<layer id="75" name="Conv_28" type="Add" version="opset1">
			<data auto_broadcast="numpy"/>
			<input>
				<port id="0" precision="FP16">
					<dim>1</dim>
					<dim>24</dim>
					<dim>68</dim>
					<dim>120</dim>
				</port>
				<port id="1" precision="FP16">
					<dim>1</dim>
					<dim>24</dim>
					<dim>1</dim>
					<dim>1</dim>
				</port>
			</input>
			<output>
				<port id="2" names="1109" precision="FP16">
					<dim>1</dim>
					<dim>24</dim>
					<dim>68</dim>
					<dim>120</dim>
				</port>
			</output>
		</layer>
		<layer id="76" name="Add_29" type="Add" version="opset1">
			<data auto_broadcast="numpy"/>
			<input>
				<port id="0" precision="FP16">
					<dim>1</dim>
					<dim>24</dim>
					<dim>68</dim>
					<dim>120</dim>
				</port>
				<port id="1" precision="FP16">
					<dim>1</dim>
					<dim>24</dim>
					<dim>68</dim>
					<dim>120</dim>
				</port>
			</input>
			<output>
				<port id="2" names="422" precision="FP16">
					<dim>1</dim>
					<dim>24</dim>
					<dim>68</dim>
					<dim>120</dim>
				</port>
			</output>
		</layer>
		<layer id="77" name="1113" type="Const" version="opset1">
			<data element_type="f16" offset="16970" shape="72, 24, 1, 1" size="3456"/>
			<output>
				<port id="0" names="1113" precision="FP16">
					<dim>72</dim>
					<dim>24</dim>
					<dim>1</dim>
					<dim>1</dim>
				</port>
			</output>
		</layer>
		<layer id="78" name="Conv_30/WithoutBiases" type="Convolution" version="opset1">
			<data auto_pad="explicit" dilations="1, 1" pads_begin="0, 0" pads_end="0, 0" strides="1, 1"/>
			<input>
				<port id="0" precision="FP16">
					<dim>1</dim>
					<dim>24</dim>
					<dim>68</dim>
					<dim>120</dim>
				</port>
				<port id="1" precision="FP16">
					<dim>72</dim>
					<dim>24</dim>
					<dim>1</dim>
					<dim>1</dim>
				</port>
			</input>
			<output>
				<port id="2" precision="FP16">
					<dim>1</dim>
					<dim>72</dim>
					<dim>68</dim>
					<dim>120</dim>
				</port>
			</output>
		</layer>
		<layer id="79" name="Conv_30/Dims9325" type="Const" version="opset1">
			<data element_type="f16" offset="20426" shape="1, 72, 1, 1" size="144"/>
			<output>
				<port id="0" precision="FP16">
					<dim>1</dim>
					<dim>72</dim>
					<dim>1</dim>
					<dim>1</dim>
				</port>
			</output>
		</layer>
		<layer id="80" name="Conv_30" type="Add" version="opset1">
			<data auto_broadcast="numpy"/>
			<input>
				<port id="0" precision="FP16">
					<dim>1</dim>
					<dim>72</dim>
					<dim>68</dim>
					<dim>120</dim>
				</port>
				<port id="1" precision="FP16">
					<dim>1</dim>
					<dim>72</dim>
					<dim>1</dim>
					<dim>1</dim>
				</port>
			</input>
			<output>
				<port id="2" names="1112" precision="FP16">
					<dim>1</dim>
					<dim>72</dim>
					<dim>68</dim>
					<dim>120</dim>
				</port>
			</output>
		</layer>
		<layer id="81" name="Relu_31" type="ReLU" version="opset1">
			<input>
				<port id="0" precision="FP16">
					<dim>1</dim>
					<dim>72</dim>
					<dim>68</dim>
					<dim>120</dim>
				</port>
			</input>
			<output>
				<port id="1" names="425" precision="FP16">
					<dim>1</dim>
					<dim>72</dim>
					<dim>68</dim>
					<dim>120</dim>
				</port>
			</output>
		</layer>
		<layer id="82" name="1116" type="Const" version="opset1">
			<data element_type="f16" offset="20570" shape="72, 1, 1, 5, 5" size="3600"/>
			<output>
				<port id="0" names="1116" precision="FP16">
					<dim>72</dim>
					<dim>1</dim>
					<dim>1</dim>
					<dim>5</dim>
					<dim>5</dim>
				</port>
			</output>
		</layer>
		<layer id="83" name="Conv_32/WithoutBiases" type="GroupConvolution" version="opset1">
			<data auto_pad="explicit" dilations="1, 1" pads_begin="2, 2" pads_end="2, 2" strides="2, 2"/>
			<input>
				<port id="0" precision="FP16">
					<dim>1</dim>
					<dim>72</dim>
					<dim>68</dim>
					<dim>120</dim>
				</port>
				<port id="1" precision="FP16">
					<dim>72</dim>
					<dim>1</dim>
					<dim>1</dim>
					<dim>5</dim>
					<dim>5</dim>
				</port>
			</input>
			<output>
				<port id="2" precision="FP16">
					<dim>1</dim>
					<dim>72</dim>
					<dim>34</dim>
					<dim>60</dim>
				</port>
			</output>
		</layer>
		<layer id="84" name="Conv_32/Dims8947" type="Const" version="opset1">
			<data element_type="f16" offset="24170" shape="1, 72, 1, 1" size="144"/>
			<output>
				<port id="0" precision="FP16">
					<dim>1</dim>
					<dim>72</dim>
					<dim>1</dim>
					<dim>1</dim>
				</port>
			</output>
		</layer>
		<layer id="85" name="Conv_32" type="Add" version="opset1">
			<data auto_broadcast="numpy"/>
			<input>
				<port id="0" precision="FP16">
					<dim>1</dim>
					<dim>72</dim>
					<dim>34</dim>
					<dim>60</dim>
				</port>
				<port id="1" precision="FP16">
					<dim>1</dim>
					<dim>72</dim>
					<dim>1</dim>
					<dim>1</dim>
				</port>
			</input>
			<output>
				<port id="2" names="1115" precision="FP16">
					<dim>1</dim>
					<dim>72</dim>
					<dim>34</dim>
					<dim>60</dim>
				</port>
			</output>
		</layer>
		<layer id="86" name="Relu_33" type="ReLU" version="opset1">
			<input>
				<port id="0" precision="FP16">
					<dim>1</dim>
					<dim>72</dim>
					<dim>34</dim>
					<dim>60</dim>
				</port>
			</input>
			<output>
				<port id="1" names="428" precision="FP16">
					<dim>1</dim>
					<dim>72</dim>
					<dim>34</dim>
					<dim>60</dim>
				</port>
			</output>
		</layer>
		<layer id="87" name="873" type="Const" version="opset1">
			<data element_type="i64" offset="34" shape="" size="8"/>
			<output>
				<port id="0" precision="I64"/>
			</output>
		</layer>
		<layer id="88" name="GlobalAveragePool_34/input_rank/shape_of" type="ShapeOf" version="opset3">
			<data output_type="i64"/>
			<input>
				<port id="0" precision="FP16">
					<dim>1</dim>
					<dim>72</dim>
					<dim>34</dim>
					<dim>60</dim>
				</port>
			</input>
			<output>
				<port id="1" precision="I64">
					<dim>4</dim>
				</port>
			</output>
		</layer>
		<layer id="89" name="GlobalAveragePool_34/input_rank/rank_of" type="ShapeOf" version="opset3">
			<data output_type="i64"/>
			<input>
				<port id="0" precision="I64">
					<dim>4</dim>
				</port>
			</input>
			<output>
				<port id="1" precision="I64">
					<dim>1</dim>
				</port>
			</output>
		</layer>
		<layer id="90" name="GlobalAveragePool_34/input_rank/0d_rank_of/value" type="Const" version="opset1">
			<data element_type="i64" offset="24314" shape="1" size="8"/>
			<output>
				<port id="0" precision="I64">
					<dim>1</dim>
				</port>
			</output>
		</layer>
		<layer id="91" name="GlobalAveragePool_34/input_rank" type="Squeeze" version="opset1">
			<input>
				<port id="0" precision="I64">
					<dim>1</dim>
				</port>
				<port id="1" precision="I64">
					<dim>1</dim>
				</port>
			</input>
			<output>
				<port id="2" precision="I64"/>
			</output>
		</layer>
		<layer id="92" name="875" type="Const" version="opset1">
			<data element_type="i64" offset="0" shape="" size="8"/>
			<output>
				<port id="0" precision="I64"/>
			</output>
		</layer>
		<layer id="93" name="GlobalAveragePool_34/global_pooling_reduce_axis" type="Range" version="opset4">
			<data output_type="i64"/>
			<input>
				<port id="0" precision="I64"/>
				<port id="1" precision="I64"/>
				<port id="2" precision="I64"/>
			</input>
			<output>
				<port id="3" precision="I64">
					<dim>2</dim>
				</port>
			</output>
		</layer>
		<layer id="94" name="GlobalAveragePool_34/reduce" type="ReduceMean" version="opset1">
			<data keep_dims="true"/>
			<input>
				<port id="0" precision="FP16">
					<dim>1</dim>
					<dim>72</dim>
					<dim>34</dim>
					<dim>60</dim>
				</port>
				<port id="1" precision="I64">
					<dim>2</dim>
				</port>
			</input>
			<output>
				<port id="2" names="429" precision="FP16">
					<dim>1</dim>
					<dim>72</dim>
					<dim>1</dim>
					<dim>1</dim>
				</port>
			</output>
		</layer>
		<layer id="95" name="backbone.features.4.block.2.fc1.weight" type="Const" version="opset1">
			<data element_type="f16" offset="24322" shape="24, 72, 1, 1" size="3456"/>
			<output>
				<port id="0" names="backbone.features.4.block.2.fc1.weight" precision="FP16">
					<dim>24</dim>
					<dim>72</dim>
					<dim>1</dim>
					<dim>1</dim>
				</port>
			</output>
		</layer>
		<layer id="96" name="Conv_35/WithoutBiases" type="Convolution" version="opset1">
			<data auto_pad="explicit" dilations="1, 1" pads_begin="0, 0" pads_end="0, 0" strides="1, 1"/>
			<input>
				<port id="0" precision="FP16">
					<dim>1</dim>
					<dim>72</dim>
					<dim>1</dim>
					<dim>1</dim>
				</port>
				<port id="1" precision="FP16">
					<dim>24</dim>
					<dim>72</dim>
					<dim>1</dim>
					<dim>1</dim>
				</port>
			</input>
			<output>
				<port id="2" precision="FP16">
					<dim>1</dim>
					<dim>24</dim>
					<dim>1</dim>
					<dim>1</dim>
				</port>
			</output>
		</layer>
		<layer id="97" name="Conv_35/Dims8917" type="Const" version="opset1">
			<data element_type="f16" offset="27778" shape="1, 24, 1, 1" size="48"/>
			<output>
				<port id="0" precision="FP16">
					<dim>1</dim>
					<dim>24</dim>
					<dim>1</dim>
					<dim>1</dim>
				</port>
			</output>
		</layer>
		<layer id="98" name="Conv_35" type="Add" version="opset1">
			<data auto_broadcast="numpy"/>
			<input>
				<port id="0" precision="FP16">
					<dim>1</dim>
					<dim>24</dim>
					<dim>1</dim>
					<dim>1</dim>
				</port>
				<port id="1" precision="FP16">
					<dim>1</dim>
					<dim>24</dim>
					<dim>1</dim>
					<dim>1</dim>
				</port>
			</input>
			<output>
				<port id="2" names="430" precision="FP16">
					<dim>1</dim>
					<dim>24</dim>
					<dim>1</dim>
					<dim>1</dim>
				</port>
			</output>
		</layer>
		<layer id="99" name="Relu_36" type="ReLU" version="opset1">
			<input>
				<port id="0" precision="FP16">
					<dim>1</dim>
					<dim>24</dim>
					<dim>1</dim>
					<dim>1</dim>
				</port>
			</input>
			<output>
				<port id="1" names="431" precision="FP16">
					<dim>1</dim>
					<dim>24</dim>
					<dim>1</dim>
					<dim>1</dim>
				</port>
			</output>
		</layer>
		<layer id="100" name="backbone.features.4.block.2.fc2.weight" type="Const" version="opset1">
			<data element_type="f16" offset="27826" shape="72, 24, 1, 1" size="3456"/>
			<output>
				<port id="0" names="backbone.features.4.block.2.fc2.weight" precision="FP16">
					<dim>72</dim>
					<dim>24</dim>
					<dim>1</dim>
					<dim>1</dim>
				</port>
			</output>
		</layer>
		<layer id="101" name="Conv_37/WithoutBiases" type="Convolution" version="opset1">
			<data auto_pad="explicit" dilations="1, 1" pads_begin="0, 0" pads_end="0, 0" strides="1, 1"/>
			<input>
				<port id="0" precision="FP16">
					<dim>1</dim>
					<dim>24</dim>
					<dim>1</dim>
					<dim>1</dim>
				</port>
				<port id="1" precision="FP16">
					<dim>72</dim>
					<dim>24</dim>
					<dim>1</dim>
					<dim>1</dim>
				</port>
			</input>
			<output>
				<port id="2" precision="FP16">
					<dim>1</dim>
					<dim>72</dim>
					<dim>1</dim>
					<dim>1</dim>
				</port>
			</output>
		</layer>
		<layer id="102" name="Conv_37/Dims8959" type="Const" version="opset1">
			<data element_type="f16" offset="31282" shape="1, 72, 1, 1" size="144"/>
			<output>
				<port id="0" precision="FP16">
					<dim>1</dim>
					<dim>72</dim>
					<dim>1</dim>
					<dim>1</dim>
				</port>
			</output>
		</layer>
		<layer id="103" name="Conv_37" type="Add" version="opset1">
			<data auto_broadcast="numpy"/>
			<input>
				<port id="0" precision="FP16">
					<dim>1</dim>
					<dim>72</dim>
					<dim>1</dim>
					<dim>1</dim>
				</port>
				<port id="1" precision="FP16">
					<dim>1</dim>
					<dim>72</dim>
					<dim>1</dim>
					<dim>1</dim>
				</port>
			</input>
			<output>
				<port id="2" names="432" precision="FP16">
					<dim>1</dim>
					<dim>72</dim>
					<dim>1</dim>
					<dim>1</dim>
				</port>
			</output>
		</layer>
		<layer id="104" name="HardSigmoid_38/HardSigmoid__input_port_1/value" type="Const" version="opset1">
			<data element_type="f16" offset="984" shape="" size="2"/>
			<output>
				<port id="0" precision="FP16"/>
			</output>
		</layer>
		<layer id="105" name="HardSigmoid_38/HardSigmoid__input_port_2/value" type="Const" version="opset1">
			<data element_type="f16" offset="31426" shape="" size="2"/>
			<output>
				<port id="0" precision="FP16"/>
			</output>
		</layer>
		<layer id="106" name="HardSigmoid_38/HardSigmoid_" type="HardSigmoid" version="opset1">
			<input>
				<port id="0" precision="FP16">
					<dim>1</dim>
					<dim>72</dim>
					<dim>1</dim>
					<dim>1</dim>
				</port>
				<port id="1" precision="FP16"/>
				<port id="2" precision="FP16"/>
			</input>
			<output>
				<port id="3" names="433" precision="FP16">
					<dim>1</dim>
					<dim>72</dim>
					<dim>1</dim>
					<dim>1</dim>
				</port>
			</output>
		</layer>
		<layer id="107" name="Mul_39" type="Multiply" version="opset1">
			<data auto_broadcast="numpy"/>
			<input>
				<port id="0" precision="FP16">
					<dim>1</dim>
					<dim>72</dim>
					<dim>1</dim>
					<dim>1</dim>
				</port>
				<port id="1" precision="FP16">
					<dim>1</dim>
					<dim>72</dim>
					<dim>34</dim>
					<dim>60</dim>
				</port>
			</input>
			<output>
				<port id="2" names="434" precision="FP16">
					<dim>1</dim>
					<dim>72</dim>
					<dim>34</dim>
					<dim>60</dim>
				</port>
			</output>
		</layer>
		<layer id="108" name="1119" type="Const" version="opset1">
			<data element_type="f16" offset="31428" shape="40, 72, 1, 1" size="5760"/>
			<output>
				<port id="0" names="1119" precision="FP16">
					<dim>40</dim>
					<dim>72</dim>
					<dim>1</dim>
					<dim>1</dim>
				</port>
			</output>
		</layer>
		<layer id="109" name="Conv_40/WithoutBiases" type="Convolution" version="opset1">
			<data auto_pad="explicit" dilations="1, 1" pads_begin="0, 0" pads_end="0, 0" strides="1, 1"/>
			<input>
				<port id="0" precision="FP16">
					<dim>1</dim>
					<dim>72</dim>
					<dim>34</dim>
					<dim>60</dim>
				</port>
				<port id="1" precision="FP16">
					<dim>40</dim>
					<dim>72</dim>
					<dim>1</dim>
					<dim>1</dim>
				</port>
			</input>
			<output>
				<port id="2" precision="FP16">
					<dim>1</dim>
					<dim>40</dim>
					<dim>34</dim>
					<dim>60</dim>
				</port>
			</output>
		</layer>
		<layer id="110" name="Conv_40/Dims9007" type="Const" version="opset1">
			<data element_type="f16" offset="37188" shape="1, 40, 1, 1" size="80"/>
			<output>
				<port id="0" precision="FP16">
					<dim>1</dim>
					<dim>40</dim>
					<dim>1</dim>
					<dim>1</dim>
				</port>
			</output>
		</layer>
		<layer id="111" name="Conv_40" type="Add" version="opset1">
			<data auto_broadcast="numpy"/>
			<input>
				<port id="0" precision="FP16">
					<dim>1</dim>
					<dim>40</dim>
					<dim>34</dim>
					<dim>60</dim>
				</port>
				<port id="1" precision="FP16">
					<dim>1</dim>
					<dim>40</dim>
					<dim>1</dim>
					<dim>1</dim>
				</port>
			</input>
			<output>
				<port id="2" names="1118" precision="FP16">
					<dim>1</dim>
					<dim>40</dim>
					<dim>34</dim>
					<dim>60</dim>
				</port>
			</output>
		</layer>
		<layer id="112" name="1122" type="Const" version="opset1">
			<data element_type="f16" offset="37268" shape="120, 40, 1, 1" size="9600"/>
			<output>
				<port id="0" names="1122" precision="FP16">
					<dim>120</dim>
					<dim>40</dim>
					<dim>1</dim>
					<dim>1</dim>
				</port>
			</output>
		</layer>
		<layer id="113" name="Conv_41/WithoutBiases" type="Convolution" version="opset1">
			<data auto_pad="explicit" dilations="1, 1" pads_begin="0, 0" pads_end="0, 0" strides="1, 1"/>
			<input>
				<port id="0" precision="FP16">
					<dim>1</dim>
					<dim>40</dim>
					<dim>34</dim>
					<dim>60</dim>
				</port>
				<port id="1" precision="FP16">
					<dim>120</dim>
					<dim>40</dim>
					<dim>1</dim>
					<dim>1</dim>
				</port>
			</input>
			<output>
				<port id="2" precision="FP16">
					<dim>1</dim>
					<dim>120</dim>
					<dim>34</dim>
					<dim>60</dim>
				</port>
			</output>
		</layer>
		<layer id="114" name="Conv_41/Dims8929" type="Const" version="opset1">
			<data element_type="f16" offset="46868" shape="1, 120, 1, 1" size="240"/>
			<output>
				<port id="0" precision="FP16">
					<dim>1</dim>
					<dim>120</dim>
					<dim>1</dim>
					<dim>1</dim>
				</port>
			</output>
		</layer>
		<layer id="115" name="Conv_41" type="Add" version="opset1">
			<data auto_broadcast="numpy"/>
			<input>
				<port id="0" precision="FP16">
					<dim>1</dim>
					<dim>120</dim>
					<dim>34</dim>
					<dim>60</dim>
				</port>
				<port id="1" precision="FP16">
					<dim>1</dim>
					<dim>120</dim>
					<dim>1</dim>
					<dim>1</dim>
				</port>
			</input>
			<output>
				<port id="2" names="1121" precision="FP16">
					<dim>1</dim>
					<dim>120</dim>
					<dim>34</dim>
					<dim>60</dim>
				</port>
			</output>
		</layer>
		<layer id="116" name="Relu_42" type="ReLU" version="opset1">
			<input>
				<port id="0" precision="FP16">
					<dim>1</dim>
					<dim>120</dim>
					<dim>34</dim>
					<dim>60</dim>
				</port>
			</input>
			<output>
				<port id="1" names="439" precision="FP16">
					<dim>1</dim>
					<dim>120</dim>
					<dim>34</dim>
					<dim>60</dim>
				</port>
			</output>
		</layer>
		<layer id="117" name="1125" type="Const" version="opset1">
			<data element_type="f16" offset="47108" shape="120, 1, 1, 5, 5" size="6000"/>
			<output>
				<port id="0" names="1125" precision="FP16">
					<dim>120</dim>
					<dim>1</dim>
					<dim>1</dim>
					<dim>5</dim>
					<dim>5</dim>
				</port>
			</output>
		</layer>
		<layer id="118" name="Conv_43/WithoutBiases" type="GroupConvolution" version="opset1">
			<data auto_pad="explicit" dilations="1, 1" pads_begin="2, 2" pads_end="2, 2" strides="1, 1"/>
			<input>
				<port id="0" precision="FP16">
					<dim>1</dim>
					<dim>120</dim>
					<dim>34</dim>
					<dim>60</dim>
				</port>
				<port id="1" precision="FP16">
					<dim>120</dim>
					<dim>1</dim>
					<dim>1</dim>
					<dim>5</dim>
					<dim>5</dim>
				</port>
			</input>
			<output>
				<port id="2" precision="FP16">
					<dim>1</dim>
					<dim>120</dim>
					<dim>34</dim>
					<dim>60</dim>
				</port>
			</output>
		</layer>
		<layer id="119" name="Conv_43/Dims9169" type="Const" version="opset1">
			<data element_type="f16" offset="53108" shape="1, 120, 1, 1" size="240"/>
			<output>
				<port id="0" precision="FP16">
					<dim>1</dim>
					<dim>120</dim>
					<dim>1</dim>
					<dim>1</dim>
				</port>
			</output>
		</layer>
		<layer id="120" name="Conv_43" type="Add" version="opset1">
			<data auto_broadcast="numpy"/>
			<input>
				<port id="0" precision="FP16">
					<dim>1</dim>
					<dim>120</dim>
					<dim>34</dim>
					<dim>60</dim>
				</port>
				<port id="1" precision="FP16">
					<dim>1</dim>
					<dim>120</dim>
					<dim>1</dim>
					<dim>1</dim>
				</port>
			</input>
			<output>
				<port id="2" names="1124" precision="FP16">
					<dim>1</dim>
					<dim>120</dim>
					<dim>34</dim>
					<dim>60</dim>
				</port>
			</output>
		</layer>
		<layer id="121" name="Relu_44" type="ReLU" version="opset1">
			<input>
				<port id="0" precision="FP16">
					<dim>1</dim>
					<dim>120</dim>
					<dim>34</dim>
					<dim>60</dim>
				</port>
			</input>
			<output>
				<port id="1" names="442" precision="FP16">
					<dim>1</dim>
					<dim>120</dim>
					<dim>34</dim>
					<dim>60</dim>
				</port>
			</output>
		</layer>
		<layer id="122" name="878" type="Const" version="opset1">
			<data element_type="i64" offset="34" shape="" size="8"/>
			<output>
				<port id="0" precision="I64"/>
			</output>
		</layer>
		<layer id="123" name="GlobalAveragePool_45/input_rank/shape_of" type="ShapeOf" version="opset3">
			<data output_type="i64"/>
			<input>
				<port id="0" precision="FP16">
					<dim>1</dim>
					<dim>120</dim>
					<dim>34</dim>
					<dim>60</dim>
				</port>
			</input>
			<output>
				<port id="1" precision="I64">
					<dim>4</dim>
				</port>
			</output>
		</layer>
		<layer id="124" name="GlobalAveragePool_45/input_rank/rank_of" type="ShapeOf" version="opset3">
			<data output_type="i64"/>
			<input>
				<port id="0" precision="I64">
					<dim>4</dim>
				</port>
			</input>
			<output>
				<port id="1" precision="I64">
					<dim>1</dim>
				</port>
			</output>
		</layer>
		<layer id="125" name="GlobalAveragePool_45/input_rank/0d_rank_of/value" type="Const" version="opset1">
			<data element_type="i64" offset="24314" shape="1" size="8"/>
			<output>
				<port id="0" precision="I64">
					<dim>1</dim>
				</port>
			</output>
		</layer>
		<layer id="126" name="GlobalAveragePool_45/input_rank" type="Squeeze" version="opset1">
			<input>
				<port id="0" precision="I64">
					<dim>1</dim>
				</port>
				<port id="1" precision="I64">
					<dim>1</dim>
				</port>
			</input>
			<output>
				<port id="2" precision="I64"/>
			</output>
		</layer>
		<layer id="127" name="880" type="Const" version="opset1">
			<data element_type="i64" offset="0" shape="" size="8"/>
			<output>
				<port id="0" precision="I64"/>
			</output>
		</layer>
		<layer id="128" name="GlobalAveragePool_45/global_pooling_reduce_axis" type="Range" version="opset4">
			<data output_type="i64"/>
			<input>
				<port id="0" precision="I64"/>
				<port id="1" precision="I64"/>
				<port id="2" precision="I64"/>
			</input>
			<output>
				<port id="3" precision="I64">
					<dim>2</dim>
				</port>
			</output>
		</layer>
		<layer id="129" name="GlobalAveragePool_45/reduce" type="ReduceMean" version="opset1">
			<data keep_dims="true"/>
			<input>
				<port id="0" precision="FP16">
					<dim>1</dim>
					<dim>120</dim>
					<dim>34</dim>
					<dim>60</dim>
				</port>
				<port id="1" precision="I64">
					<dim>2</dim>
				</port>
			</input>
			<output>
				<port id="2" names="443" precision="FP16">
					<dim>1</dim>
					<dim>120</dim>
					<dim>1</dim>
					<dim>1</dim>
				</port>
			</output>
		</layer>
		<layer id="130" name="backbone.features.5.block.2.fc1.weight" type="Const" version="opset1">
			<data element_type="f16" offset="53348" shape="32, 120, 1, 1" size="7680"/>
			<output>
				<port id="0" names="backbone.features.5.block.2.fc1.weight" precision="FP16">
					<dim>32</dim>
					<dim>120</dim>
					<dim>1</dim>
					<dim>1</dim>
				</port>
			</output>
		</layer>
		<layer id="131" name="Conv_46/WithoutBiases" type="Convolution" version="opset1">
			<data auto_pad="explicit" dilations="1, 1" pads_begin="0, 0" pads_end="0, 0" strides="1, 1"/>
			<input>
				<port id="0" precision="FP16">
					<dim>1</dim>
					<dim>120</dim>
					<dim>1</dim>
					<dim>1</dim>
				</port>
				<port id="1" precision="FP16">
					<dim>32</dim>
					<dim>120</dim>
					<dim>1</dim>
					<dim>1</dim>
				</port>
			</input>
			<output>
				<port id="2" precision="FP16">
					<dim>1</dim>
					<dim>32</dim>
					<dim>1</dim>
					<dim>1</dim>
				</port>
			</output>
		</layer>
		<layer id="132" name="Conv_46/Dims9367" type="Const" version="opset1">
			<data element_type="f16" offset="61028" shape="1, 32, 1, 1" size="64"/>
			<output>
				<port id="0" precision="FP16">
					<dim>1</dim>
					<dim>32</dim>
					<dim>1</dim>
					<dim>1</dim>
				</port>
			</output>
		</layer>
		<layer id="133" name="Conv_46" type="Add" version="opset1">
			<data auto_broadcast="numpy"/>
			<input>
				<port id="0" precision="FP16">
					<dim>1</dim>
					<dim>32</dim>
					<dim>1</dim>
					<dim>1</dim>
				</port>
				<port id="1" precision="FP16">
					<dim>1</dim>
					<dim>32</dim>
					<dim>1</dim>
					<dim>1</dim>
				</port>
			</input>
			<output>
				<port id="2" names="444" precision="FP16">
					<dim>1</dim>
					<dim>32</dim>
					<dim>1</dim>
					<dim>1</dim>
				</port>
			</output>
		</layer>
		<layer id="134" name="Relu_47" type="ReLU" version="opset1">
			<input>
				<port id="0" precision="FP16">
					<dim>1</dim>
					<dim>32</dim>
					<dim>1</dim>
					<dim>1</dim>
				</port>
			</input>
			<output>
				<port id="1" names="445" precision="FP16">
					<dim>1</dim>
					<dim>32</dim>
					<dim>1</dim>
					<dim>1</dim>
				</port>
			</output>
		</layer>
		<layer id="135" name="backbone.features.5.block.2.fc2.weight" type="Const" version="opset1">
			<data element_type="f16" offset="61092" shape="120, 32, 1, 1" size="7680"/>
			<output>
				<port id="0" names="backbone.features.5.block.2.fc2.weight" precision="FP16">
					<dim>120</dim>
					<dim>32</dim>
					<dim>1</dim>
					<dim>1</dim>
				</port>
			</output>
		</layer>
		<layer id="136" name="Conv_48/WithoutBiases" type="Convolution" version="opset1">
			<data auto_pad="explicit" dilations="1, 1" pads_begin="0, 0" pads_end="0, 0" strides="1, 1"/>
			<input>
				<port id="0" precision="FP16">
					<dim>1</dim>
					<dim>32</dim>
					<dim>1</dim>
					<dim>1</dim>
				</port>
				<port id="1" precision="FP16">
					<dim>120</dim>
					<dim>32</dim>
					<dim>1</dim>
					<dim>1</dim>
				</port>
			</input>
			<output>
				<port id="2" precision="FP16">
					<dim>1</dim>
					<dim>120</dim>
					<dim>1</dim>
					<dim>1</dim>
				</port>
			</output>
		</layer>
		<layer id="137" name="Conv_48/Dims9031" type="Const" version="opset1">
			<data element_type="f16" offset="68772" shape="1, 120, 1, 1" size="240"/>
			<output>
				<port id="0" precision="FP16">
					<dim>1</dim>
					<dim>120</dim>
					<dim>1</dim>
					<dim>1</dim>
				</port>
			</output>
		</layer>
		<layer id="138" name="Conv_48" type="Add" version="opset1">
			<data auto_broadcast="numpy"/>
			<input>
				<port id="0" precision="FP16">
					<dim>1</dim>
					<dim>120</dim>
					<dim>1</dim>
					<dim>1</dim>
				</port>
				<port id="1" precision="FP16">
					<dim>1</dim>
					<dim>120</dim>
					<dim>1</dim>
					<dim>1</dim>
				</port>
			</input>
			<output>
				<port id="2" names="446" precision="FP16">
					<dim>1</dim>
					<dim>120</dim>
					<dim>1</dim>
					<dim>1</dim>
				</port>
			</output>
		</layer>
		<layer id="139" name="HardSigmoid_49/HardSigmoid__input_port_1/value" type="Const" version="opset1">
			<data element_type="f16" offset="984" shape="" size="2"/>
			<output>
				<port id="0" precision="FP16"/>
			</output>
		</layer>
		<layer id="140" name="HardSigmoid_49/HardSigmoid__input_port_2/value" type="Const" version="opset1">
			<data element_type="f16" offset="31426" shape="" size="2"/>
			<output>
				<port id="0" precision="FP16"/>
			</output>
		</layer>
		<layer id="141" name="HardSigmoid_49/HardSigmoid_" type="HardSigmoid" version="opset1">
			<input>
				<port id="0" precision="FP16">
					<dim>1</dim>
					<dim>120</dim>
					<dim>1</dim>
					<dim>1</dim>
				</port>
				<port id="1" precision="FP16"/>
				<port id="2" precision="FP16"/>
			</input>
			<output>
				<port id="3" names="447" precision="FP16">
					<dim>1</dim>
					<dim>120</dim>
					<dim>1</dim>
					<dim>1</dim>
				</port>
			</output>
		</layer>
		<layer id="142" name="Mul_50" type="Multiply" version="opset1">
			<data auto_broadcast="numpy"/>
			<input>
				<port id="0" precision="FP16">
					<dim>1</dim>
					<dim>120</dim>
					<dim>1</dim>
					<dim>1</dim>
				</port>
				<port id="1" precision="FP16">
					<dim>1</dim>
					<dim>120</dim>
					<dim>34</dim>
					<dim>60</dim>
				</port>
			</input>
			<output>
				<port id="2" names="448" precision="FP16">
					<dim>1</dim>
					<dim>120</dim>
					<dim>34</dim>
					<dim>60</dim>
				</port>
			</output>
		</layer>
		<layer id="143" name="1128" type="Const" version="opset1">
			<data element_type="f16" offset="69012" shape="40, 120, 1, 1" size="9600"/>
			<output>
				<port id="0" names="1128" precision="FP16">
					<dim>40</dim>
					<dim>120</dim>
					<dim>1</dim>
					<dim>1</dim>
				</port>
			</output>
		</layer>
		<layer id="144" name="Conv_51/WithoutBiases" type="Convolution" version="opset1">
			<data auto_pad="explicit" dilations="1, 1" pads_begin="0, 0" pads_end="0, 0" strides="1, 1"/>
			<input>
				<port id="0" precision="FP16">
					<dim>1</dim>
					<dim>120</dim>
					<dim>34</dim>
					<dim>60</dim>
				</port>
				<port id="1" precision="FP16">
					<dim>40</dim>
					<dim>120</dim>
					<dim>1</dim>
					<dim>1</dim>
				</port>
			</input>
			<output>
				<port id="2" precision="FP16">
					<dim>1</dim>
					<dim>40</dim>
					<dim>34</dim>
					<dim>60</dim>
				</port>
			</output>
		</layer>
		<layer id="145" name="Conv_51/Dims9301" type="Const" version="opset1">
			<data element_type="f16" offset="78612" shape="1, 40, 1, 1" size="80"/>
			<output>
				<port id="0" precision="FP16">
					<dim>1</dim>
					<dim>40</dim>
					<dim>1</dim>
					<dim>1</dim>
				</port>
			</output>
		</layer>
		<layer id="146" name="Conv_51" type="Add" version="opset1">
			<data auto_broadcast="numpy"/>
			<input>
				<port id="0" precision="FP16">
					<dim>1</dim>
					<dim>40</dim>
					<dim>34</dim>
					<dim>60</dim>
				</port>
				<port id="1" precision="FP16">
					<dim>1</dim>
					<dim>40</dim>
					<dim>1</dim>
					<dim>1</dim>
				</port>
			</input>
			<output>
				<port id="2" names="1127" precision="FP16">
					<dim>1</dim>
					<dim>40</dim>
					<dim>34</dim>
					<dim>60</dim>
				</port>
			</output>
		</layer>
		<layer id="147" name="Add_52" type="Add" version="opset1">
			<data auto_broadcast="numpy"/>
			<input>
				<port id="0" precision="FP16">
					<dim>1</dim>
					<dim>40</dim>
					<dim>34</dim>
					<dim>60</dim>
				</port>
				<port id="1" precision="FP16">
					<dim>1</dim>
					<dim>40</dim>
					<dim>34</dim>
					<dim>60</dim>
				</port>
			</input>
			<output>
				<port id="2" names="451" precision="FP16">
					<dim>1</dim>
					<dim>40</dim>
					<dim>34</dim>
					<dim>60</dim>
				</port>
			</output>
		</layer>
		<layer id="148" name="1131" type="Const" version="opset1">
			<data element_type="f16" offset="78692" shape="120, 40, 1, 1" size="9600"/>
			<output>
				<port id="0" names="1131" precision="FP16">
					<dim>120</dim>
					<dim>40</dim>
					<dim>1</dim>
					<dim>1</dim>
				</port>
			</output>
		</layer>
		<layer id="149" name="Conv_53/WithoutBiases" type="Convolution" version="opset1">
			<data auto_pad="explicit" dilations="1, 1" pads_begin="0, 0" pads_end="0, 0" strides="1, 1"/>
			<input>
				<port id="0" precision="FP16">
					<dim>1</dim>
					<dim>40</dim>
					<dim>34</dim>
					<dim>60</dim>
				</port>
				<port id="1" precision="FP16">
					<dim>120</dim>
					<dim>40</dim>
					<dim>1</dim>
					<dim>1</dim>
				</port>
			</input>
			<output>
				<port id="2" precision="FP16">
					<dim>1</dim>
					<dim>120</dim>
					<dim>34</dim>
					<dim>60</dim>
				</port>
			</output>
		</layer>
		<layer id="150" name="Conv_53/Dims9079" type="Const" version="opset1">
			<data element_type="f16" offset="88292" shape="1, 120, 1, 1" size="240"/>
			<output>
				<port id="0" precision="FP16">
					<dim>1</dim>
					<dim>120</dim>
					<dim>1</dim>
					<dim>1</dim>
				</port>
			</output>
		</layer>
		<layer id="151" name="Conv_53" type="Add" version="opset1">
			<data auto_broadcast="numpy"/>
			<input>
				<port id="0" precision="FP16">
					<dim>1</dim>
					<dim>120</dim>
					<dim>34</dim>
					<dim>60</dim>
				</port>
				<port id="1" precision="FP16">
					<dim>1</dim>
					<dim>120</dim>
					<dim>1</dim>
					<dim>1</dim>
				</port>
			</input>
			<output>
				<port id="2" names="1130" precision="FP16">
					<dim>1</dim>
					<dim>120</dim>
					<dim>34</dim>
					<dim>60</dim>
				</port>
			</output>
		</layer>
		<layer id="152" name="Relu_54" type="ReLU" version="opset1">
			<input>
				<port id="0" precision="FP16">
					<dim>1</dim>
					<dim>120</dim>
					<dim>34</dim>
					<dim>60</dim>
				</port>
			</input>
			<output>
				<port id="1" names="454" precision="FP16">
					<dim>1</dim>
					<dim>120</dim>
					<dim>34</dim>
					<dim>60</dim>
				</port>
			</output>
		</layer>
		<layer id="153" name="1134" type="Const" version="opset1">
			<data element_type="f16" offset="88532" shape="120, 1, 1, 5, 5" size="6000"/>
			<output>
				<port id="0" names="1134" precision="FP16">
					<dim>120</dim>
					<dim>1</dim>
					<dim>1</dim>
					<dim>5</dim>
					<dim>5</dim>
				</port>
			</output>
		</layer>
		<layer id="154" name="Conv_55/WithoutBiases" type="GroupConvolution" version="opset1">
			<data auto_pad="explicit" dilations="1, 1" pads_begin="2, 2" pads_end="2, 2" strides="1, 1"/>
			<input>
				<port id="0" precision="FP16">
					<dim>1</dim>
					<dim>120</dim>
					<dim>34</dim>
					<dim>60</dim>
				</port>
				<port id="1" precision="FP16">
					<dim>120</dim>
					<dim>1</dim>
					<dim>1</dim>
					<dim>5</dim>
					<dim>5</dim>
				</port>
			</input>
			<output>
				<port id="2" precision="FP16">
					<dim>1</dim>
					<dim>120</dim>
					<dim>34</dim>
					<dim>60</dim>
				</port>
			</output>
		</layer>
		<layer id="155" name="Conv_55/Dims9163" type="Const" version="opset1">
			<data element_type="f16" offset="94532" shape="1, 120, 1, 1" size="240"/>
			<output>
				<port id="0" precision="FP16">
					<dim>1</dim>
					<dim>120</dim>
					<dim>1</dim>
					<dim>1</dim>
				</port>
			</output>
		</layer>
		<layer id="156" name="Conv_55" type="Add" version="opset1">
			<data auto_broadcast="numpy"/>
			<input>
				<port id="0" precision="FP16">
					<dim>1</dim>
					<dim>120</dim>
					<dim>34</dim>
					<dim>60</dim>
				</port>
				<port id="1" precision="FP16">
					<dim>1</dim>
					<dim>120</dim>
					<dim>1</dim>
					<dim>1</dim>
				</port>
			</input>
			<output>
				<port id="2" names="1133" precision="FP16">
					<dim>1</dim>
					<dim>120</dim>
					<dim>34</dim>
					<dim>60</dim>
				</port>
			</output>
		</layer>
		<layer id="157" name="Relu_56" type="ReLU" version="opset1">
			<input>
				<port id="0" precision="FP16">
					<dim>1</dim>
					<dim>120</dim>
					<dim>34</dim>
					<dim>60</dim>
				</port>
			</input>
			<output>
				<port id="1" names="457" precision="FP16">
					<dim>1</dim>
					<dim>120</dim>
					<dim>34</dim>
					<dim>60</dim>
				</port>
			</output>
		</layer>
		<layer id="158" name="883" type="Const" version="opset1">
			<data element_type="i64" offset="34" shape="" size="8"/>
			<output>
				<port id="0" precision="I64"/>
			</output>
		</layer>
		<layer id="159" name="GlobalAveragePool_57/input_rank/shape_of" type="ShapeOf" version="opset3">
			<data output_type="i64"/>
			<input>
				<port id="0" precision="FP16">
					<dim>1</dim>
					<dim>120</dim>
					<dim>34</dim>
					<dim>60</dim>
				</port>
			</input>
			<output>
				<port id="1" precision="I64">
					<dim>4</dim>
				</port>
			</output>
		</layer>
		<layer id="160" name="GlobalAveragePool_57/input_rank/rank_of" type="ShapeOf" version="opset3">
			<data output_type="i64"/>
			<input>
				<port id="0" precision="I64">
					<dim>4</dim>
				</port>
			</input>
			<output>
				<port id="1" precision="I64">
					<dim>1</dim>
				</port>
			</output>
		</layer>
		<layer id="161" name="GlobalAveragePool_57/input_rank/0d_rank_of/value" type="Const" version="opset1">
			<data element_type="i64" offset="24314" shape="1" size="8"/>
			<output>
				<port id="0" precision="I64">
					<dim>1</dim>
				</port>
			</output>
		</layer>
		<layer id="162" name="GlobalAveragePool_57/input_rank" type="Squeeze" version="opset1">
			<input>
				<port id="0" precision="I64">
					<dim>1</dim>
				</port>
				<port id="1" precision="I64">
					<dim>1</dim>
				</port>
			</input>
			<output>
				<port id="2" precision="I64"/>
			</output>
		</layer>
		<layer id="163" name="885" type="Const" version="opset1">
			<data element_type="i64" offset="0" shape="" size="8"/>
			<output>
				<port id="0" precision="I64"/>
			</output>
		</layer>
		<layer id="164" name="GlobalAveragePool_57/global_pooling_reduce_axis" type="Range" version="opset4">
			<data output_type="i64"/>
			<input>
				<port id="0" precision="I64"/>
				<port id="1" precision="I64"/>
				<port id="2" precision="I64"/>
			</input>
			<output>
				<port id="3" precision="I64">
					<dim>2</dim>
				</port>
			</output>
		</layer>
		<layer id="165" name="GlobalAveragePool_57/reduce" type="ReduceMean" version="opset1">
			<data keep_dims="true"/>
			<input>
				<port id="0" precision="FP16">
					<dim>1</dim>
					<dim>120</dim>
					<dim>34</dim>
					<dim>60</dim>
				</port>
				<port id="1" precision="I64">
					<dim>2</dim>
				</port>
			</input>
			<output>
				<port id="2" names="458" precision="FP16">
					<dim>1</dim>
					<dim>120</dim>
					<dim>1</dim>
					<dim>1</dim>
				</port>
			</output>
		</layer>
		<layer id="166" name="backbone.features.6.block.2.fc1.weight" type="Const" version="opset1">
			<data element_type="f16" offset="94772" shape="32, 120, 1, 1" size="7680"/>
			<output>
				<port id="0" names="backbone.features.6.block.2.fc1.weight" precision="FP16">
					<dim>32</dim>
					<dim>120</dim>
					<dim>1</dim>
					<dim>1</dim>
				</port>
			</output>
		</layer>
		<layer id="167" name="Conv_58/WithoutBiases" type="Convolution" version="opset1">
			<data auto_pad="explicit" dilations="1, 1" pads_begin="0, 0" pads_end="0, 0" strides="1, 1"/>
			<input>
				<port id="0" precision="FP16">
					<dim>1</dim>
					<dim>120</dim>
					<dim>1</dim>
					<dim>1</dim>
				</port>
				<port id="1" precision="FP16">
					<dim>32</dim>
					<dim>120</dim>
					<dim>1</dim>
					<dim>1</dim>
				</port>
			</input>
			<output>
				<port id="2" precision="FP16">
					<dim>1</dim>
					<dim>32</dim>
					<dim>1</dim>
					<dim>1</dim>
				</port>
			</output>
		</layer>
		<layer id="168" name="Conv_58/Dims9319" type="Const" version="opset1">
			<data element_type="f16" offset="102452" shape="1, 32, 1, 1" size="64"/>
			<output>
				<port id="0" precision="FP16">
					<dim>1</dim>
					<dim>32</dim>
					<dim>1</dim>
					<dim>1</dim>
				</port>
			</output>
		</layer>
		<layer id="169" name="Conv_58" type="Add" version="opset1">
			<data auto_broadcast="numpy"/>
			<input>
				<port id="0" precision="FP16">
					<dim>1</dim>
					<dim>32</dim>
					<dim>1</dim>
					<dim>1</dim>
				</port>
				<port id="1" precision="FP16">
					<dim>1</dim>
					<dim>32</dim>
					<dim>1</dim>
					<dim>1</dim>
				</port>
			</input>
			<output>
				<port id="2" names="459" precision="FP16">
					<dim>1</dim>
					<dim>32</dim>
					<dim>1</dim>
					<dim>1</dim>
				</port>
			</output>
		</layer>
		<layer id="170" name="Relu_59" type="ReLU" version="opset1">
			<input>
				<port id="0" precision="FP16">
					<dim>1</dim>
					<dim>32</dim>
					<dim>1</dim>
					<dim>1</dim>
				</port>
			</input>
			<output>
				<port id="1" names="460" precision="FP16">
					<dim>1</dim>
					<dim>32</dim>
					<dim>1</dim>
					<dim>1</dim>
				</port>
			</output>
		</layer>
		<layer id="171" name="backbone.features.6.block.2.fc2.weight" type="Const" version="opset1">
			<data element_type="f16" offset="102516" shape="120, 32, 1, 1" size="7680"/>
			<output>
				<port id="0" names="backbone.features.6.block.2.fc2.weight" precision="FP16">
					<dim>120</dim>
					<dim>32</dim>
					<dim>1</dim>
					<dim>1</dim>
				</port>
			</output>
		</layer>
		<layer id="172" name="Conv_60/WithoutBiases" type="Convolution" version="opset1">
			<data auto_pad="explicit" dilations="1, 1" pads_begin="0, 0" pads_end="0, 0" strides="1, 1"/>
			<input>
				<port id="0" precision="FP16">
					<dim>1</dim>
					<dim>32</dim>
					<dim>1</dim>
					<dim>1</dim>
				</port>
				<port id="1" precision="FP16">
					<dim>120</dim>
					<dim>32</dim>
					<dim>1</dim>
					<dim>1</dim>
				</port>
			</input>
			<output>
				<port id="2" precision="FP16">
					<dim>1</dim>
					<dim>120</dim>
					<dim>1</dim>
					<dim>1</dim>
				</port>
			</output>
		</layer>
		<layer id="173" name="Conv_60/Dims9085" type="Const" version="opset1">
			<data element_type="f16" offset="110196" shape="1, 120, 1, 1" size="240"/>
			<output>
				<port id="0" precision="FP16">
					<dim>1</dim>
					<dim>120</dim>
					<dim>1</dim>
					<dim>1</dim>
				</port>
			</output>
		</layer>
		<layer id="174" name="Conv_60" type="Add" version="opset1">
			<data auto_broadcast="numpy"/>
			<input>
				<port id="0" precision="FP16">
					<dim>1</dim>
					<dim>120</dim>
					<dim>1</dim>
					<dim>1</dim>
				</port>
				<port id="1" precision="FP16">
					<dim>1</dim>
					<dim>120</dim>
					<dim>1</dim>
					<dim>1</dim>
				</port>
			</input>
			<output>
				<port id="2" names="461" precision="FP16">
					<dim>1</dim>
					<dim>120</dim>
					<dim>1</dim>
					<dim>1</dim>
				</port>
			</output>
		</layer>
		<layer id="175" name="HardSigmoid_61/HardSigmoid__input_port_1/value" type="Const" version="opset1">
			<data element_type="f16" offset="984" shape="" size="2"/>
			<output>
				<port id="0" precision="FP16"/>
			</output>
		</layer>
		<layer id="176" name="HardSigmoid_61/HardSigmoid__input_port_2/value" type="Const" version="opset1">
			<data element_type="f16" offset="31426" shape="" size="2"/>
			<output>
				<port id="0" precision="FP16"/>
			</output>
		</layer>
		<layer id="177" name="HardSigmoid_61/HardSigmoid_" type="HardSigmoid" version="opset1">
			<input>
				<port id="0" precision="FP16">
					<dim>1</dim>
					<dim>120</dim>
					<dim>1</dim>
					<dim>1</dim>
				</port>
				<port id="1" precision="FP16"/>
				<port id="2" precision="FP16"/>
			</input>
			<output>
				<port id="3" names="462" precision="FP16">
					<dim>1</dim>
					<dim>120</dim>
					<dim>1</dim>
					<dim>1</dim>
				</port>
			</output>
		</layer>
		<layer id="178" name="Mul_62" type="Multiply" version="opset1">
			<data auto_broadcast="numpy"/>
			<input>
				<port id="0" precision="FP16">
					<dim>1</dim>
					<dim>120</dim>
					<dim>1</dim>
					<dim>1</dim>
				</port>
				<port id="1" precision="FP16">
					<dim>1</dim>
					<dim>120</dim>
					<dim>34</dim>
					<dim>60</dim>
				</port>
			</input>
			<output>
				<port id="2" names="463" precision="FP16">
					<dim>1</dim>
					<dim>120</dim>
					<dim>34</dim>
					<dim>60</dim>
				</port>
			</output>
		</layer>
		<layer id="179" name="1137" type="Const" version="opset1">
			<data element_type="f16" offset="110436" shape="40, 120, 1, 1" size="9600"/>
			<output>
				<port id="0" names="1137" precision="FP16">
					<dim>40</dim>
					<dim>120</dim>
					<dim>1</dim>
					<dim>1</dim>
				</port>
			</output>
		</layer>
		<layer id="180" name="Conv_63/WithoutBiases" type="Convolution" version="opset1">
			<data auto_pad="explicit" dilations="1, 1" pads_begin="0, 0" pads_end="0, 0" strides="1, 1"/>
			<input>
				<port id="0" precision="FP16">
					<dim>1</dim>
					<dim>120</dim>
					<dim>34</dim>
					<dim>60</dim>
				</port>
				<port id="1" precision="FP16">
					<dim>40</dim>
					<dim>120</dim>
					<dim>1</dim>
					<dim>1</dim>
				</port>
			</input>
			<output>
				<port id="2" precision="FP16">
					<dim>1</dim>
					<dim>40</dim>
					<dim>34</dim>
					<dim>60</dim>
				</port>
			</output>
		</layer>
		<layer id="181" name="Conv_63/Dims9283" type="Const" version="opset1">
			<data element_type="f16" offset="120036" shape="1, 40, 1, 1" size="80"/>
			<output>
				<port id="0" precision="FP16">
					<dim>1</dim>
					<dim>40</dim>
					<dim>1</dim>
					<dim>1</dim>
				</port>
			</output>
		</layer>
		<layer id="182" name="Conv_63" type="Add" version="opset1">
			<data auto_broadcast="numpy"/>
			<input>
				<port id="0" precision="FP16">
					<dim>1</dim>
					<dim>40</dim>
					<dim>34</dim>
					<dim>60</dim>
				</port>
				<port id="1" precision="FP16">
					<dim>1</dim>
					<dim>40</dim>
					<dim>1</dim>
					<dim>1</dim>
				</port>
			</input>
			<output>
				<port id="2" names="1136" precision="FP16">
					<dim>1</dim>
					<dim>40</dim>
					<dim>34</dim>
					<dim>60</dim>
				</port>
			</output>
		</layer>
		<layer id="183" name="Add_64" type="Add" version="opset1">
			<data auto_broadcast="numpy"/>
			<input>
				<port id="0" precision="FP16">
					<dim>1</dim>
					<dim>40</dim>
					<dim>34</dim>
					<dim>60</dim>
				</port>
				<port id="1" precision="FP16">
					<dim>1</dim>
					<dim>40</dim>
					<dim>34</dim>
					<dim>60</dim>
				</port>
			</input>
			<output>
				<port id="2" names="466" precision="FP16">
					<dim>1</dim>
					<dim>40</dim>
					<dim>34</dim>
					<dim>60</dim>
				</port>
			</output>
		</layer>
		<layer id="184" name="1140" type="Const" version="opset1">
			<data element_type="f16" offset="120116" shape="240, 40, 1, 1" size="19200"/>
			<output>
				<port id="0" names="1140" precision="FP16">
					<dim>240</dim>
					<dim>40</dim>
					<dim>1</dim>
					<dim>1</dim>
				</port>
			</output>
		</layer>
		<layer id="185" name="Conv_65/WithoutBiases" type="Convolution" version="opset1">
			<data auto_pad="explicit" dilations="1, 1" pads_begin="0, 0" pads_end="0, 0" strides="1, 1"/>
			<input>
				<port id="0" precision="FP16">
					<dim>1</dim>
					<dim>40</dim>
					<dim>34</dim>
					<dim>60</dim>
				</port>
				<port id="1" precision="FP16">
					<dim>240</dim>
					<dim>40</dim>
					<dim>1</dim>
					<dim>1</dim>
				</port>
			</input>
			<output>
				<port id="2" precision="FP16">
					<dim>1</dim>
					<dim>240</dim>
					<dim>34</dim>
					<dim>60</dim>
				</port>
			</output>
		</layer>
		<layer id="186" name="Conv_65/Dims9379" type="Const" version="opset1">
			<data element_type="f16" offset="139316" shape="1, 240, 1, 1" size="480"/>
			<output>
				<port id="0" precision="FP16">
					<dim>1</dim>
					<dim>240</dim>
					<dim>1</dim>
					<dim>1</dim>
				</port>
			</output>
		</layer>
		<layer id="187" name="Conv_65" type="Add" version="opset1">
			<data auto_broadcast="numpy"/>
			<input>
				<port id="0" precision="FP16">
					<dim>1</dim>
					<dim>240</dim>
					<dim>34</dim>
					<dim>60</dim>
				</port>
				<port id="1" precision="FP16">
					<dim>1</dim>
					<dim>240</dim>
					<dim>1</dim>
					<dim>1</dim>
				</port>
			</input>
			<output>
				<port id="2" names="1139" precision="FP16">
					<dim>1</dim>
					<dim>240</dim>
					<dim>34</dim>
					<dim>60</dim>
				</port>
			</output>
		</layer>
		<layer id="188" name="Constant_66" type="Const" version="opset1">
			<data element_type="f16" offset="982" shape="1, 1, 1, 1" size="2"/>
			<output>
				<port id="0" names="469" precision="FP16">
					<dim>1</dim>
					<dim>1</dim>
					<dim>1</dim>
					<dim>1</dim>
				</port>
			</output>
		</layer>
		<layer id="189" name="Add_67" type="Add" version="opset1">
			<data auto_broadcast="numpy"/>
			<input>
				<port id="0" precision="FP16">
					<dim>1</dim>
					<dim>240</dim>
					<dim>34</dim>
					<dim>60</dim>
				</port>
				<port id="1" precision="FP16">
					<dim>1</dim>
					<dim>1</dim>
					<dim>1</dim>
					<dim>1</dim>
				</port>
			</input>
			<output>
				<port id="2" names="470" precision="FP16">
					<dim>1</dim>
					<dim>240</dim>
					<dim>34</dim>
					<dim>60</dim>
				</port>
			</output>
		</layer>
		<layer id="190" name="Clip_70" type="Clamp" version="opset1">
			<data max="6" min="0"/>
			<input>
				<port id="0" precision="FP16">
					<dim>1</dim>
					<dim>240</dim>
					<dim>34</dim>
					<dim>60</dim>
				</port>
			</input>
			<output>
				<port id="1" names="473" precision="FP16">
					<dim>1</dim>
					<dim>240</dim>
					<dim>34</dim>
					<dim>60</dim>
				</port>
			</output>
		</layer>
		<layer id="191" name="Constant_71" type="Const" version="opset1">
			<data element_type="f16" offset="984" shape="1, 1, 1, 1" size="2"/>
			<output>
				<port id="0" names="474" precision="FP16">
					<dim>1</dim>
					<dim>1</dim>
					<dim>1</dim>
					<dim>1</dim>
				</port>
			</output>
		</layer>
		<layer id="192" name="Div_72" type="Multiply" version="opset1">
			<data auto_broadcast="numpy"/>
			<input>
				<port id="0" precision="FP16">
					<dim>1</dim>
					<dim>240</dim>
					<dim>34</dim>
					<dim>60</dim>
				</port>
				<port id="1" precision="FP16">
					<dim>1</dim>
					<dim>1</dim>
					<dim>1</dim>
					<dim>1</dim>
				</port>
			</input>
			<output>
				<port id="2" names="475" precision="FP16">
					<dim>1</dim>
					<dim>240</dim>
					<dim>34</dim>
					<dim>60</dim>
				</port>
			</output>
		</layer>
		<layer id="193" name="Mul_73" type="Multiply" version="opset1">
			<data auto_broadcast="numpy"/>
			<input>
				<port id="0" precision="FP16">
					<dim>1</dim>
					<dim>240</dim>
					<dim>34</dim>
					<dim>60</dim>
				</port>
				<port id="1" precision="FP16">
					<dim>1</dim>
					<dim>240</dim>
					<dim>34</dim>
					<dim>60</dim>
				</port>
			</input>
			<output>
				<port id="2" names="476" precision="FP16">
					<dim>1</dim>
					<dim>240</dim>
					<dim>34</dim>
					<dim>60</dim>
				</port>
			</output>
		</layer>
		<layer id="194" name="1143" type="Const" version="opset1">
			<data element_type="f16" offset="139796" shape="240, 1, 1, 3, 3" size="4320"/>
			<output>
				<port id="0" names="1143" precision="FP16">
					<dim>240</dim>
					<dim>1</dim>
					<dim>1</dim>
					<dim>3</dim>
					<dim>3</dim>
				</port>
			</output>
		</layer>
		<layer id="195" name="Conv_74/WithoutBiases" type="GroupConvolution" version="opset1">
			<data auto_pad="explicit" dilations="1, 1" pads_begin="1, 1" pads_end="1, 1" strides="2, 2"/>
			<input>
				<port id="0" precision="FP16">
					<dim>1</dim>
					<dim>240</dim>
					<dim>34</dim>
					<dim>60</dim>
				</port>
				<port id="1" precision="FP16">
					<dim>240</dim>
					<dim>1</dim>
					<dim>1</dim>
					<dim>3</dim>
					<dim>3</dim>
				</port>
			</input>
			<output>
				<port id="2" precision="FP16">
					<dim>1</dim>
					<dim>240</dim>
					<dim>17</dim>
					<dim>30</dim>
				</port>
			</output>
		</layer>
		<layer id="196" name="Conv_74/Dims9295" type="Const" version="opset1">
			<data element_type="f16" offset="144116" shape="1, 240, 1, 1" size="480"/>
			<output>
				<port id="0" precision="FP16">
					<dim>1</dim>
					<dim>240</dim>
					<dim>1</dim>
					<dim>1</dim>
				</port>
			</output>
		</layer>
		<layer id="197" name="Conv_74" type="Add" version="opset1">
			<data auto_broadcast="numpy"/>
			<input>
				<port id="0" precision="FP16">
					<dim>1</dim>
					<dim>240</dim>
					<dim>17</dim>
					<dim>30</dim>
				</port>
				<port id="1" precision="FP16">
					<dim>1</dim>
					<dim>240</dim>
					<dim>1</dim>
					<dim>1</dim>
				</port>
			</input>
			<output>
				<port id="2" names="1142" precision="FP16">
					<dim>1</dim>
					<dim>240</dim>
					<dim>17</dim>
					<dim>30</dim>
				</port>
			</output>
		</layer>
		<layer id="198" name="Constant_75" type="Const" version="opset1">
			<data element_type="f16" offset="982" shape="1, 1, 1, 1" size="2"/>
			<output>
				<port id="0" names="479" precision="FP16">
					<dim>1</dim>
					<dim>1</dim>
					<dim>1</dim>
					<dim>1</dim>
				</port>
			</output>
		</layer>
		<layer id="199" name="Add_76" type="Add" version="opset1">
			<data auto_broadcast="numpy"/>
			<input>
				<port id="0" precision="FP16">
					<dim>1</dim>
					<dim>240</dim>
					<dim>17</dim>
					<dim>30</dim>
				</port>
				<port id="1" precision="FP16">
					<dim>1</dim>
					<dim>1</dim>
					<dim>1</dim>
					<dim>1</dim>
				</port>
			</input>
			<output>
				<port id="2" names="480" precision="FP16">
					<dim>1</dim>
					<dim>240</dim>
					<dim>17</dim>
					<dim>30</dim>
				</port>
			</output>
		</layer>
		<layer id="200" name="Clip_79" type="Clamp" version="opset1">
			<data max="6" min="0"/>
			<input>
				<port id="0" precision="FP16">
					<dim>1</dim>
					<dim>240</dim>
					<dim>17</dim>
					<dim>30</dim>
				</port>
			</input>
			<output>
				<port id="1" names="483" precision="FP16">
					<dim>1</dim>
					<dim>240</dim>
					<dim>17</dim>
					<dim>30</dim>
				</port>
			</output>
		</layer>
		<layer id="201" name="Constant_80" type="Const" version="opset1">
			<data element_type="f16" offset="984" shape="1, 1, 1, 1" size="2"/>
			<output>
				<port id="0" names="484" precision="FP16">
					<dim>1</dim>
					<dim>1</dim>
					<dim>1</dim>
					<dim>1</dim>
				</port>
			</output>
		</layer>
		<layer id="202" name="Div_81" type="Multiply" version="opset1">
			<data auto_broadcast="numpy"/>
			<input>
				<port id="0" precision="FP16">
					<dim>1</dim>
					<dim>240</dim>
					<dim>17</dim>
					<dim>30</dim>
				</port>
				<port id="1" precision="FP16">
					<dim>1</dim>
					<dim>1</dim>
					<dim>1</dim>
					<dim>1</dim>
				</port>
			</input>
			<output>
				<port id="2" names="485" precision="FP16">
					<dim>1</dim>
					<dim>240</dim>
					<dim>17</dim>
					<dim>30</dim>
				</port>
			</output>
		</layer>
		<layer id="203" name="Mul_82" type="Multiply" version="opset1">
			<data auto_broadcast="numpy"/>
			<input>
				<port id="0" precision="FP16">
					<dim>1</dim>
					<dim>240</dim>
					<dim>17</dim>
					<dim>30</dim>
				</port>
				<port id="1" precision="FP16">
					<dim>1</dim>
					<dim>240</dim>
					<dim>17</dim>
					<dim>30</dim>
				</port>
			</input>
			<output>
				<port id="2" names="486" precision="FP16">
					<dim>1</dim>
					<dim>240</dim>
					<dim>17</dim>
					<dim>30</dim>
				</port>
			</output>
		</layer>
		<layer id="204" name="1146" type="Const" version="opset1">
			<data element_type="f16" offset="144596" shape="80, 240, 1, 1" size="38400"/>
			<output>
				<port id="0" names="1146" precision="FP16">
					<dim>80</dim>
					<dim>240</dim>
					<dim>1</dim>
					<dim>1</dim>
				</port>
			</output>
		</layer>
		<layer id="205" name="Conv_83/WithoutBiases" type="Convolution" version="opset1">
			<data auto_pad="explicit" dilations="1, 1" pads_begin="0, 0" pads_end="0, 0" strides="1, 1"/>
			<input>
				<port id="0" precision="FP16">
					<dim>1</dim>
					<dim>240</dim>
					<dim>17</dim>
					<dim>30</dim>
				</port>
				<port id="1" precision="FP16">
					<dim>80</dim>
					<dim>240</dim>
					<dim>1</dim>
					<dim>1</dim>
				</port>
			</input>
			<output>
				<port id="2" precision="FP16">
					<dim>1</dim>
					<dim>80</dim>
					<dim>17</dim>
					<dim>30</dim>
				</port>
			</output>
		</layer>
		<layer id="206" name="Conv_83/Dims9331" type="Const" version="opset1">
			<data element_type="f16" offset="182996" shape="1, 80, 1, 1" size="160"/>
			<output>
				<port id="0" precision="FP16">
					<dim>1</dim>
					<dim>80</dim>
					<dim>1</dim>
					<dim>1</dim>
				</port>
			</output>
		</layer>
		<layer id="207" name="Conv_83" type="Add" version="opset1">
			<data auto_broadcast="numpy"/>
			<input>
				<port id="0" precision="FP16">
					<dim>1</dim>
					<dim>80</dim>
					<dim>17</dim>
					<dim>30</dim>
				</port>
				<port id="1" precision="FP16">
					<dim>1</dim>
					<dim>80</dim>
					<dim>1</dim>
					<dim>1</dim>
				</port>
			</input>
			<output>
				<port id="2" names="1145" precision="FP16">
					<dim>1</dim>
					<dim>80</dim>
					<dim>17</dim>
					<dim>30</dim>
				</port>
			</output>
		</layer>
		<layer id="208" name="1149" type="Const" version="opset1">
			<data element_type="f16" offset="183156" shape="200, 80, 1, 1" size="32000"/>
			<output>
				<port id="0" names="1149" precision="FP16">
					<dim>200</dim>
					<dim>80</dim>
					<dim>1</dim>
					<dim>1</dim>
				</port>
			</output>
		</layer>
		<layer id="209" name="Conv_84/WithoutBiases" type="Convolution" version="opset1">
			<data auto_pad="explicit" dilations="1, 1" pads_begin="0, 0" pads_end="0, 0" strides="1, 1"/>
			<input>
				<port id="0" precision="FP16">
					<dim>1</dim>
					<dim>80</dim>
					<dim>17</dim>
					<dim>30</dim>
				</port>
				<port id="1" precision="FP16">
					<dim>200</dim>
					<dim>80</dim>
					<dim>1</dim>
					<dim>1</dim>
				</port>
			</input>
			<output>
				<port id="2" precision="FP16">
					<dim>1</dim>
					<dim>200</dim>
					<dim>17</dim>
					<dim>30</dim>
				</port>
			</output>
		</layer>
		<layer id="210" name="Conv_84/Dims9235" type="Const" version="opset1">
			<data element_type="f16" offset="215156" shape="1, 200, 1, 1" size="400"/>
			<output>
				<port id="0" precision="FP16">
					<dim>1</dim>
					<dim>200</dim>
					<dim>1</dim>
					<dim>1</dim>
				</port>
			</output>
		</layer>
		<layer id="211" name="Conv_84" type="Add" version="opset1">
			<data auto_broadcast="numpy"/>
			<input>
				<port id="0" precision="FP16">
					<dim>1</dim>
					<dim>200</dim>
					<dim>17</dim>
					<dim>30</dim>
				</port>
				<port id="1" precision="FP16">
					<dim>1</dim>
					<dim>200</dim>
					<dim>1</dim>
					<dim>1</dim>
				</port>
			</input>
			<output>
				<port id="2" names="1148" precision="FP16">
					<dim>1</dim>
					<dim>200</dim>
					<dim>17</dim>
					<dim>30</dim>
				</port>
			</output>
		</layer>
		<layer id="212" name="Constant_85" type="Const" version="opset1">
			<data element_type="f16" offset="982" shape="1, 1, 1, 1" size="2"/>
			<output>
				<port id="0" names="491" precision="FP16">
					<dim>1</dim>
					<dim>1</dim>
					<dim>1</dim>
					<dim>1</dim>
				</port>
			</output>
		</layer>
		<layer id="213" name="Add_86" type="Add" version="opset1">
			<data auto_broadcast="numpy"/>
			<input>
				<port id="0" precision="FP16">
					<dim>1</dim>
					<dim>200</dim>
					<dim>17</dim>
					<dim>30</dim>
				</port>
				<port id="1" precision="FP16">
					<dim>1</dim>
					<dim>1</dim>
					<dim>1</dim>
					<dim>1</dim>
				</port>
			</input>
			<output>
				<port id="2" names="492" precision="FP16">
					<dim>1</dim>
					<dim>200</dim>
					<dim>17</dim>
					<dim>30</dim>
				</port>
			</output>
		</layer>
		<layer id="214" name="Clip_89" type="Clamp" version="opset1">
			<data max="6" min="0"/>
			<input>
				<port id="0" precision="FP16">
					<dim>1</dim>
					<dim>200</dim>
					<dim>17</dim>
					<dim>30</dim>
				</port>
			</input>
			<output>
				<port id="1" names="495" precision="FP16">
					<dim>1</dim>
					<dim>200</dim>
					<dim>17</dim>
					<dim>30</dim>
				</port>
			</output>
		</layer>
		<layer id="215" name="Constant_90" type="Const" version="opset1">
			<data element_type="f16" offset="984" shape="1, 1, 1, 1" size="2"/>
			<output>
				<port id="0" names="496" precision="FP16">
					<dim>1</dim>
					<dim>1</dim>
					<dim>1</dim>
					<dim>1</dim>
				</port>
			</output>
		</layer>
		<layer id="216" name="Div_91" type="Multiply" version="opset1">
			<data auto_broadcast="numpy"/>
			<input>
				<port id="0" precision="FP16">
					<dim>1</dim>
					<dim>200</dim>
					<dim>17</dim>
					<dim>30</dim>
				</port>
				<port id="1" precision="FP16">
					<dim>1</dim>
					<dim>1</dim>
					<dim>1</dim>
					<dim>1</dim>
				</port>
			</input>
			<output>
				<port id="2" names="497" precision="FP16">
					<dim>1</dim>
					<dim>200</dim>
					<dim>17</dim>
					<dim>30</dim>
				</port>
			</output>
		</layer>
		<layer id="217" name="Mul_92" type="Multiply" version="opset1">
			<data auto_broadcast="numpy"/>
			<input>
				<port id="0" precision="FP16">
					<dim>1</dim>
					<dim>200</dim>
					<dim>17</dim>
					<dim>30</dim>
				</port>
				<port id="1" precision="FP16">
					<dim>1</dim>
					<dim>200</dim>
					<dim>17</dim>
					<dim>30</dim>
				</port>
			</input>
			<output>
				<port id="2" names="498" precision="FP16">
					<dim>1</dim>
					<dim>200</dim>
					<dim>17</dim>
					<dim>30</dim>
				</port>
			</output>
		</layer>
		<layer id="218" name="1152" type="Const" version="opset1">
			<data element_type="f16" offset="215556" shape="200, 1, 1, 3, 3" size="3600"/>
			<output>
				<port id="0" names="1152" precision="FP16">
					<dim>200</dim>
					<dim>1</dim>
					<dim>1</dim>
					<dim>3</dim>
					<dim>3</dim>
				</port>
			</output>
		</layer>
		<layer id="219" name="Conv_93/WithoutBiases" type="GroupConvolution" version="opset1">
			<data auto_pad="explicit" dilations="1, 1" pads_begin="1, 1" pads_end="1, 1" strides="1, 1"/>
			<input>
				<port id="0" precision="FP16">
					<dim>1</dim>
					<dim>200</dim>
					<dim>17</dim>
					<dim>30</dim>
				</port>
				<port id="1" precision="FP16">
					<dim>200</dim>
					<dim>1</dim>
					<dim>1</dim>
					<dim>3</dim>
					<dim>3</dim>
				</port>
			</input>
			<output>
				<port id="2" precision="FP16">
					<dim>1</dim>
					<dim>200</dim>
					<dim>17</dim>
					<dim>30</dim>
				</port>
			</output>
		</layer>
		<layer id="220" name="Conv_93/Dims9217" type="Const" version="opset1">
			<data element_type="f16" offset="219156" shape="1, 200, 1, 1" size="400"/>
			<output>
				<port id="0" precision="FP16">
					<dim>1</dim>
					<dim>200</dim>
					<dim>1</dim>
					<dim>1</dim>
				</port>
			</output>
		</layer>
		<layer id="221" name="Conv_93" type="Add" version="opset1">
			<data auto_broadcast="numpy"/>
			<input>
				<port id="0" precision="FP16">
					<dim>1</dim>
					<dim>200</dim>
					<dim>17</dim>
					<dim>30</dim>
				</port>
				<port id="1" precision="FP16">
					<dim>1</dim>
					<dim>200</dim>
					<dim>1</dim>
					<dim>1</dim>
				</port>
			</input>
			<output>
				<port id="2" names="1151" precision="FP16">
					<dim>1</dim>
					<dim>200</dim>
					<dim>17</dim>
					<dim>30</dim>
				</port>
			</output>
		</layer>
		<layer id="222" name="Constant_94" type="Const" version="opset1">
			<data element_type="f16" offset="982" shape="1, 1, 1, 1" size="2"/>
			<output>
				<port id="0" names="501" precision="FP16">
					<dim>1</dim>
					<dim>1</dim>
					<dim>1</dim>
					<dim>1</dim>
				</port>
			</output>
		</layer>
		<layer id="223" name="Add_95" type="Add" version="opset1">
			<data auto_broadcast="numpy"/>
			<input>
				<port id="0" precision="FP16">
					<dim>1</dim>
					<dim>200</dim>
					<dim>17</dim>
					<dim>30</dim>
				</port>
				<port id="1" precision="FP16">
					<dim>1</dim>
					<dim>1</dim>
					<dim>1</dim>
					<dim>1</dim>
				</port>
			</input>
			<output>
				<port id="2" names="502" precision="FP16">
					<dim>1</dim>
					<dim>200</dim>
					<dim>17</dim>
					<dim>30</dim>
				</port>
			</output>
		</layer>
		<layer id="224" name="Clip_98" type="Clamp" version="opset1">
			<data max="6" min="0"/>
			<input>
				<port id="0" precision="FP16">
					<dim>1</dim>
					<dim>200</dim>
					<dim>17</dim>
					<dim>30</dim>
				</port>
			</input>
			<output>
				<port id="1" names="505" precision="FP16">
					<dim>1</dim>
					<dim>200</dim>
					<dim>17</dim>
					<dim>30</dim>
				</port>
			</output>
		</layer>
		<layer id="225" name="Constant_99" type="Const" version="opset1">
			<data element_type="f16" offset="984" shape="1, 1, 1, 1" size="2"/>
			<output>
				<port id="0" names="506" precision="FP16">
					<dim>1</dim>
					<dim>1</dim>
					<dim>1</dim>
					<dim>1</dim>
				</port>
			</output>
		</layer>
		<layer id="226" name="Div_100" type="Multiply" version="opset1">
			<data auto_broadcast="numpy"/>
			<input>
				<port id="0" precision="FP16">
					<dim>1</dim>
					<dim>200</dim>
					<dim>17</dim>
					<dim>30</dim>
				</port>
				<port id="1" precision="FP16">
					<dim>1</dim>
					<dim>1</dim>
					<dim>1</dim>
					<dim>1</dim>
				</port>
			</input>
			<output>
				<port id="2" names="507" precision="FP16">
					<dim>1</dim>
					<dim>200</dim>
					<dim>17</dim>
					<dim>30</dim>
				</port>
			</output>
		</layer>
		<layer id="227" name="Mul_101" type="Multiply" version="opset1">
			<data auto_broadcast="numpy"/>
			<input>
				<port id="0" precision="FP16">
					<dim>1</dim>
					<dim>200</dim>
					<dim>17</dim>
					<dim>30</dim>
				</port>
				<port id="1" precision="FP16">
					<dim>1</dim>
					<dim>200</dim>
					<dim>17</dim>
					<dim>30</dim>
				</port>
			</input>
			<output>
				<port id="2" names="508" precision="FP16">
					<dim>1</dim>
					<dim>200</dim>
					<dim>17</dim>
					<dim>30</dim>
				</port>
			</output>
		</layer>
		<layer id="228" name="1155" type="Const" version="opset1">
			<data element_type="f16" offset="219556" shape="80, 200, 1, 1" size="32000"/>
			<output>
				<port id="0" names="1155" precision="FP16">
					<dim>80</dim>
					<dim>200</dim>
					<dim>1</dim>
					<dim>1</dim>
				</port>
			</output>
		</layer>
		<layer id="229" name="Conv_102/WithoutBiases" type="Convolution" version="opset1">
			<data auto_pad="explicit" dilations="1, 1" pads_begin="0, 0" pads_end="0, 0" strides="1, 1"/>
			<input>
				<port id="0" precision="FP16">
					<dim>1</dim>
					<dim>200</dim>
					<dim>17</dim>
					<dim>30</dim>
				</port>
				<port id="1" precision="FP16">
					<dim>80</dim>
					<dim>200</dim>
					<dim>1</dim>
					<dim>1</dim>
				</port>
			</input>
			<output>
				<port id="2" precision="FP16">
					<dim>1</dim>
					<dim>80</dim>
					<dim>17</dim>
					<dim>30</dim>
				</port>
			</output>
		</layer>
		<layer id="230" name="Conv_102/Dims8911" type="Const" version="opset1">
			<data element_type="f16" offset="251556" shape="1, 80, 1, 1" size="160"/>
			<output>
				<port id="0" precision="FP16">
					<dim>1</dim>
					<dim>80</dim>
					<dim>1</dim>
					<dim>1</dim>
				</port>
			</output>
		</layer>
		<layer id="231" name="Conv_102" type="Add" version="opset1">
			<data auto_broadcast="numpy"/>
			<input>
				<port id="0" precision="FP16">
					<dim>1</dim>
					<dim>80</dim>
					<dim>17</dim>
					<dim>30</dim>
				</port>
				<port id="1" precision="FP16">
					<dim>1</dim>
					<dim>80</dim>
					<dim>1</dim>
					<dim>1</dim>
				</port>
			</input>
			<output>
				<port id="2" names="1154" precision="FP16">
					<dim>1</dim>
					<dim>80</dim>
					<dim>17</dim>
					<dim>30</dim>
				</port>
			</output>
		</layer>
		<layer id="232" name="Add_103" type="Add" version="opset1">
			<data auto_broadcast="numpy"/>
			<input>
				<port id="0" precision="FP16">
					<dim>1</dim>
					<dim>80</dim>
					<dim>17</dim>
					<dim>30</dim>
				</port>
				<port id="1" precision="FP16">
					<dim>1</dim>
					<dim>80</dim>
					<dim>17</dim>
					<dim>30</dim>
				</port>
			</input>
			<output>
				<port id="2" names="511" precision="FP16">
					<dim>1</dim>
					<dim>80</dim>
					<dim>17</dim>
					<dim>30</dim>
				</port>
			</output>
		</layer>
		<layer id="233" name="1158" type="Const" version="opset1">
			<data element_type="f16" offset="251716" shape="184, 80, 1, 1" size="29440"/>
			<output>
				<port id="0" names="1158" precision="FP16">
					<dim>184</dim>
					<dim>80</dim>
					<dim>1</dim>
					<dim>1</dim>
				</port>
			</output>
		</layer>
		<layer id="234" name="Conv_104/WithoutBiases" type="Convolution" version="opset1">
			<data auto_pad="explicit" dilations="1, 1" pads_begin="0, 0" pads_end="0, 0" strides="1, 1"/>
			<input>
				<port id="0" precision="FP16">
					<dim>1</dim>
					<dim>80</dim>
					<dim>17</dim>
					<dim>30</dim>
				</port>
				<port id="1" precision="FP16">
					<dim>184</dim>
					<dim>80</dim>
					<dim>1</dim>
					<dim>1</dim>
				</port>
			</input>
			<output>
				<port id="2" precision="FP16">
					<dim>1</dim>
					<dim>184</dim>
					<dim>17</dim>
					<dim>30</dim>
				</port>
			</output>
		</layer>
		<layer id="235" name="Conv_104/Dims9205" type="Const" version="opset1">
			<data element_type="f16" offset="281156" shape="1, 184, 1, 1" size="368"/>
			<output>
				<port id="0" precision="FP16">
					<dim>1</dim>
					<dim>184</dim>
					<dim>1</dim>
					<dim>1</dim>
				</port>
			</output>
		</layer>
		<layer id="236" name="Conv_104" type="Add" version="opset1">
			<data auto_broadcast="numpy"/>
			<input>
				<port id="0" precision="FP16">
					<dim>1</dim>
					<dim>184</dim>
					<dim>17</dim>
					<dim>30</dim>
				</port>
				<port id="1" precision="FP16">
					<dim>1</dim>
					<dim>184</dim>
					<dim>1</dim>
					<dim>1</dim>
				</port>
			</input>
			<output>
				<port id="2" names="1157" precision="FP16">
					<dim>1</dim>
					<dim>184</dim>
					<dim>17</dim>
					<dim>30</dim>
				</port>
			</output>
		</layer>
		<layer id="237" name="Constant_105" type="Const" version="opset1">
			<data element_type="f16" offset="982" shape="1, 1, 1, 1" size="2"/>
			<output>
				<port id="0" names="514" precision="FP16">
					<dim>1</dim>
					<dim>1</dim>
					<dim>1</dim>
					<dim>1</dim>
				</port>
			</output>
		</layer>
		<layer id="238" name="Add_106" type="Add" version="opset1">
			<data auto_broadcast="numpy"/>
			<input>
				<port id="0" precision="FP16">
					<dim>1</dim>
					<dim>184</dim>
					<dim>17</dim>
					<dim>30</dim>
				</port>
				<port id="1" precision="FP16">
					<dim>1</dim>
					<dim>1</dim>
					<dim>1</dim>
					<dim>1</dim>
				</port>
			</input>
			<output>
				<port id="2" names="515" precision="FP16">
					<dim>1</dim>
					<dim>184</dim>
					<dim>17</dim>
					<dim>30</dim>
				</port>
			</output>
		</layer>
		<layer id="239" name="Clip_109" type="Clamp" version="opset1">
			<data max="6" min="0"/>
			<input>
				<port id="0" precision="FP16">
					<dim>1</dim>
					<dim>184</dim>
					<dim>17</dim>
					<dim>30</dim>
				</port>
			</input>
			<output>
				<port id="1" names="518" precision="FP16">
					<dim>1</dim>
					<dim>184</dim>
					<dim>17</dim>
					<dim>30</dim>
				</port>
			</output>
		</layer>
		<layer id="240" name="Constant_110" type="Const" version="opset1">
			<data element_type="f16" offset="984" shape="1, 1, 1, 1" size="2"/>
			<output>
				<port id="0" names="519" precision="FP16">
					<dim>1</dim>
					<dim>1</dim>
					<dim>1</dim>
					<dim>1</dim>
				</port>
			</output>
		</layer>
		<layer id="241" name="Div_111" type="Multiply" version="opset1">
			<data auto_broadcast="numpy"/>
			<input>
				<port id="0" precision="FP16">
					<dim>1</dim>
					<dim>184</dim>
					<dim>17</dim>
					<dim>30</dim>
				</port>
				<port id="1" precision="FP16">
					<dim>1</dim>
					<dim>1</dim>
					<dim>1</dim>
					<dim>1</dim>
				</port>
			</input>
			<output>
				<port id="2" names="520" precision="FP16">
					<dim>1</dim>
					<dim>184</dim>
					<dim>17</dim>
					<dim>30</dim>
				</port>
			</output>
		</layer>
		<layer id="242" name="Mul_112" type="Multiply" version="opset1">
			<data auto_broadcast="numpy"/>
			<input>
				<port id="0" precision="FP16">
					<dim>1</dim>
					<dim>184</dim>
					<dim>17</dim>
					<dim>30</dim>
				</port>
				<port id="1" precision="FP16">
					<dim>1</dim>
					<dim>184</dim>
					<dim>17</dim>
					<dim>30</dim>
				</port>
			</input>
			<output>
				<port id="2" names="521" precision="FP16">
					<dim>1</dim>
					<dim>184</dim>
					<dim>17</dim>
					<dim>30</dim>
				</port>
			</output>
		</layer>
		<layer id="243" name="1161" type="Const" version="opset1">
			<data element_type="f16" offset="281524" shape="184, 1, 1, 3, 3" size="3312"/>
			<output>
				<port id="0" names="1161" precision="FP16">
					<dim>184</dim>
					<dim>1</dim>
					<dim>1</dim>
					<dim>3</dim>
					<dim>3</dim>
				</port>
			</output>
		</layer>
		<layer id="244" name="Conv_113/WithoutBiases" type="GroupConvolution" version="opset1">
			<data auto_pad="explicit" dilations="1, 1" pads_begin="1, 1" pads_end="1, 1" strides="1, 1"/>
			<input>
				<port id="0" precision="FP16">
					<dim>1</dim>
					<dim>184</dim>
					<dim>17</dim>
					<dim>30</dim>
				</port>
				<port id="1" precision="FP16">
					<dim>184</dim>
					<dim>1</dim>
					<dim>1</dim>
					<dim>3</dim>
					<dim>3</dim>
				</port>
			</input>
			<output>
				<port id="2" precision="FP16">
					<dim>1</dim>
					<dim>184</dim>
					<dim>17</dim>
					<dim>30</dim>
				</port>
			</output>
		</layer>
		<layer id="245" name="Conv_113/Dims9343" type="Const" version="opset1">
			<data element_type="f16" offset="284836" shape="1, 184, 1, 1" size="368"/>
			<output>
				<port id="0" precision="FP16">
					<dim>1</dim>
					<dim>184</dim>
					<dim>1</dim>
					<dim>1</dim>
				</port>
			</output>
		</layer>
		<layer id="246" name="Conv_113" type="Add" version="opset1">
			<data auto_broadcast="numpy"/>
			<input>
				<port id="0" precision="FP16">
					<dim>1</dim>
					<dim>184</dim>
					<dim>17</dim>
					<dim>30</dim>
				</port>
				<port id="1" precision="FP16">
					<dim>1</dim>
					<dim>184</dim>
					<dim>1</dim>
					<dim>1</dim>
				</port>
			</input>
			<output>
				<port id="2" names="1160" precision="FP16">
					<dim>1</dim>
					<dim>184</dim>
					<dim>17</dim>
					<dim>30</dim>
				</port>
			</output>
		</layer>
		<layer id="247" name="Constant_114" type="Const" version="opset1">
			<data element_type="f16" offset="982" shape="1, 1, 1, 1" size="2"/>
			<output>
				<port id="0" names="524" precision="FP16">
					<dim>1</dim>
					<dim>1</dim>
					<dim>1</dim>
					<dim>1</dim>
				</port>
			</output>
		</layer>
		<layer id="248" name="Add_115" type="Add" version="opset1">
			<data auto_broadcast="numpy"/>
			<input>
				<port id="0" precision="FP16">
					<dim>1</dim>
					<dim>184</dim>
					<dim>17</dim>
					<dim>30</dim>
				</port>
				<port id="1" precision="FP16">
					<dim>1</dim>
					<dim>1</dim>
					<dim>1</dim>
					<dim>1</dim>
				</port>
			</input>
			<output>
				<port id="2" names="525" precision="FP16">
					<dim>1</dim>
					<dim>184</dim>
					<dim>17</dim>
					<dim>30</dim>
				</port>
			</output>
		</layer>
		<layer id="249" name="Clip_118" type="Clamp" version="opset1">
			<data max="6" min="0"/>
			<input>
				<port id="0" precision="FP16">
					<dim>1</dim>
					<dim>184</dim>
					<dim>17</dim>
					<dim>30</dim>
				</port>
			</input>
			<output>
				<port id="1" names="528" precision="FP16">
					<dim>1</dim>
					<dim>184</dim>
					<dim>17</dim>
					<dim>30</dim>
				</port>
			</output>
		</layer>
		<layer id="250" name="Constant_119" type="Const" version="opset1">
			<data element_type="f16" offset="984" shape="1, 1, 1, 1" size="2"/>
			<output>
				<port id="0" names="529" precision="FP16">
					<dim>1</dim>
					<dim>1</dim>
					<dim>1</dim>
					<dim>1</dim>
				</port>
			</output>
		</layer>
		<layer id="251" name="Div_120" type="Multiply" version="opset1">
			<data auto_broadcast="numpy"/>
			<input>
				<port id="0" precision="FP16">
					<dim>1</dim>
					<dim>184</dim>
					<dim>17</dim>
					<dim>30</dim>
				</port>
				<port id="1" precision="FP16">
					<dim>1</dim>
					<dim>1</dim>
					<dim>1</dim>
					<dim>1</dim>
				</port>
			</input>
			<output>
				<port id="2" names="530" precision="FP16">
					<dim>1</dim>
					<dim>184</dim>
					<dim>17</dim>
					<dim>30</dim>
				</port>
			</output>
		</layer>
		<layer id="252" name="Mul_121" type="Multiply" version="opset1">
			<data auto_broadcast="numpy"/>
			<input>
				<port id="0" precision="FP16">
					<dim>1</dim>
					<dim>184</dim>
					<dim>17</dim>
					<dim>30</dim>
				</port>
				<port id="1" precision="FP16">
					<dim>1</dim>
					<dim>184</dim>
					<dim>17</dim>
					<dim>30</dim>
				</port>
			</input>
			<output>
				<port id="2" names="531" precision="FP16">
					<dim>1</dim>
					<dim>184</dim>
					<dim>17</dim>
					<dim>30</dim>
				</port>
			</output>
		</layer>
		<layer id="253" name="1164" type="Const" version="opset1">
			<data element_type="f16" offset="285204" shape="80, 184, 1, 1" size="29440"/>
			<output>
				<port id="0" names="1164" precision="FP16">
					<dim>80</dim>
					<dim>184</dim>
					<dim>1</dim>
					<dim>1</dim>
				</port>
			</output>
		</layer>
		<layer id="254" name="Conv_122/WithoutBiases" type="Convolution" version="opset1">
			<data auto_pad="explicit" dilations="1, 1" pads_begin="0, 0" pads_end="0, 0" strides="1, 1"/>
			<input>
				<port id="0" precision="FP16">
					<dim>1</dim>
					<dim>184</dim>
					<dim>17</dim>
					<dim>30</dim>
				</port>
				<port id="1" precision="FP16">
					<dim>80</dim>
					<dim>184</dim>
					<dim>1</dim>
					<dim>1</dim>
				</port>
			</input>
			<output>
				<port id="2" precision="FP16">
					<dim>1</dim>
					<dim>80</dim>
					<dim>17</dim>
					<dim>30</dim>
				</port>
			</output>
		</layer>
		<layer id="255" name="Conv_122/Dims9073" type="Const" version="opset1">
			<data element_type="f16" offset="314644" shape="1, 80, 1, 1" size="160"/>
			<output>
				<port id="0" precision="FP16">
					<dim>1</dim>
					<dim>80</dim>
					<dim>1</dim>
					<dim>1</dim>
				</port>
			</output>
		</layer>
		<layer id="256" name="Conv_122" type="Add" version="opset1">
			<data auto_broadcast="numpy"/>
			<input>
				<port id="0" precision="FP16">
					<dim>1</dim>
					<dim>80</dim>
					<dim>17</dim>
					<dim>30</dim>
				</port>
				<port id="1" precision="FP16">
					<dim>1</dim>
					<dim>80</dim>
					<dim>1</dim>
					<dim>1</dim>
				</port>
			</input>
			<output>
				<port id="2" names="1163" precision="FP16">
					<dim>1</dim>
					<dim>80</dim>
					<dim>17</dim>
					<dim>30</dim>
				</port>
			</output>
		</layer>
		<layer id="257" name="Add_123" type="Add" version="opset1">
			<data auto_broadcast="numpy"/>
			<input>
				<port id="0" precision="FP16">
					<dim>1</dim>
					<dim>80</dim>
					<dim>17</dim>
					<dim>30</dim>
				</port>
				<port id="1" precision="FP16">
					<dim>1</dim>
					<dim>80</dim>
					<dim>17</dim>
					<dim>30</dim>
				</port>
			</input>
			<output>
				<port id="2" names="534" precision="FP16">
					<dim>1</dim>
					<dim>80</dim>
					<dim>17</dim>
					<dim>30</dim>
				</port>
			</output>
		</layer>
		<layer id="258" name="1167" type="Const" version="opset1">
			<data element_type="f16" offset="314804" shape="184, 80, 1, 1" size="29440"/>
			<output>
				<port id="0" names="1167" precision="FP16">
					<dim>184</dim>
					<dim>80</dim>
					<dim>1</dim>
					<dim>1</dim>
				</port>
			</output>
		</layer>
		<layer id="259" name="Conv_124/WithoutBiases" type="Convolution" version="opset1">
			<data auto_pad="explicit" dilations="1, 1" pads_begin="0, 0" pads_end="0, 0" strides="1, 1"/>
			<input>
				<port id="0" precision="FP16">
					<dim>1</dim>
					<dim>80</dim>
					<dim>17</dim>
					<dim>30</dim>
				</port>
				<port id="1" precision="FP16">
					<dim>184</dim>
					<dim>80</dim>
					<dim>1</dim>
					<dim>1</dim>
				</port>
			</input>
			<output>
				<port id="2" precision="FP16">
					<dim>1</dim>
					<dim>184</dim>
					<dim>17</dim>
					<dim>30</dim>
				</port>
			</output>
		</layer>
		<layer id="260" name="Conv_124/Dims9157" type="Const" version="opset1">
			<data element_type="f16" offset="344244" shape="1, 184, 1, 1" size="368"/>
			<output>
				<port id="0" precision="FP16">
					<dim>1</dim>
					<dim>184</dim>
					<dim>1</dim>
					<dim>1</dim>
				</port>
			</output>
		</layer>
		<layer id="261" name="Conv_124" type="Add" version="opset1">
			<data auto_broadcast="numpy"/>
			<input>
				<port id="0" precision="FP16">
					<dim>1</dim>
					<dim>184</dim>
					<dim>17</dim>
					<dim>30</dim>
				</port>
				<port id="1" precision="FP16">
					<dim>1</dim>
					<dim>184</dim>
					<dim>1</dim>
					<dim>1</dim>
				</port>
			</input>
			<output>
				<port id="2" names="1166" precision="FP16">
					<dim>1</dim>
					<dim>184</dim>
					<dim>17</dim>
					<dim>30</dim>
				</port>
			</output>
		</layer>
		<layer id="262" name="Constant_125" type="Const" version="opset1">
			<data element_type="f16" offset="982" shape="1, 1, 1, 1" size="2"/>
			<output>
				<port id="0" names="537" precision="FP16">
					<dim>1</dim>
					<dim>1</dim>
					<dim>1</dim>
					<dim>1</dim>
				</port>
			</output>
		</layer>
		<layer id="263" name="Add_126" type="Add" version="opset1">
			<data auto_broadcast="numpy"/>
			<input>
				<port id="0" precision="FP16">
					<dim>1</dim>
					<dim>184</dim>
					<dim>17</dim>
					<dim>30</dim>
				</port>
				<port id="1" precision="FP16">
					<dim>1</dim>
					<dim>1</dim>
					<dim>1</dim>
					<dim>1</dim>
				</port>
			</input>
			<output>
				<port id="2" names="538" precision="FP16">
					<dim>1</dim>
					<dim>184</dim>
					<dim>17</dim>
					<dim>30</dim>
				</port>
			</output>
		</layer>
		<layer id="264" name="Clip_129" type="Clamp" version="opset1">
			<data max="6" min="0"/>
			<input>
				<port id="0" precision="FP16">
					<dim>1</dim>
					<dim>184</dim>
					<dim>17</dim>
					<dim>30</dim>
				</port>
			</input>
			<output>
				<port id="1" names="541" precision="FP16">
					<dim>1</dim>
					<dim>184</dim>
					<dim>17</dim>
					<dim>30</dim>
				</port>
			</output>
		</layer>
		<layer id="265" name="Constant_130" type="Const" version="opset1">
			<data element_type="f16" offset="984" shape="1, 1, 1, 1" size="2"/>
			<output>
				<port id="0" names="542" precision="FP16">
					<dim>1</dim>
					<dim>1</dim>
					<dim>1</dim>
					<dim>1</dim>
				</port>
			</output>
		</layer>
		<layer id="266" name="Div_131" type="Multiply" version="opset1">
			<data auto_broadcast="numpy"/>
			<input>
				<port id="0" precision="FP16">
					<dim>1</dim>
					<dim>184</dim>
					<dim>17</dim>
					<dim>30</dim>
				</port>
				<port id="1" precision="FP16">
					<dim>1</dim>
					<dim>1</dim>
					<dim>1</dim>
					<dim>1</dim>
				</port>
			</input>
			<output>
				<port id="2" names="543" precision="FP16">
					<dim>1</dim>
					<dim>184</dim>
					<dim>17</dim>
					<dim>30</dim>
				</port>
			</output>
		</layer>
		<layer id="267" name="Mul_132" type="Multiply" version="opset1">
			<data auto_broadcast="numpy"/>
			<input>
				<port id="0" precision="FP16">
					<dim>1</dim>
					<dim>184</dim>
					<dim>17</dim>
					<dim>30</dim>
				</port>
				<port id="1" precision="FP16">
					<dim>1</dim>
					<dim>184</dim>
					<dim>17</dim>
					<dim>30</dim>
				</port>
			</input>
			<output>
				<port id="2" names="544" precision="FP16">
					<dim>1</dim>
					<dim>184</dim>
					<dim>17</dim>
					<dim>30</dim>
				</port>
			</output>
		</layer>
		<layer id="268" name="1170" type="Const" version="opset1">
			<data element_type="f16" offset="344612" shape="184, 1, 1, 3, 3" size="3312"/>
			<output>
				<port id="0" names="1170" precision="FP16">
					<dim>184</dim>
					<dim>1</dim>
					<dim>1</dim>
					<dim>3</dim>
					<dim>3</dim>
				</port>
			</output>
		</layer>
		<layer id="269" name="Conv_133/WithoutBiases" type="GroupConvolution" version="opset1">
			<data auto_pad="explicit" dilations="1, 1" pads_begin="1, 1" pads_end="1, 1" strides="1, 1"/>
			<input>
				<port id="0" precision="FP16">
					<dim>1</dim>
					<dim>184</dim>
					<dim>17</dim>
					<dim>30</dim>
				</port>
				<port id="1" precision="FP16">
					<dim>184</dim>
					<dim>1</dim>
					<dim>1</dim>
					<dim>3</dim>
					<dim>3</dim>
				</port>
			</input>
			<output>
				<port id="2" precision="FP16">
					<dim>1</dim>
					<dim>184</dim>
					<dim>17</dim>
					<dim>30</dim>
				</port>
			</output>
		</layer>
		<layer id="270" name="Conv_133/Dims9115" type="Const" version="opset1">
			<data element_type="f16" offset="347924" shape="1, 184, 1, 1" size="368"/>
			<output>
				<port id="0" precision="FP16">
					<dim>1</dim>
					<dim>184</dim>
					<dim>1</dim>
					<dim>1</dim>
				</port>
			</output>
		</layer>
		<layer id="271" name="Conv_133" type="Add" version="opset1">
			<data auto_broadcast="numpy"/>
			<input>
				<port id="0" precision="FP16">
					<dim>1</dim>
					<dim>184</dim>
					<dim>17</dim>
					<dim>30</dim>
				</port>
				<port id="1" precision="FP16">
					<dim>1</dim>
					<dim>184</dim>
					<dim>1</dim>
					<dim>1</dim>
				</port>
			</input>
			<output>
				<port id="2" names="1169" precision="FP16">
					<dim>1</dim>
					<dim>184</dim>
					<dim>17</dim>
					<dim>30</dim>
				</port>
			</output>
		</layer>
		<layer id="272" name="Constant_134" type="Const" version="opset1">
			<data element_type="f16" offset="982" shape="1, 1, 1, 1" size="2"/>
			<output>
				<port id="0" names="547" precision="FP16">
					<dim>1</dim>
					<dim>1</dim>
					<dim>1</dim>
					<dim>1</dim>
				</port>
			</output>
		</layer>
		<layer id="273" name="Add_135" type="Add" version="opset1">
			<data auto_broadcast="numpy"/>
			<input>
				<port id="0" precision="FP16">
					<dim>1</dim>
					<dim>184</dim>
					<dim>17</dim>
					<dim>30</dim>
				</port>
				<port id="1" precision="FP16">
					<dim>1</dim>
					<dim>1</dim>
					<dim>1</dim>
					<dim>1</dim>
				</port>
			</input>
			<output>
				<port id="2" names="548" precision="FP16">
					<dim>1</dim>
					<dim>184</dim>
					<dim>17</dim>
					<dim>30</dim>
				</port>
			</output>
		</layer>
		<layer id="274" name="Clip_138" type="Clamp" version="opset1">
			<data max="6" min="0"/>
			<input>
				<port id="0" precision="FP16">
					<dim>1</dim>
					<dim>184</dim>
					<dim>17</dim>
					<dim>30</dim>
				</port>
			</input>
			<output>
				<port id="1" names="551" precision="FP16">
					<dim>1</dim>
					<dim>184</dim>
					<dim>17</dim>
					<dim>30</dim>
				</port>
			</output>
		</layer>
		<layer id="275" name="Constant_139" type="Const" version="opset1">
			<data element_type="f16" offset="984" shape="1, 1, 1, 1" size="2"/>
			<output>
				<port id="0" names="552" precision="FP16">
					<dim>1</dim>
					<dim>1</dim>
					<dim>1</dim>
					<dim>1</dim>
				</port>
			</output>
		</layer>
		<layer id="276" name="Div_140" type="Multiply" version="opset1">
			<data auto_broadcast="numpy"/>
			<input>
				<port id="0" precision="FP16">
					<dim>1</dim>
					<dim>184</dim>
					<dim>17</dim>
					<dim>30</dim>
				</port>
				<port id="1" precision="FP16">
					<dim>1</dim>
					<dim>1</dim>
					<dim>1</dim>
					<dim>1</dim>
				</port>
			</input>
			<output>
				<port id="2" names="553" precision="FP16">
					<dim>1</dim>
					<dim>184</dim>
					<dim>17</dim>
					<dim>30</dim>
				</port>
			</output>
		</layer>
		<layer id="277" name="Mul_141" type="Multiply" version="opset1">
			<data auto_broadcast="numpy"/>
			<input>
				<port id="0" precision="FP16">
					<dim>1</dim>
					<dim>184</dim>
					<dim>17</dim>
					<dim>30</dim>
				</port>
				<port id="1" precision="FP16">
					<dim>1</dim>
					<dim>184</dim>
					<dim>17</dim>
					<dim>30</dim>
				</port>
			</input>
			<output>
				<port id="2" names="554" precision="FP16">
					<dim>1</dim>
					<dim>184</dim>
					<dim>17</dim>
					<dim>30</dim>
				</port>
			</output>
		</layer>
		<layer id="278" name="1173" type="Const" version="opset1">
			<data element_type="f16" offset="348292" shape="80, 184, 1, 1" size="29440"/>
			<output>
				<port id="0" names="1173" precision="FP16">
					<dim>80</dim>
					<dim>184</dim>
					<dim>1</dim>
					<dim>1</dim>
				</port>
			</output>
		</layer>
		<layer id="279" name="Conv_142/WithoutBiases" type="Convolution" version="opset1">
			<data auto_pad="explicit" dilations="1, 1" pads_begin="0, 0" pads_end="0, 0" strides="1, 1"/>
			<input>
				<port id="0" precision="FP16">
					<dim>1</dim>
					<dim>184</dim>
					<dim>17</dim>
					<dim>30</dim>
				</port>
				<port id="1" precision="FP16">
					<dim>80</dim>
					<dim>184</dim>
					<dim>1</dim>
					<dim>1</dim>
				</port>
			</input>
			<output>
				<port id="2" precision="FP16">
					<dim>1</dim>
					<dim>80</dim>
					<dim>17</dim>
					<dim>30</dim>
				</port>
			</output>
		</layer>
		<layer id="280" name="Conv_142/Dims9361" type="Const" version="opset1">
			<data element_type="f16" offset="377732" shape="1, 80, 1, 1" size="160"/>
			<output>
				<port id="0" precision="FP16">
					<dim>1</dim>
					<dim>80</dim>
					<dim>1</dim>
					<dim>1</dim>
				</port>
			</output>
		</layer>
		<layer id="281" name="Conv_142" type="Add" version="opset1">
			<data auto_broadcast="numpy"/>
			<input>
				<port id="0" precision="FP16">
					<dim>1</dim>
					<dim>80</dim>
					<dim>17</dim>
					<dim>30</dim>
				</port>
				<port id="1" precision="FP16">
					<dim>1</dim>
					<dim>80</dim>
					<dim>1</dim>
					<dim>1</dim>
				</port>
			</input>
			<output>
				<port id="2" names="1172" precision="FP16">
					<dim>1</dim>
					<dim>80</dim>
					<dim>17</dim>
					<dim>30</dim>
				</port>
			</output>
		</layer>
		<layer id="282" name="Add_143" type="Add" version="opset1">
			<data auto_broadcast="numpy"/>
			<input>
				<port id="0" precision="FP16">
					<dim>1</dim>
					<dim>80</dim>
					<dim>17</dim>
					<dim>30</dim>
				</port>
				<port id="1" precision="FP16">
					<dim>1</dim>
					<dim>80</dim>
					<dim>17</dim>
					<dim>30</dim>
				</port>
			</input>
			<output>
				<port id="2" names="557" precision="FP16">
					<dim>1</dim>
					<dim>80</dim>
					<dim>17</dim>
					<dim>30</dim>
				</port>
			</output>
		</layer>
		<layer id="283" name="1176" type="Const" version="opset1">
			<data element_type="f16" offset="377892" shape="480, 80, 1, 1" size="76800"/>
			<output>
				<port id="0" names="1176" precision="FP16">
					<dim>480</dim>
					<dim>80</dim>
					<dim>1</dim>
					<dim>1</dim>
				</port>
			</output>
		</layer>
		<layer id="284" name="Conv_144/WithoutBiases" type="Convolution" version="opset1">
			<data auto_pad="explicit" dilations="1, 1" pads_begin="0, 0" pads_end="0, 0" strides="1, 1"/>
			<input>
				<port id="0" precision="FP16">
					<dim>1</dim>
					<dim>80</dim>
					<dim>17</dim>
					<dim>30</dim>
				</port>
				<port id="1" precision="FP16">
					<dim>480</dim>
					<dim>80</dim>
					<dim>1</dim>
					<dim>1</dim>
				</port>
			</input>
			<output>
				<port id="2" precision="FP16">
					<dim>1</dim>
					<dim>480</dim>
					<dim>17</dim>
					<dim>30</dim>
				</port>
			</output>
		</layer>
		<layer id="285" name="Conv_144/Dims9247" type="Const" version="opset1">
			<data element_type="f16" offset="454692" shape="1, 480, 1, 1" size="960"/>
			<output>
				<port id="0" precision="FP16">
					<dim>1</dim>
					<dim>480</dim>
					<dim>1</dim>
					<dim>1</dim>
				</port>
			</output>
		</layer>
		<layer id="286" name="Conv_144" type="Add" version="opset1">
			<data auto_broadcast="numpy"/>
			<input>
				<port id="0" precision="FP16">
					<dim>1</dim>
					<dim>480</dim>
					<dim>17</dim>
					<dim>30</dim>
				</port>
				<port id="1" precision="FP16">
					<dim>1</dim>
					<dim>480</dim>
					<dim>1</dim>
					<dim>1</dim>
				</port>
			</input>
			<output>
				<port id="2" names="1175" precision="FP16">
					<dim>1</dim>
					<dim>480</dim>
					<dim>17</dim>
					<dim>30</dim>
				</port>
			</output>
		</layer>
		<layer id="287" name="Constant_145" type="Const" version="opset1">
			<data element_type="f16" offset="982" shape="1, 1, 1, 1" size="2"/>
			<output>
				<port id="0" names="560" precision="FP16">
					<dim>1</dim>
					<dim>1</dim>
					<dim>1</dim>
					<dim>1</dim>
				</port>
			</output>
		</layer>
		<layer id="288" name="Add_146" type="Add" version="opset1">
			<data auto_broadcast="numpy"/>
			<input>
				<port id="0" precision="FP16">
					<dim>1</dim>
					<dim>480</dim>
					<dim>17</dim>
					<dim>30</dim>
				</port>
				<port id="1" precision="FP16">
					<dim>1</dim>
					<dim>1</dim>
					<dim>1</dim>
					<dim>1</dim>
				</port>
			</input>
			<output>
				<port id="2" names="561" precision="FP16">
					<dim>1</dim>
					<dim>480</dim>
					<dim>17</dim>
					<dim>30</dim>
				</port>
			</output>
		</layer>
		<layer id="289" name="Clip_149" type="Clamp" version="opset1">
			<data max="6" min="0"/>
			<input>
				<port id="0" precision="FP16">
					<dim>1</dim>
					<dim>480</dim>
					<dim>17</dim>
					<dim>30</dim>
				</port>
			</input>
			<output>
				<port id="1" names="564" precision="FP16">
					<dim>1</dim>
					<dim>480</dim>
					<dim>17</dim>
					<dim>30</dim>
				</port>
			</output>
		</layer>
		<layer id="290" name="Constant_150" type="Const" version="opset1">
			<data element_type="f16" offset="984" shape="1, 1, 1, 1" size="2"/>
			<output>
				<port id="0" names="565" precision="FP16">
					<dim>1</dim>
					<dim>1</dim>
					<dim>1</dim>
					<dim>1</dim>
				</port>
			</output>
		</layer>
		<layer id="291" name="Div_151" type="Multiply" version="opset1">
			<data auto_broadcast="numpy"/>
			<input>
				<port id="0" precision="FP16">
					<dim>1</dim>
					<dim>480</dim>
					<dim>17</dim>
					<dim>30</dim>
				</port>
				<port id="1" precision="FP16">
					<dim>1</dim>
					<dim>1</dim>
					<dim>1</dim>
					<dim>1</dim>
				</port>
			</input>
			<output>
				<port id="2" names="566" precision="FP16">
					<dim>1</dim>
					<dim>480</dim>
					<dim>17</dim>
					<dim>30</dim>
				</port>
			</output>
		</layer>
		<layer id="292" name="Mul_152" type="Multiply" version="opset1">
			<data auto_broadcast="numpy"/>
			<input>
				<port id="0" precision="FP16">
					<dim>1</dim>
					<dim>480</dim>
					<dim>17</dim>
					<dim>30</dim>
				</port>
				<port id="1" precision="FP16">
					<dim>1</dim>
					<dim>480</dim>
					<dim>17</dim>
					<dim>30</dim>
				</port>
			</input>
			<output>
				<port id="2" names="567" precision="FP16">
					<dim>1</dim>
					<dim>480</dim>
					<dim>17</dim>
					<dim>30</dim>
				</port>
			</output>
		</layer>
		<layer id="293" name="1179" type="Const" version="opset1">
			<data element_type="f16" offset="455652" shape="480, 1, 1, 3, 3" size="8640"/>
			<output>
				<port id="0" names="1179" precision="FP16">
					<dim>480</dim>
					<dim>1</dim>
					<dim>1</dim>
					<dim>3</dim>
					<dim>3</dim>
				</port>
			</output>
		</layer>
		<layer id="294" name="Conv_153/WithoutBiases" type="GroupConvolution" version="opset1">
			<data auto_pad="explicit" dilations="1, 1" pads_begin="1, 1" pads_end="1, 1" strides="1, 1"/>
			<input>
				<port id="0" precision="FP16">
					<dim>1</dim>
					<dim>480</dim>
					<dim>17</dim>
					<dim>30</dim>
				</port>
				<port id="1" precision="FP16">
					<dim>480</dim>
					<dim>1</dim>
					<dim>1</dim>
					<dim>3</dim>
					<dim>3</dim>
				</port>
			</input>
			<output>
				<port id="2" precision="FP16">
					<dim>1</dim>
					<dim>480</dim>
					<dim>17</dim>
					<dim>30</dim>
				</port>
			</output>
		</layer>
		<layer id="295" name="Conv_153/Dims9133" type="Const" version="opset1">
			<data element_type="f16" offset="464292" shape="1, 480, 1, 1" size="960"/>
			<output>
				<port id="0" precision="FP16">
					<dim>1</dim>
					<dim>480</dim>
					<dim>1</dim>
					<dim>1</dim>
				</port>
			</output>
		</layer>
		<layer id="296" name="Conv_153" type="Add" version="opset1">
			<data auto_broadcast="numpy"/>
			<input>
				<port id="0" precision="FP16">
					<dim>1</dim>
					<dim>480</dim>
					<dim>17</dim>
					<dim>30</dim>
				</port>
				<port id="1" precision="FP16">
					<dim>1</dim>
					<dim>480</dim>
					<dim>1</dim>
					<dim>1</dim>
				</port>
			</input>
			<output>
				<port id="2" names="1178" precision="FP16">
					<dim>1</dim>
					<dim>480</dim>
					<dim>17</dim>
					<dim>30</dim>
				</port>
			</output>
		</layer>
		<layer id="297" name="Constant_154" type="Const" version="opset1">
			<data element_type="f16" offset="982" shape="1, 1, 1, 1" size="2"/>
			<output>
				<port id="0" names="570" precision="FP16">
					<dim>1</dim>
					<dim>1</dim>
					<dim>1</dim>
					<dim>1</dim>
				</port>
			</output>
		</layer>
		<layer id="298" name="Add_155" type="Add" version="opset1">
			<data auto_broadcast="numpy"/>
			<input>
				<port id="0" precision="FP16">
					<dim>1</dim>
					<dim>480</dim>
					<dim>17</dim>
					<dim>30</dim>
				</port>
				<port id="1" precision="FP16">
					<dim>1</dim>
					<dim>1</dim>
					<dim>1</dim>
					<dim>1</dim>
				</port>
			</input>
			<output>
				<port id="2" names="571" precision="FP16">
					<dim>1</dim>
					<dim>480</dim>
					<dim>17</dim>
					<dim>30</dim>
				</port>
			</output>
		</layer>
		<layer id="299" name="Clip_158" type="Clamp" version="opset1">
			<data max="6" min="0"/>
			<input>
				<port id="0" precision="FP16">
					<dim>1</dim>
					<dim>480</dim>
					<dim>17</dim>
					<dim>30</dim>
				</port>
			</input>
			<output>
				<port id="1" names="574" precision="FP16">
					<dim>1</dim>
					<dim>480</dim>
					<dim>17</dim>
					<dim>30</dim>
				</port>
			</output>
		</layer>
		<layer id="300" name="Constant_159" type="Const" version="opset1">
			<data element_type="f16" offset="984" shape="1, 1, 1, 1" size="2"/>
			<output>
				<port id="0" names="575" precision="FP16">
					<dim>1</dim>
					<dim>1</dim>
					<dim>1</dim>
					<dim>1</dim>
				</port>
			</output>
		</layer>
		<layer id="301" name="Div_160" type="Multiply" version="opset1">
			<data auto_broadcast="numpy"/>
			<input>
				<port id="0" precision="FP16">
					<dim>1</dim>
					<dim>480</dim>
					<dim>17</dim>
					<dim>30</dim>
				</port>
				<port id="1" precision="FP16">
					<dim>1</dim>
					<dim>1</dim>
					<dim>1</dim>
					<dim>1</dim>
				</port>
			</input>
			<output>
				<port id="2" names="576" precision="FP16">
					<dim>1</dim>
					<dim>480</dim>
					<dim>17</dim>
					<dim>30</dim>
				</port>
			</output>
		</layer>
		<layer id="302" name="Mul_161" type="Multiply" version="opset1">
			<data auto_broadcast="numpy"/>
			<input>
				<port id="0" precision="FP16">
					<dim>1</dim>
					<dim>480</dim>
					<dim>17</dim>
					<dim>30</dim>
				</port>
				<port id="1" precision="FP16">
					<dim>1</dim>
					<dim>480</dim>
					<dim>17</dim>
					<dim>30</dim>
				</port>
			</input>
			<output>
				<port id="2" names="577" precision="FP16">
					<dim>1</dim>
					<dim>480</dim>
					<dim>17</dim>
					<dim>30</dim>
				</port>
			</output>
		</layer>
		<layer id="303" name="888" type="Const" version="opset1">
			<data element_type="i64" offset="34" shape="" size="8"/>
			<output>
				<port id="0" precision="I64"/>
			</output>
		</layer>
		<layer id="304" name="GlobalAveragePool_162/input_rank/shape_of" type="ShapeOf" version="opset3">
			<data output_type="i64"/>
			<input>
				<port id="0" precision="FP16">
					<dim>1</dim>
					<dim>480</dim>
					<dim>17</dim>
					<dim>30</dim>
				</port>
			</input>
			<output>
				<port id="1" precision="I64">
					<dim>4</dim>
				</port>
			</output>
		</layer>
		<layer id="305" name="GlobalAveragePool_162/input_rank/rank_of" type="ShapeOf" version="opset3">
			<data output_type="i64"/>
			<input>
				<port id="0" precision="I64">
					<dim>4</dim>
				</port>
			</input>
			<output>
				<port id="1" precision="I64">
					<dim>1</dim>
				</port>
			</output>
		</layer>
		<layer id="306" name="GlobalAveragePool_162/input_rank/0d_rank_of/value" type="Const" version="opset1">
			<data element_type="i64" offset="24314" shape="1" size="8"/>
			<output>
				<port id="0" precision="I64">
					<dim>1</dim>
				</port>
			</output>
		</layer>
		<layer id="307" name="GlobalAveragePool_162/input_rank" type="Squeeze" version="opset1">
			<input>
				<port id="0" precision="I64">
					<dim>1</dim>
				</port>
				<port id="1" precision="I64">
					<dim>1</dim>
				</port>
			</input>
			<output>
				<port id="2" precision="I64"/>
			</output>
		</layer>
		<layer id="308" name="890" type="Const" version="opset1">
			<data element_type="i64" offset="0" shape="" size="8"/>
			<output>
				<port id="0" precision="I64"/>
			</output>
		</layer>
		<layer id="309" name="GlobalAveragePool_162/global_pooling_reduce_axis" type="Range" version="opset4">
			<data output_type="i64"/>
			<input>
				<port id="0" precision="I64"/>
				<port id="1" precision="I64"/>
				<port id="2" precision="I64"/>
			</input>
			<output>
				<port id="3" precision="I64">
					<dim>2</dim>
				</port>
			</output>
		</layer>
		<layer id="310" name="GlobalAveragePool_162/reduce" type="ReduceMean" version="opset1">
			<data keep_dims="true"/>
			<input>
				<port id="0" precision="FP16">
					<dim>1</dim>
					<dim>480</dim>
					<dim>17</dim>
					<dim>30</dim>
				</port>
				<port id="1" precision="I64">
					<dim>2</dim>
				</port>
			</input>
			<output>
				<port id="2" names="578" precision="FP16">
					<dim>1</dim>
					<dim>480</dim>
					<dim>1</dim>
					<dim>1</dim>
				</port>
			</output>
		</layer>
		<layer id="311" name="backbone.features.11.block.2.fc1.weight" type="Const" version="opset1">
			<data element_type="f16" offset="465252" shape="120, 480, 1, 1" size="115200"/>
			<output>
				<port id="0" names="backbone.features.11.block.2.fc1.weight" precision="FP16">
					<dim>120</dim>
					<dim>480</dim>
					<dim>1</dim>
					<dim>1</dim>
				</port>
			</output>
		</layer>
		<layer id="312" name="Conv_163/WithoutBiases" type="Convolution" version="opset1">
			<data auto_pad="explicit" dilations="1, 1" pads_begin="0, 0" pads_end="0, 0" strides="1, 1"/>
			<input>
				<port id="0" precision="FP16">
					<dim>1</dim>
					<dim>480</dim>
					<dim>1</dim>
					<dim>1</dim>
				</port>
				<port id="1" precision="FP16">
					<dim>120</dim>
					<dim>480</dim>
					<dim>1</dim>
					<dim>1</dim>
				</port>
			</input>
			<output>
				<port id="2" precision="FP16">
					<dim>1</dim>
					<dim>120</dim>
					<dim>1</dim>
					<dim>1</dim>
				</port>
			</output>
		</layer>
		<layer id="313" name="Conv_163/Dims9241" type="Const" version="opset1">
			<data element_type="f16" offset="580452" shape="1, 120, 1, 1" size="240"/>
			<output>
				<port id="0" precision="FP16">
					<dim>1</dim>
					<dim>120</dim>
					<dim>1</dim>
					<dim>1</dim>
				</port>
			</output>
		</layer>
		<layer id="314" name="Conv_163" type="Add" version="opset1">
			<data auto_broadcast="numpy"/>
			<input>
				<port id="0" precision="FP16">
					<dim>1</dim>
					<dim>120</dim>
					<dim>1</dim>
					<dim>1</dim>
				</port>
				<port id="1" precision="FP16">
					<dim>1</dim>
					<dim>120</dim>
					<dim>1</dim>
					<dim>1</dim>
				</port>
			</input>
			<output>
				<port id="2" names="579" precision="FP16">
					<dim>1</dim>
					<dim>120</dim>
					<dim>1</dim>
					<dim>1</dim>
				</port>
			</output>
		</layer>
		<layer id="315" name="Relu_164" type="ReLU" version="opset1">
			<input>
				<port id="0" precision="FP16">
					<dim>1</dim>
					<dim>120</dim>
					<dim>1</dim>
					<dim>1</dim>
				</port>
			</input>
			<output>
				<port id="1" names="580" precision="FP16">
					<dim>1</dim>
					<dim>120</dim>
					<dim>1</dim>
					<dim>1</dim>
				</port>
			</output>
		</layer>
		<layer id="316" name="backbone.features.11.block.2.fc2.weight" type="Const" version="opset1">
			<data element_type="f16" offset="580692" shape="480, 120, 1, 1" size="115200"/>
			<output>
				<port id="0" names="backbone.features.11.block.2.fc2.weight" precision="FP16">
					<dim>480</dim>
					<dim>120</dim>
					<dim>1</dim>
					<dim>1</dim>
				</port>
			</output>
		</layer>
		<layer id="317" name="Conv_165/WithoutBiases" type="Convolution" version="opset1">
			<data auto_pad="explicit" dilations="1, 1" pads_begin="0, 0" pads_end="0, 0" strides="1, 1"/>
			<input>
				<port id="0" precision="FP16">
					<dim>1</dim>
					<dim>120</dim>
					<dim>1</dim>
					<dim>1</dim>
				</port>
				<port id="1" precision="FP16">
					<dim>480</dim>
					<dim>120</dim>
					<dim>1</dim>
					<dim>1</dim>
				</port>
			</input>
			<output>
				<port id="2" precision="FP16">
					<dim>1</dim>
					<dim>480</dim>
					<dim>1</dim>
					<dim>1</dim>
				</port>
			</output>
		</layer>
		<layer id="318" name="Conv_165/Dims9373" type="Const" version="opset1">
			<data element_type="f16" offset="695892" shape="1, 480, 1, 1" size="960"/>
			<output>
				<port id="0" precision="FP16">
					<dim>1</dim>
					<dim>480</dim>
					<dim>1</dim>
					<dim>1</dim>
				</port>
			</output>
		</layer>
		<layer id="319" name="Conv_165" type="Add" version="opset1">
			<data auto_broadcast="numpy"/>
			<input>
				<port id="0" precision="FP16">
					<dim>1</dim>
					<dim>480</dim>
					<dim>1</dim>
					<dim>1</dim>
				</port>
				<port id="1" precision="FP16">
					<dim>1</dim>
					<dim>480</dim>
					<dim>1</dim>
					<dim>1</dim>
				</port>
			</input>
			<output>
				<port id="2" names="581" precision="FP16">
					<dim>1</dim>
					<dim>480</dim>
					<dim>1</dim>
					<dim>1</dim>
				</port>
			</output>
		</layer>
		<layer id="320" name="HardSigmoid_166/HardSigmoid__input_port_1/value" type="Const" version="opset1">
			<data element_type="f16" offset="984" shape="" size="2"/>
			<output>
				<port id="0" precision="FP16"/>
			</output>
		</layer>
		<layer id="321" name="HardSigmoid_166/HardSigmoid__input_port_2/value" type="Const" version="opset1">
			<data element_type="f16" offset="31426" shape="" size="2"/>
			<output>
				<port id="0" precision="FP16"/>
			</output>
		</layer>
		<layer id="322" name="HardSigmoid_166/HardSigmoid_" type="HardSigmoid" version="opset1">
			<input>
				<port id="0" precision="FP16">
					<dim>1</dim>
					<dim>480</dim>
					<dim>1</dim>
					<dim>1</dim>
				</port>
				<port id="1" precision="FP16"/>
				<port id="2" precision="FP16"/>
			</input>
			<output>
				<port id="3" names="582" precision="FP16">
					<dim>1</dim>
					<dim>480</dim>
					<dim>1</dim>
					<dim>1</dim>
				</port>
			</output>
		</layer>
		<layer id="323" name="Mul_167" type="Multiply" version="opset1">
			<data auto_broadcast="numpy"/>
			<input>
				<port id="0" precision="FP16">
					<dim>1</dim>
					<dim>480</dim>
					<dim>1</dim>
					<dim>1</dim>
				</port>
				<port id="1" precision="FP16">
					<dim>1</dim>
					<dim>480</dim>
					<dim>17</dim>
					<dim>30</dim>
				</port>
			</input>
			<output>
				<port id="2" names="583" precision="FP16">
					<dim>1</dim>
					<dim>480</dim>
					<dim>17</dim>
					<dim>30</dim>
				</port>
			</output>
		</layer>
		<layer id="324" name="1182" type="Const" version="opset1">
			<data element_type="f16" offset="696852" shape="112, 480, 1, 1" size="107520"/>
			<output>
				<port id="0" names="1182" precision="FP16">
					<dim>112</dim>
					<dim>480</dim>
					<dim>1</dim>
					<dim>1</dim>
				</port>
			</output>
		</layer>
		<layer id="325" name="Conv_168/WithoutBiases" type="Convolution" version="opset1">
			<data auto_pad="explicit" dilations="1, 1" pads_begin="0, 0" pads_end="0, 0" strides="1, 1"/>
			<input>
				<port id="0" precision="FP16">
					<dim>1</dim>
					<dim>480</dim>
					<dim>17</dim>
					<dim>30</dim>
				</port>
				<port id="1" precision="FP16">
					<dim>112</dim>
					<dim>480</dim>
					<dim>1</dim>
					<dim>1</dim>
				</port>
			</input>
			<output>
				<port id="2" precision="FP16">
					<dim>1</dim>
					<dim>112</dim>
					<dim>17</dim>
					<dim>30</dim>
				</port>
			</output>
		</layer>
		<layer id="326" name="Conv_168/Dims9181" type="Const" version="opset1">
			<data element_type="f16" offset="804372" shape="1, 112, 1, 1" size="224"/>
			<output>
				<port id="0" precision="FP16">
					<dim>1</dim>
					<dim>112</dim>
					<dim>1</dim>
					<dim>1</dim>
				</port>
			</output>
		</layer>
		<layer id="327" name="Conv_168" type="Add" version="opset1">
			<data auto_broadcast="numpy"/>
			<input>
				<port id="0" precision="FP16">
					<dim>1</dim>
					<dim>112</dim>
					<dim>17</dim>
					<dim>30</dim>
				</port>
				<port id="1" precision="FP16">
					<dim>1</dim>
					<dim>112</dim>
					<dim>1</dim>
					<dim>1</dim>
				</port>
			</input>
			<output>
				<port id="2" names="1181" precision="FP16">
					<dim>1</dim>
					<dim>112</dim>
					<dim>17</dim>
					<dim>30</dim>
				</port>
			</output>
		</layer>
		<layer id="328" name="1185" type="Const" version="opset1">
			<data element_type="f16" offset="804596" shape="672, 112, 1, 1" size="150528"/>
			<output>
				<port id="0" names="1185" precision="FP16">
					<dim>672</dim>
					<dim>112</dim>
					<dim>1</dim>
					<dim>1</dim>
				</port>
			</output>
		</layer>
		<layer id="329" name="Conv_169/WithoutBiases" type="Convolution" version="opset1">
			<data auto_pad="explicit" dilations="1, 1" pads_begin="0, 0" pads_end="0, 0" strides="1, 1"/>
			<input>
				<port id="0" precision="FP16">
					<dim>1</dim>
					<dim>112</dim>
					<dim>17</dim>
					<dim>30</dim>
				</port>
				<port id="1" precision="FP16">
					<dim>672</dim>
					<dim>112</dim>
					<dim>1</dim>
					<dim>1</dim>
				</port>
			</input>
			<output>
				<port id="2" precision="FP16">
					<dim>1</dim>
					<dim>672</dim>
					<dim>17</dim>
					<dim>30</dim>
				</port>
			</output>
		</layer>
		<layer id="330" name="Conv_169/Dims8965" type="Const" version="opset1">
			<data element_type="f16" offset="955124" shape="1, 672, 1, 1" size="1344"/>
			<output>
				<port id="0" precision="FP16">
					<dim>1</dim>
					<dim>672</dim>
					<dim>1</dim>
					<dim>1</dim>
				</port>
			</output>
		</layer>
		<layer id="331" name="Conv_169" type="Add" version="opset1">
			<data auto_broadcast="numpy"/>
			<input>
				<port id="0" precision="FP16">
					<dim>1</dim>
					<dim>672</dim>
					<dim>17</dim>
					<dim>30</dim>
				</port>
				<port id="1" precision="FP16">
					<dim>1</dim>
					<dim>672</dim>
					<dim>1</dim>
					<dim>1</dim>
				</port>
			</input>
			<output>
				<port id="2" names="1184" precision="FP16">
					<dim>1</dim>
					<dim>672</dim>
					<dim>17</dim>
					<dim>30</dim>
				</port>
			</output>
		</layer>
		<layer id="332" name="Constant_170" type="Const" version="opset1">
			<data element_type="f16" offset="982" shape="1, 1, 1, 1" size="2"/>
			<output>
				<port id="0" names="588" precision="FP16">
					<dim>1</dim>
					<dim>1</dim>
					<dim>1</dim>
					<dim>1</dim>
				</port>
			</output>
		</layer>
		<layer id="333" name="Add_171" type="Add" version="opset1">
			<data auto_broadcast="numpy"/>
			<input>
				<port id="0" precision="FP16">
					<dim>1</dim>
					<dim>672</dim>
					<dim>17</dim>
					<dim>30</dim>
				</port>
				<port id="1" precision="FP16">
					<dim>1</dim>
					<dim>1</dim>
					<dim>1</dim>
					<dim>1</dim>
				</port>
			</input>
			<output>
				<port id="2" names="589" precision="FP16">
					<dim>1</dim>
					<dim>672</dim>
					<dim>17</dim>
					<dim>30</dim>
				</port>
			</output>
		</layer>
		<layer id="334" name="Clip_174" type="Clamp" version="opset1">
			<data max="6" min="0"/>
			<input>
				<port id="0" precision="FP16">
					<dim>1</dim>
					<dim>672</dim>
					<dim>17</dim>
					<dim>30</dim>
				</port>
			</input>
			<output>
				<port id="1" names="592" precision="FP16">
					<dim>1</dim>
					<dim>672</dim>
					<dim>17</dim>
					<dim>30</dim>
				</port>
			</output>
		</layer>
		<layer id="335" name="Constant_175" type="Const" version="opset1">
			<data element_type="f16" offset="984" shape="1, 1, 1, 1" size="2"/>
			<output>
				<port id="0" names="593" precision="FP16">
					<dim>1</dim>
					<dim>1</dim>
					<dim>1</dim>
					<dim>1</dim>
				</port>
			</output>
		</layer>
		<layer id="336" name="Div_176" type="Multiply" version="opset1">
			<data auto_broadcast="numpy"/>
			<input>
				<port id="0" precision="FP16">
					<dim>1</dim>
					<dim>672</dim>
					<dim>17</dim>
					<dim>30</dim>
				</port>
				<port id="1" precision="FP16">
					<dim>1</dim>
					<dim>1</dim>
					<dim>1</dim>
					<dim>1</dim>
				</port>
			</input>
			<output>
				<port id="2" names="594" precision="FP16">
					<dim>1</dim>
					<dim>672</dim>
					<dim>17</dim>
					<dim>30</dim>
				</port>
			</output>
		</layer>
		<layer id="337" name="Mul_177" type="Multiply" version="opset1">
			<data auto_broadcast="numpy"/>
			<input>
				<port id="0" precision="FP16">
					<dim>1</dim>
					<dim>672</dim>
					<dim>17</dim>
					<dim>30</dim>
				</port>
				<port id="1" precision="FP16">
					<dim>1</dim>
					<dim>672</dim>
					<dim>17</dim>
					<dim>30</dim>
				</port>
			</input>
			<output>
				<port id="2" names="595" precision="FP16">
					<dim>1</dim>
					<dim>672</dim>
					<dim>17</dim>
					<dim>30</dim>
				</port>
			</output>
		</layer>
		<layer id="338" name="1188" type="Const" version="opset1">
			<data element_type="f16" offset="956468" shape="672, 1, 1, 3, 3" size="12096"/>
			<output>
				<port id="0" names="1188" precision="FP16">
					<dim>672</dim>
					<dim>1</dim>
					<dim>1</dim>
					<dim>3</dim>
					<dim>3</dim>
				</port>
			</output>
		</layer>
		<layer id="339" name="Conv_178/WithoutBiases" type="GroupConvolution" version="opset1">
			<data auto_pad="explicit" dilations="1, 1" pads_begin="1, 1" pads_end="1, 1" strides="1, 1"/>
			<input>
				<port id="0" precision="FP16">
					<dim>1</dim>
					<dim>672</dim>
					<dim>17</dim>
					<dim>30</dim>
				</port>
				<port id="1" precision="FP16">
					<dim>672</dim>
					<dim>1</dim>
					<dim>1</dim>
					<dim>3</dim>
					<dim>3</dim>
				</port>
			</input>
			<output>
				<port id="2" precision="FP16">
					<dim>1</dim>
					<dim>672</dim>
					<dim>17</dim>
					<dim>30</dim>
				</port>
			</output>
		</layer>
		<layer id="340" name="Conv_178/Dims8995" type="Const" version="opset1">
			<data element_type="f16" offset="968564" shape="1, 672, 1, 1" size="1344"/>
			<output>
				<port id="0" precision="FP16">
					<dim>1</dim>
					<dim>672</dim>
					<dim>1</dim>
					<dim>1</dim>
				</port>
			</output>
		</layer>
		<layer id="341" name="Conv_178" type="Add" version="opset1">
			<data auto_broadcast="numpy"/>
			<input>
				<port id="0" precision="FP16">
					<dim>1</dim>
					<dim>672</dim>
					<dim>17</dim>
					<dim>30</dim>
				</port>
				<port id="1" precision="FP16">
					<dim>1</dim>
					<dim>672</dim>
					<dim>1</dim>
					<dim>1</dim>
				</port>
			</input>
			<output>
				<port id="2" names="1187" precision="FP16">
					<dim>1</dim>
					<dim>672</dim>
					<dim>17</dim>
					<dim>30</dim>
				</port>
			</output>
		</layer>
		<layer id="342" name="Constant_179" type="Const" version="opset1">
			<data element_type="f16" offset="982" shape="1, 1, 1, 1" size="2"/>
			<output>
				<port id="0" names="598" precision="FP16">
					<dim>1</dim>
					<dim>1</dim>
					<dim>1</dim>
					<dim>1</dim>
				</port>
			</output>
		</layer>
		<layer id="343" name="Add_180" type="Add" version="opset1">
			<data auto_broadcast="numpy"/>
			<input>
				<port id="0" precision="FP16">
					<dim>1</dim>
					<dim>672</dim>
					<dim>17</dim>
					<dim>30</dim>
				</port>
				<port id="1" precision="FP16">
					<dim>1</dim>
					<dim>1</dim>
					<dim>1</dim>
					<dim>1</dim>
				</port>
			</input>
			<output>
				<port id="2" names="599" precision="FP16">
					<dim>1</dim>
					<dim>672</dim>
					<dim>17</dim>
					<dim>30</dim>
				</port>
			</output>
		</layer>
		<layer id="344" name="Clip_183" type="Clamp" version="opset1">
			<data max="6" min="0"/>
			<input>
				<port id="0" precision="FP16">
					<dim>1</dim>
					<dim>672</dim>
					<dim>17</dim>
					<dim>30</dim>
				</port>
			</input>
			<output>
				<port id="1" names="602" precision="FP16">
					<dim>1</dim>
					<dim>672</dim>
					<dim>17</dim>
					<dim>30</dim>
				</port>
			</output>
		</layer>
		<layer id="345" name="Constant_184" type="Const" version="opset1">
			<data element_type="f16" offset="984" shape="1, 1, 1, 1" size="2"/>
			<output>
				<port id="0" names="603" precision="FP16">
					<dim>1</dim>
					<dim>1</dim>
					<dim>1</dim>
					<dim>1</dim>
				</port>
			</output>
		</layer>
		<layer id="346" name="Div_185" type="Multiply" version="opset1">
			<data auto_broadcast="numpy"/>
			<input>
				<port id="0" precision="FP16">
					<dim>1</dim>
					<dim>672</dim>
					<dim>17</dim>
					<dim>30</dim>
				</port>
				<port id="1" precision="FP16">
					<dim>1</dim>
					<dim>1</dim>
					<dim>1</dim>
					<dim>1</dim>
				</port>
			</input>
			<output>
				<port id="2" names="604" precision="FP16">
					<dim>1</dim>
					<dim>672</dim>
					<dim>17</dim>
					<dim>30</dim>
				</port>
			</output>
		</layer>
		<layer id="347" name="Mul_186" type="Multiply" version="opset1">
			<data auto_broadcast="numpy"/>
			<input>
				<port id="0" precision="FP16">
					<dim>1</dim>
					<dim>672</dim>
					<dim>17</dim>
					<dim>30</dim>
				</port>
				<port id="1" precision="FP16">
					<dim>1</dim>
					<dim>672</dim>
					<dim>17</dim>
					<dim>30</dim>
				</port>
			</input>
			<output>
				<port id="2" names="605" precision="FP16">
					<dim>1</dim>
					<dim>672</dim>
					<dim>17</dim>
					<dim>30</dim>
				</port>
			</output>
		</layer>
		<layer id="348" name="893" type="Const" version="opset1">
			<data element_type="i64" offset="34" shape="" size="8"/>
			<output>
				<port id="0" precision="I64"/>
			</output>
		</layer>
		<layer id="349" name="GlobalAveragePool_187/input_rank/shape_of" type="ShapeOf" version="opset3">
			<data output_type="i64"/>
			<input>
				<port id="0" precision="FP16">
					<dim>1</dim>
					<dim>672</dim>
					<dim>17</dim>
					<dim>30</dim>
				</port>
			</input>
			<output>
				<port id="1" precision="I64">
					<dim>4</dim>
				</port>
			</output>
		</layer>
		<layer id="350" name="GlobalAveragePool_187/input_rank/rank_of" type="ShapeOf" version="opset3">
			<data output_type="i64"/>
			<input>
				<port id="0" precision="I64">
					<dim>4</dim>
				</port>
			</input>
			<output>
				<port id="1" precision="I64">
					<dim>1</dim>
				</port>
			</output>
		</layer>
		<layer id="351" name="GlobalAveragePool_187/input_rank/0d_rank_of/value" type="Const" version="opset1">
			<data element_type="i64" offset="24314" shape="1" size="8"/>
			<output>
				<port id="0" precision="I64">
					<dim>1</dim>
				</port>
			</output>
		</layer>
		<layer id="352" name="GlobalAveragePool_187/input_rank" type="Squeeze" version="opset1">
			<input>
				<port id="0" precision="I64">
					<dim>1</dim>
				</port>
				<port id="1" precision="I64">
					<dim>1</dim>
				</port>
			</input>
			<output>
				<port id="2" precision="I64"/>
			</output>
		</layer>
		<layer id="353" name="895" type="Const" version="opset1">
			<data element_type="i64" offset="0" shape="" size="8"/>
			<output>
				<port id="0" precision="I64"/>
			</output>
		</layer>
		<layer id="354" name="GlobalAveragePool_187/global_pooling_reduce_axis" type="Range" version="opset4">
			<data output_type="i64"/>
			<input>
				<port id="0" precision="I64"/>
				<port id="1" precision="I64"/>
				<port id="2" precision="I64"/>
			</input>
			<output>
				<port id="3" precision="I64">
					<dim>2</dim>
				</port>
			</output>
		</layer>
		<layer id="355" name="GlobalAveragePool_187/reduce" type="ReduceMean" version="opset1">
			<data keep_dims="true"/>
			<input>
				<port id="0" precision="FP16">
					<dim>1</dim>
					<dim>672</dim>
					<dim>17</dim>
					<dim>30</dim>
				</port>
				<port id="1" precision="I64">
					<dim>2</dim>
				</port>
			</input>
			<output>
				<port id="2" names="606" precision="FP16">
					<dim>1</dim>
					<dim>672</dim>
					<dim>1</dim>
					<dim>1</dim>
				</port>
			</output>
		</layer>
		<layer id="356" name="backbone.features.12.block.2.fc1.weight" type="Const" version="opset1">
			<data element_type="f16" offset="969908" shape="168, 672, 1, 1" size="225792"/>
			<output>
				<port id="0" names="backbone.features.12.block.2.fc1.weight" precision="FP16">
					<dim>168</dim>
					<dim>672</dim>
					<dim>1</dim>
					<dim>1</dim>
				</port>
			</output>
		</layer>
		<layer id="357" name="Conv_188/WithoutBiases" type="Convolution" version="opset1">
…
		<edge from-layer="492" from-port="2" to-layer="494" to-port="0"/>
		<edge from-layer="493" from-port="0" to-layer="494" to-port="1"/>
		<edge from-layer="494" from-port="2" to-layer="496" to-port="0"/>
		<edge from-layer="495" from-port="0" to-layer="496" to-port="1"/>
		<edge from-layer="496" from-port="2" to-layer="497" to-port="0"/>
		<edge from-layer="497" from-port="1" to-layer="499" to-port="0"/>
		<edge from-layer="498" from-port="0" to-layer="499" to-port="1"/>
		<edge from-layer="499" from-port="2" to-layer="501" to-port="0"/>
		<edge from-layer="500" from-port="0" to-layer="501" to-port="1"/>
		<edge from-layer="501" from-port="2" to-layer="504" to-port="0"/>
		<edge from-layer="502" from-port="0" to-layer="504" to-port="1"/>
		<edge from-layer="503" from-port="0" to-layer="504" to-port="2"/>
		<edge from-layer="504" from-port="3" to-layer="505" to-port="0"/>
		<edge from-layer="505" from-port="2" to-layer="507" to-port="0"/>
		<edge from-layer="506" from-port="0" to-layer="507" to-port="1"/>
		<edge from-layer="507" from-port="2" to-layer="509" to-port="0"/>
		<edge from-layer="508" from-port="0" to-layer="509" to-port="1"/>
		<edge from-layer="509" from-port="2" to-layer="510" to-port="0"/>
		<edge from-layer="510" from-port="2" to-layer="512" to-port="0"/>
		<edge from-layer="511" from-port="0" to-layer="512" to-port="1"/>
		<edge from-layer="512" from-port="2" to-layer="514" to-port="0"/>
		<edge from-layer="513" from-port="0" to-layer="514" to-port="1"/>
		<edge from-layer="514" from-port="2" to-layer="516" to-port="0"/>
		<edge from-layer="514" from-port="2" to-layer="520" to-port="0"/>
		<edge from-layer="515" from-port="0" to-layer="516" to-port="1"/>
		<edge from-layer="516" from-port="2" to-layer="517" to-port="0"/>
		<edge from-layer="517" from-port="1" to-layer="519" to-port="0"/>
		<edge from-layer="518" from-port="0" to-layer="519" to-port="1"/>
		<edge from-layer="519" from-port="2" to-layer="520" to-port="1"/>
		<edge from-layer="520" from-port="2" to-layer="527" to-port="0"/>
		<edge from-layer="520" from-port="2" to-layer="533" to-port="0"/>
		<edge from-layer="520" from-port="2" to-layer="522" to-port="0"/>
		<edge from-layer="521" from-port="0" to-layer="522" to-port="1"/>
		<edge from-layer="522" from-port="2" to-layer="524" to-port="0"/>
		<edge from-layer="523" from-port="0" to-layer="524" to-port="1"/>
		<edge from-layer="524" from-port="2" to-layer="525" to-port="0"/>
		<edge from-layer="525" from-port="1" to-layer="537" to-port="0"/>
		<edge from-layer="526" from-port="0" to-layer="532" to-port="0"/>
		<edge from-layer="527" from-port="1" to-layer="528" to-port="0"/>
		<edge from-layer="528" from-port="1" to-layer="530" to-port="0"/>
		<edge from-layer="529" from-port="0" to-layer="530" to-port="1"/>
		<edge from-layer="530" from-port="2" to-layer="532" to-port="1"/>
		<edge from-layer="531" from-port="0" to-layer="532" to-port="2"/>
		<edge from-layer="532" from-port="3" to-layer="533" to-port="1"/>
		<edge from-layer="533" from-port="2" to-layer="535" to-port="0"/>
		<edge from-layer="534" from-port="0" to-layer="535" to-port="1"/>
		<edge from-layer="535" from-port="2" to-layer="536" to-port="0"/>
		<edge from-layer="536" from-port="1" to-layer="537" to-port="1"/>
		<edge from-layer="537" from-port="2" to-layer="540" to-port="0"/>
		<edge from-layer="538" from-port="0" to-layer="540" to-port="1"/>
		<edge from-layer="539" from-port="0" to-layer="540" to-port="2"/>
		<edge from-layer="540" from-port="4" to-layer="543" to-port="0"/>
		<edge from-layer="540" from-port="3" to-layer="598" to-port="0"/>
		<edge from-layer="540" from-port="4" to-layer="558" to-port="0"/>
		<edge from-layer="540" from-port="4" to-layer="567" to-port="0"/>
		<edge from-layer="540" from-port="4" to-layer="578" to-port="0"/>
		<edge from-layer="540" from-port="4" to-layer="549" to-port="0"/>
		<edge from-layer="540" from-port="4" to-layer="590" to-port="0"/>
		<edge from-layer="541" from-port="0" to-layer="587" to-port="0"/>
		<edge from-layer="542" from-port="0" to-layer="577" to-port="0"/>
		<edge from-layer="543" from-port="1" to-layer="546" to-port="0"/>
		<edge from-layer="544" from-port="0" to-layer="546" to-port="1"/>
		<edge from-layer="545" from-port="0" to-layer="546" to-port="2"/>
		<edge from-layer="546" from-port="3" to-layer="548" to-port="0"/>
		<edge from-layer="547" from-port="0" to-layer="548" to-port="1"/>
		<edge from-layer="548" from-port="2" to-layer="576" to-port="0"/>
		<edge from-layer="549" from-port="1" to-layer="553" to-port="0"/>
		<edge from-layer="550" from-port="0" to-layer="553" to-port="1"/>
		<edge from-layer="551" from-port="0" to-layer="553" to-port="2"/>
		<edge from-layer="552" from-port="0" to-layer="553" to-port="3"/>
		<edge from-layer="553" from-port="4" to-layer="555" to-port="0"/>
		<edge from-layer="554" from-port="0" to-layer="555" to-port="1"/>
		<edge from-layer="555" from-port="2" to-layer="557" to-port="0"/>
		<edge from-layer="556" from-port="0" to-layer="557" to-port="1"/>
		<edge from-layer="557" from-port="2" to-layer="576" to-port="1"/>
		<edge from-layer="558" from-port="1" to-layer="562" to-port="0"/>
		<edge from-layer="559" from-port="0" to-layer="562" to-port="1"/>
		<edge from-layer="560" from-port="0" to-layer="562" to-port="2"/>
		<edge from-layer="561" from-port="0" to-layer="562" to-port="3"/>
		<edge from-layer="562" from-port="4" to-layer="564" to-port="0"/>
		<edge from-layer="563" from-port="0" to-layer="564" to-port="1"/>
		<edge from-layer="564" from-port="2" to-layer="566" to-port="0"/>
		<edge from-layer="565" from-port="0" to-layer="566" to-port="1"/>
		<edge from-layer="566" from-port="2" to-layer="576" to-port="2"/>
		<edge from-layer="567" from-port="1" to-layer="571" to-port="0"/>
		<edge from-layer="568" from-port="0" to-layer="571" to-port="1"/>
		<edge from-layer="569" from-port="0" to-layer="571" to-port="2"/>
		<edge from-layer="570" from-port="0" to-layer="571" to-port="3"/>
		<edge from-layer="571" from-port="4" to-layer="573" to-port="0"/>
		<edge from-layer="572" from-port="0" to-layer="573" to-port="1"/>
		<edge from-layer="573" from-port="2" to-layer="575" to-port="0"/>
		<edge from-layer="574" from-port="0" to-layer="575" to-port="1"/>
		<edge from-layer="575" from-port="2" to-layer="576" to-port="3"/>
		<edge from-layer="576" from-port="4" to-layer="577" to-port="1"/>
		<edge from-layer="577" from-port="2" to-layer="588" to-port="1"/>
		<edge from-layer="577" from-port="2" to-layer="589" to-port="1"/>
		<edge from-layer="577" from-port="2" to-layer="578" to-port="1"/>
		<edge from-layer="578" from-port="2" to-layer="580" to-port="0"/>
		<edge from-layer="579" from-port="0" to-layer="580" to-port="1"/>
		<edge from-layer="580" from-port="2" to-layer="582" to-port="0"/>
		<edge from-layer="581" from-port="0" to-layer="582" to-port="1"/>
		<edge from-layer="582" from-port="2" to-layer="583" to-port="0"/>
		<edge from-layer="583" from-port="1" to-layer="586" to-port="0"/>
		<edge from-layer="584" from-port="0" to-layer="586" to-port="1"/>
		<edge from-layer="585" from-port="0" to-layer="586" to-port="2"/>
		<edge from-layer="586" from-port="4" to-layer="587" to-port="1"/>
		<edge from-layer="586" from-port="3" to-layer="589" to-port="0"/>
		<edge from-layer="586" from-port="4" to-layer="596" to-port="0"/>
		<edge from-layer="587" from-port="2" to-layer="588" to-port="0"/>
		<edge from-layer="588" from-port="2" to-layer="597" to-port="0"/>
		<edge from-layer="589" from-port="2" to-layer="590" to-port="1"/>
		<edge from-layer="590" from-port="2" to-layer="592" to-port="0"/>
		<edge from-layer="591" from-port="0" to-layer="592" to-port="1"/>
		<edge from-layer="592" from-port="2" to-layer="594" to-port="0"/>
		<edge from-layer="593" from-port="0" to-layer="594" to-port="1"/>
		<edge from-layer="594" from-port="2" to-layer="595" to-port="0"/>
		<edge from-layer="595" from-port="1" to-layer="596" to-port="1"/>
		<edge from-layer="596" from-port="2" to-layer="597" to-port="1"/>
		<edge from-layer="597" from-port="2" to-layer="598" to-port="1"/>
		<edge from-layer="598" from-port="2" to-layer="613" to-port="0"/>
		<edge from-layer="598" from-port="2" to-layer="599" to-port="0"/>
		<edge from-layer="599" from-port="1" to-layer="600" to-port="0"/>
		<edge from-layer="600" from-port="1" to-layer="602" to-port="0"/>
		<edge from-layer="601" from-port="0" to-layer="602" to-port="1"/>
		<edge from-layer="602" from-port="2" to-layer="604" to-port="0"/>
		<edge from-layer="603" from-port="0" to-layer="604" to-port="1"/>
		<edge from-layer="604" from-port="2" to-layer="605" to-port="0"/>
		<edge from-layer="605" from-port="1" to-layer="606" to-port="0"/>
		<edge from-layer="606" from-port="1" to-layer="610" to-port="0"/>
		<edge from-layer="607" from-port="0" to-layer="610" to-port="1"/>
		<edge from-layer="608" from-port="0" to-layer="610" to-port="2"/>
		<edge from-layer="609" from-port="0" to-layer="610" to-port="3"/>
		<edge from-layer="610" from-port="4" to-layer="613" to-port="1"/>
		<edge from-layer="611" from-port="0" to-layer="613" to-port="2"/>
		<edge from-layer="612" from-port="0" to-layer="613" to-port="3"/>
		<edge from-layer="613" from-port="4" to-layer="633" to-port="0"/>
		<edge from-layer="614" from-port="0" to-layer="633" to-port="1"/>
		<edge from-layer="615" from-port="0" to-layer="631" to-port="0"/>
		<edge from-layer="616" from-port="0" to-layer="631" to-port="1"/>
		<edge from-layer="617" from-port="1" to-layer="618" to-port="0"/>
		<edge from-layer="617" from-port="1" to-layer="883" to-port="2"/>
		<edge from-layer="617" from-port="1" to-layer="870" to-port="0"/>
		<edge from-layer="617" from-port="1" to-layer="852" to-port="0"/>
		<edge from-layer="618" from-port="1" to-layer="767" to-port="2"/>
		<edge from-layer="618" from-port="1" to-layer="736" to-port="0"/>
		<edge from-layer="618" from-port="1" to-layer="754" to-port="0"/>
		<edge from-layer="618" from-port="1" to-layer="619" to-port="0"/>
		<edge from-layer="619" from-port="1" to-layer="638" to-port="0"/>
		<edge from-layer="619" from-port="1" to-layer="620" to-port="0"/>
		<edge from-layer="619" from-port="1" to-layer="651" to-port="2"/>
		<edge from-layer="620" from-port="1" to-layer="623" to-port="0"/>
		<edge from-layer="621" from-port="0" to-layer="623" to-port="1"/>
		<edge from-layer="622" from-port="0" to-layer="623" to-port="2"/>
		<edge from-layer="623" from-port="3" to-layer="625" to-port="0"/>
		<edge from-layer="624" from-port="0" to-layer="625" to-port="1"/>
		<edge from-layer="625" from-port="2" to-layer="626" to-port="0"/>
		<edge from-layer="626" from-port="1" to-layer="629" to-port="0"/>
		<edge from-layer="627" from-port="0" to-layer="629" to-port="1"/>
		<edge from-layer="628" from-port="0" to-layer="629" to-port="2"/>
		<edge from-layer="629" from-port="3" to-layer="631" to-port="2"/>
		<edge from-layer="630" from-port="0" to-layer="631" to-port="3"/>
		<edge from-layer="631" from-port="4" to-layer="633" to-port="2"/>
		<edge from-layer="632" from-port="0" to-layer="633" to-port="3"/>
		<edge from-layer="633" from-port="4" to-layer="650" to-port="0"/>
		<edge from-layer="634" from-port="0" to-layer="650" to-port="1"/>
		<edge from-layer="635" from-port="0" to-layer="648" to-port="0"/>
		<edge from-layer="636" from-port="0" to-layer="648" to-port="1"/>
		<edge from-layer="637" from-port="0" to-layer="648" to-port="2"/>
		<edge from-layer="638" from-port="1" to-layer="641" to-port="0"/>
		<edge from-layer="639" from-port="0" to-layer="641" to-port="1"/>
		<edge from-layer="640" from-port="0" to-layer="641" to-port="2"/>
		<edge from-layer="641" from-port="3" to-layer="643" to-port="0"/>
		<edge from-layer="642" from-port="0" to-layer="643" to-port="1"/>
		<edge from-layer="643" from-port="2" to-layer="644" to-port="0"/>
		<edge from-layer="644" from-port="1" to-layer="647" to-port="0"/>
		<edge from-layer="645" from-port="0" to-layer="647" to-port="1"/>
		<edge from-layer="646" from-port="0" to-layer="647" to-port="2"/>
		<edge from-layer="647" from-port="3" to-layer="648" to-port="3"/>
		<edge from-layer="648" from-port="4" to-layer="650" to-port="2"/>
		<edge from-layer="649" from-port="0" to-layer="650" to-port="3"/>
		<edge from-layer="650" from-port="4" to-layer="651" to-port="0"/>
		<edge from-layer="651" from-port="3" to-layer="653" to-port="0"/>
		<edge from-layer="652" from-port="0" to-layer="653" to-port="1"/>
		<edge from-layer="653" from-port="2" to-layer="655" to-port="0"/>
		<edge from-layer="654" from-port="0" to-layer="655" to-port="1"/>
		<edge from-layer="655" from-port="2" to-layer="656" to-port="0"/>
		<edge from-layer="656" from-port="1" to-layer="659" to-port="0"/>
		<edge from-layer="657" from-port="0" to-layer="659" to-port="1"/>
		<edge from-layer="658" from-port="0" to-layer="659" to-port="2"/>
		<edge from-layer="659" from-port="4" to-layer="668" to-port="0"/>
		<edge from-layer="659" from-port="4" to-layer="677" to-port="0"/>
		<edge from-layer="659" from-port="4" to-layer="686" to-port="0"/>
		<edge from-layer="659" from-port="4" to-layer="697" to-port="0"/>
		<edge from-layer="659" from-port="4" to-layer="709" to-port="0"/>
		<edge from-layer="659" from-port="3" to-layer="717" to-port="0"/>
		<edge from-layer="659" from-port="4" to-layer="662" to-port="0"/>
		<edge from-layer="660" from-port="0" to-layer="706" to-port="0"/>
		<edge from-layer="661" from-port="0" to-layer="696" to-port="0"/>
		<edge from-layer="662" from-port="1" to-layer="665" to-port="0"/>
		<edge from-layer="663" from-port="0" to-layer="665" to-port="1"/>
		<edge from-layer="664" from-port="0" to-layer="665" to-port="2"/>
		<edge from-layer="665" from-port="3" to-layer="667" to-port="0"/>
		<edge from-layer="666" from-port="0" to-layer="667" to-port="1"/>
		<edge from-layer="667" from-port="2" to-layer="695" to-port="0"/>
		<edge from-layer="668" from-port="1" to-layer="672" to-port="0"/>
		<edge from-layer="669" from-port="0" to-layer="672" to-port="1"/>
		<edge from-layer="670" from-port="0" to-layer="672" to-port="2"/>
		<edge from-layer="671" from-port="0" to-layer="672" to-port="3"/>
		<edge from-layer="672" from-port="4" to-layer="674" to-port="0"/>
		<edge from-layer="673" from-port="0" to-layer="674" to-port="1"/>
		<edge from-layer="674" from-port="2" to-layer="676" to-port="0"/>
		<edge from-layer="675" from-port="0" to-layer="676" to-port="1"/>
		<edge from-layer="676" from-port="2" to-layer="695" to-port="1"/>
		<edge from-layer="677" from-port="1" to-layer="681" to-port="0"/>
		<edge from-layer="678" from-port="0" to-layer="681" to-port="1"/>
		<edge from-layer="679" from-port="0" to-layer="681" to-port="2"/>
		<edge from-layer="680" from-port="0" to-layer="681" to-port="3"/>
		<edge from-layer="681" from-port="4" to-layer="683" to-port="0"/>
		<edge from-layer="682" from-port="0" to-layer="683" to-port="1"/>
		<edge from-layer="683" from-port="2" to-layer="685" to-port="0"/>
		<edge from-layer="684" from-port="0" to-layer="685" to-port="1"/>
		<edge from-layer="685" from-port="2" to-layer="695" to-port="2"/>
		<edge from-layer="686" from-port="1" to-layer="690" to-port="0"/>
		<edge from-layer="687" from-port="0" to-layer="690" to-port="1"/>
		<edge from-layer="688" from-port="0" to-layer="690" to-port="2"/>
		<edge from-layer="689" from-port="0" to-layer="690" to-port="3"/>
		<edge from-layer="690" from-port="4" to-layer="692" to-port="0"/>
		<edge from-layer="691" from-port="0" to-layer="692" to-port="1"/>
		<edge from-layer="692" from-port="2" to-layer="694" to-port="0"/>
		<edge from-layer="693" from-port="0" to-layer="694" to-port="1"/>
		<edge from-layer="694" from-port="2" to-layer="695" to-port="3"/>
		<edge from-layer="695" from-port="4" to-layer="696" to-port="1"/>
		<edge from-layer="696" from-port="2" to-layer="707" to-port="1"/>
		<edge from-layer="696" from-port="2" to-layer="708" to-port="1"/>
		<edge from-layer="696" from-port="2" to-layer="697" to-port="1"/>
		<edge from-layer="697" from-port="2" to-layer="699" to-port="0"/>
		<edge from-layer="698" from-port="0" to-layer="699" to-port="1"/>
		<edge from-layer="699" from-port="2" to-layer="701" to-port="0"/>
		<edge from-layer="700" from-port="0" to-layer="701" to-port="1"/>
		<edge from-layer="701" from-port="2" to-layer="702" to-port="0"/>
		<edge from-layer="702" from-port="1" to-layer="705" to-port="0"/>
		<edge from-layer="703" from-port="0" to-layer="705" to-port="1"/>
		<edge from-layer="704" from-port="0" to-layer="705" to-port="2"/>
		<edge from-layer="705" from-port="4" to-layer="715" to-port="0"/>
		<edge from-layer="705" from-port="3" to-layer="708" to-port="0"/>
		<edge from-layer="705" from-port="4" to-layer="706" to-port="1"/>
		<edge from-layer="706" from-port="2" to-layer="707" to-port="0"/>
		<edge from-layer="707" from-port="2" to-layer="716" to-port="0"/>
		<edge from-layer="708" from-port="2" to-layer="709" to-port="1"/>
		<edge from-layer="709" from-port="2" to-layer="711" to-port="0"/>
		<edge from-layer="710" from-port="0" to-layer="711" to-port="1"/>
		<edge from-layer="711" from-port="2" to-layer="713" to-port="0"/>
		<edge from-layer="712" from-port="0" to-layer="713" to-port="1"/>
		<edge from-layer="713" from-port="2" to-layer="714" to-port="0"/>
		<edge from-layer="714" from-port="1" to-layer="715" to-port="1"/>
		<edge from-layer="715" from-port="2" to-layer="716" to-port="1"/>
		<edge from-layer="716" from-port="2" to-layer="717" to-port="1"/>
		<edge from-layer="717" from-port="2" to-layer="718" to-port="0"/>
		<edge from-layer="717" from-port="2" to-layer="732" to-port="0"/>
		<edge from-layer="718" from-port="1" to-layer="719" to-port="0"/>
		<edge from-layer="719" from-port="1" to-layer="721" to-port="0"/>
		<edge from-layer="720" from-port="0" to-layer="721" to-port="1"/>
		<edge from-layer="721" from-port="2" to-layer="723" to-port="0"/>
		<edge from-layer="722" from-port="0" to-layer="723" to-port="1"/>
		<edge from-layer="723" from-port="2" to-layer="724" to-port="0"/>
		<edge from-layer="724" from-port="1" to-layer="725" to-port="0"/>
		<edge from-layer="725" from-port="1" to-layer="729" to-port="0"/>
		<edge from-layer="726" from-port="0" to-layer="729" to-port="1"/>
		<edge from-layer="727" from-port="0" to-layer="729" to-port="2"/>
		<edge from-layer="728" from-port="0" to-layer="729" to-port="3"/>
		<edge from-layer="729" from-port="4" to-layer="732" to-port="1"/>
		<edge from-layer="730" from-port="0" to-layer="732" to-port="2"/>
		<edge from-layer="731" from-port="0" to-layer="732" to-port="3"/>
		<edge from-layer="732" from-port="4" to-layer="749" to-port="0"/>
		<edge from-layer="733" from-port="0" to-layer="749" to-port="1"/>
		<edge from-layer="734" from-port="0" to-layer="747" to-port="0"/>
		<edge from-layer="735" from-port="0" to-layer="747" to-port="1"/>
		<edge from-layer="736" from-port="1" to-layer="739" to-port="0"/>
		<edge from-layer="737" from-port="0" to-layer="739" to-port="1"/>
		<edge from-layer="738" from-port="0" to-layer="739" to-port="2"/>
		<edge from-layer="739" from-port="3" to-layer="741" to-port="0"/>
		<edge from-layer="740" from-port="0" to-layer="741" to-port="1"/>
		<edge from-layer="741" from-port="2" to-layer="742" to-port="0"/>
		<edge from-layer="742" from-port="1" to-layer="745" to-port="0"/>
		<edge from-layer="743" from-port="0" to-layer="745" to-port="1"/>
		<edge from-layer="744" from-port="0" to-layer="745" to-port="2"/>
		<edge from-layer="745" from-port="3" to-layer="747" to-port="2"/>
		<edge from-layer="746" from-port="0" to-layer="747" to-port="3"/>
		<edge from-layer="747" from-port="4" to-layer="749" to-port="2"/>
		<edge from-layer="748" from-port="0" to-layer="749" to-port="3"/>
		<edge from-layer="749" from-port="4" to-layer="766" to-port="0"/>
		<edge from-layer="750" from-port="0" to-layer="766" to-port="1"/>
		<edge from-layer="751" from-port="0" to-layer="764" to-port="0"/>
		<edge from-layer="752" from-port="0" to-layer="764" to-port="1"/>
		<edge from-layer="753" from-port="0" to-layer="764" to-port="2"/>
		<edge from-layer="754" from-port="1" to-layer="757" to-port="0"/>
		<edge from-layer="755" from-port="0" to-layer="757" to-port="1"/>
		<edge from-layer="756" from-port="0" to-layer="757" to-port="2"/>
		<edge from-layer="757" from-port="3" to-layer="759" to-port="0"/>
		<edge from-layer="758" from-port="0" to-layer="759" to-port="1"/>
		<edge from-layer="759" from-port="2" to-layer="760" to-port="0"/>
		<edge from-layer="760" from-port="1" to-layer="763" to-port="0"/>
		<edge from-layer="761" from-port="0" to-layer="763" to-port="1"/>
		<edge from-layer="762" from-port="0" to-layer="763" to-port="2"/>
		<edge from-layer="763" from-port="3" to-layer="764" to-port="3"/>
		<edge from-layer="764" from-port="4" to-layer="766" to-port="2"/>
		<edge from-layer="765" from-port="0" to-layer="766" to-port="3"/>
		<edge from-layer="766" from-port="4" to-layer="767" to-port="0"/>
		<edge from-layer="767" from-port="3" to-layer="769" to-port="0"/>
		<edge from-layer="768" from-port="0" to-layer="769" to-port="1"/>
		<edge from-layer="769" from-port="2" to-layer="771" to-port="0"/>
		<edge from-layer="770" from-port="0" to-layer="771" to-port="1"/>
		<edge from-layer="771" from-port="2" to-layer="772" to-port="0"/>
		<edge from-layer="772" from-port="1" to-layer="775" to-port="0"/>
		<edge from-layer="773" from-port="0" to-layer="775" to-port="1"/>
		<edge from-layer="774" from-port="0" to-layer="775" to-port="2"/>
		<edge from-layer="775" from-port="4" to-layer="825" to-port="0"/>
		<edge from-layer="775" from-port="4" to-layer="813" to-port="0"/>
		<edge from-layer="775" from-port="4" to-layer="793" to-port="0"/>
		<edge from-layer="775" from-port="4" to-layer="778" to-port="0"/>
		<edge from-layer="775" from-port="4" to-layer="802" to-port="0"/>
		<edge from-layer="775" from-port="4" to-layer="784" to-port="0"/>
		<edge from-layer="775" from-port="3" to-layer="833" to-port="0"/>
		<edge from-layer="776" from-port="0" to-layer="822" to-port="0"/>
		<edge from-layer="777" from-port="0" to-layer="812" to-port="0"/>
		<edge from-layer="778" from-port="1" to-layer="781" to-port="0"/>
		<edge from-layer="779" from-port="0" to-layer="781" to-port="1"/>
		<edge from-layer="780" from-port="0" to-layer="781" to-port="2"/>
		<edge from-layer="781" from-port="3" to-layer="783" to-port="0"/>
		<edge from-layer="782" from-port="0" to-layer="783" to-port="1"/>
		<edge from-layer="783" from-port="2" to-layer="811" to-port="0"/>
		<edge from-layer="784" from-port="1" to-layer="788" to-port="0"/>
		<edge from-layer="785" from-port="0" to-layer="788" to-port="1"/>
		<edge from-layer="786" from-port="0" to-layer="788" to-port="2"/>
		<edge from-layer="787" from-port="0" to-layer="788" to-port="3"/>
		<edge from-layer="788" from-port="4" to-layer="790" to-port="0"/>
		<edge from-layer="789" from-port="0" to-layer="790" to-port="1"/>
		<edge from-layer="790" from-port="2" to-layer="792" to-port="0"/>
		<edge from-layer="791" from-port="0" to-layer="792" to-port="1"/>
		<edge from-layer="792" from-port="2" to-layer="811" to-port="1"/>
		<edge from-layer="793" from-port="1" to-layer="797" to-port="0"/>
		<edge from-layer="794" from-port="0" to-layer="797" to-port="1"/>
		<edge from-layer="795" from-port="0" to-layer="797" to-port="2"/>
		<edge from-layer="796" from-port="0" to-layer="797" to-port="3"/>
		<edge from-layer="797" from-port="4" to-layer="799" to-port="0"/>
		<edge from-layer="798" from-port="0" to-layer="799" to-port="1"/>
		<edge from-layer="799" from-port="2" to-layer="801" to-port="0"/>
		<edge from-layer="800" from-port="0" to-layer="801" to-port="1"/>
		<edge from-layer="801" from-port="2" to-layer="811" to-port="2"/>
		<edge from-layer="802" from-port="1" to-layer="806" to-port="0"/>
		<edge from-layer="803" from-port="0" to-layer="806" to-port="1"/>
		<edge from-layer="804" from-port="0" to-layer="806" to-port="2"/>
		<edge from-layer="805" from-port="0" to-layer="806" to-port="3"/>
		<edge from-layer="806" from-port="4" to-layer="808" to-port="0"/>
		<edge from-layer="807" from-port="0" to-layer="808" to-port="1"/>
		<edge from-layer="808" from-port="2" to-layer="810" to-port="0"/>
		<edge from-layer="809" from-port="0" to-layer="810" to-port="1"/>
		<edge from-layer="810" from-port="2" to-layer="811" to-port="3"/>
		<edge from-layer="811" from-port="4" to-layer="812" to-port="1"/>
		<edge from-layer="812" from-port="2" to-layer="823" to-port="1"/>
		<edge from-layer="812" from-port="2" to-layer="813" to-port="1"/>
		<edge from-layer="812" from-port="2" to-layer="824" to-port="1"/>
		<edge from-layer="813" from-port="2" to-layer="815" to-port="0"/>
		<edge from-layer="814" from-port="0" to-layer="815" to-port="1"/>
		<edge from-layer="815" from-port="2" to-layer="817" to-port="0"/>
		<edge from-layer="816" from-port="0" to-layer="817" to-port="1"/>
		<edge from-layer="817" from-port="2" to-layer="818" to-port="0"/>
		<edge from-layer="818" from-port="1" to-layer="821" to-port="0"/>
		<edge from-layer="819" from-port="0" to-layer="821" to-port="1"/>
		<edge from-layer="820" from-port="0" to-layer="821" to-port="2"/>
		<edge from-layer="821" from-port="4" to-layer="831" to-port="0"/>
		<edge from-layer="821" from-port="3" to-layer="824" to-port="0"/>
		<edge from-layer="821" from-port="4" to-layer="822" to-port="1"/>
		<edge from-layer="822" from-port="2" to-layer="823" to-port="0"/>
		<edge from-layer="823" from-port="2" to-layer="832" to-port="0"/>
		<edge from-layer="824" from-port="2" to-layer="825" to-port="1"/>
		<edge from-layer="825" from-port="2" to-layer="827" to-port="0"/>
		<edge from-layer="826" from-port="0" to-layer="827" to-port="1"/>
		<edge from-layer="827" from-port="2" to-layer="829" to-port="0"/>
		<edge from-layer="828" from-port="0" to-layer="829" to-port="1"/>
		<edge from-layer="829" from-port="2" to-layer="830" to-port="0"/>
		<edge from-layer="830" from-port="1" to-layer="831" to-port="1"/>
		<edge from-layer="831" from-port="2" to-layer="832" to-port="1"/>
		<edge from-layer="832" from-port="2" to-layer="833" to-port="1"/>
		<edge from-layer="833" from-port="2" to-layer="848" to-port="0"/>
		<edge from-layer="833" from-port="2" to-layer="834" to-port="0"/>
		<edge from-layer="834" from-port="1" to-layer="835" to-port="0"/>
		<edge from-layer="835" from-port="1" to-layer="837" to-port="0"/>
		<edge from-layer="836" from-port="0" to-layer="837" to-port="1"/>
		<edge from-layer="837" from-port="2" to-layer="839" to-port="0"/>
		<edge from-layer="838" from-port="0" to-layer="839" to-port="1"/>
		<edge from-layer="839" from-port="2" to-layer="840" to-port="0"/>
		<edge from-layer="840" from-port="1" to-layer="841" to-port="0"/>
		<edge from-layer="841" from-port="1" to-layer="845" to-port="0"/>
		<edge from-layer="842" from-port="0" to-layer="845" to-port="1"/>
		<edge from-layer="843" from-port="0" to-layer="845" to-port="2"/>
		<edge from-layer="844" from-port="0" to-layer="845" to-port="3"/>
		<edge from-layer="845" from-port="4" to-layer="848" to-port="1"/>
		<edge from-layer="846" from-port="0" to-layer="848" to-port="2"/>
		<edge from-layer="847" from-port="0" to-layer="848" to-port="3"/>
		<edge from-layer="848" from-port="4" to-layer="865" to-port="0"/>
		<edge from-layer="849" from-port="0" to-layer="865" to-port="1"/>
		<edge from-layer="850" from-port="0" to-layer="863" to-port="0"/>
		<edge from-layer="851" from-port="0" to-layer="863" to-port="1"/>
		<edge from-layer="852" from-port="1" to-layer="855" to-port="0"/>
		<edge from-layer="853" from-port="0" to-layer="855" to-port="1"/>
		<edge from-layer="854" from-port="0" to-layer="855" to-port="2"/>
		<edge from-layer="855" from-port="3" to-layer="857" to-port="0"/>
		<edge from-layer="856" from-port="0" to-layer="857" to-port="1"/>
		<edge from-layer="857" from-port="2" to-layer="858" to-port="0"/>
		<edge from-layer="858" from-port="1" to-layer="861" to-port="0"/>
		<edge from-layer="859" from-port="0" to-layer="861" to-port="1"/>
		<edge from-layer="860" from-port="0" to-layer="861" to-port="2"/>
		<edge from-layer="861" from-port="3" to-layer="863" to-port="2"/>
		<edge from-layer="862" from-port="0" to-layer="863" to-port="3"/>
		<edge from-layer="863" from-port="4" to-layer="865" to-port="2"/>
		<edge from-layer="864" from-port="0" to-layer="865" to-port="3"/>
		<edge from-layer="865" from-port="4" to-layer="882" to-port="0"/>
		<edge from-layer="866" from-port="0" to-layer="882" to-port="1"/>
		<edge from-layer="867" from-port="0" to-layer="880" to-port="0"/>
		<edge from-layer="868" from-port="0" to-layer="880" to-port="1"/>
		<edge from-layer="869" from-port="0" to-layer="880" to-port="2"/>
		<edge from-layer="870" from-port="1" to-layer="873" to-port="0"/>
		<edge from-layer="871" from-port="0" to-layer="873" to-port="1"/>
		<edge from-layer="872" from-port="0" to-layer="873" to-port="2"/>
		<edge from-layer="873" from-port="3" to-layer="875" to-port="0"/>
		<edge from-layer="874" from-port="0" to-layer="875" to-port="1"/>
		<edge from-layer="875" from-port="2" to-layer="876" to-port="0"/>
		<edge from-layer="876" from-port="1" to-layer="879" to-port="0"/>
		<edge from-layer="877" from-port="0" to-layer="879" to-port="1"/>
		<edge from-layer="878" from-port="0" to-layer="879" to-port="2"/>
		<edge from-layer="879" from-port="3" to-layer="880" to-port="3"/>
		<edge from-layer="880" from-port="4" to-layer="882" to-port="2"/>
		<edge from-layer="881" from-port="0" to-layer="882" to-port="3"/>
		<edge from-layer="882" from-port="4" to-layer="883" to-port="0"/>
		<edge from-layer="883" from-port="3" to-layer="885" to-port="0"/>
		<edge from-layer="884" from-port="0" to-layer="885" to-port="1"/>
		<edge from-layer="885" from-port="2" to-layer="887" to-port="0"/>
		<edge from-layer="886" from-port="0" to-layer="887" to-port="1"/>
		<edge from-layer="887" from-port="2" to-layer="888" to-port="0"/>
		<edge from-layer="888" from-port="1" to-layer="891" to-port="0"/>
		<edge from-layer="889" from-port="0" to-layer="891" to-port="1"/>
		<edge from-layer="890" from-port="0" to-layer="891" to-port="2"/>
		<edge from-layer="891" from-port="4" to-layer="894" to-port="0"/>
		<edge from-layer="891" from-port="4" to-layer="941" to-port="0"/>
		<edge from-layer="891" from-port="4" to-layer="929" to-port="0"/>
		<edge from-layer="891" from-port="4" to-layer="918" to-port="0"/>
		<edge from-layer="891" from-port="4" to-layer="909" to-port="0"/>
		<edge from-layer="891" from-port="3" to-layer="949" to-port="0"/>
		<edge from-layer="891" from-port="4" to-layer="900" to-port="0"/>
		<edge from-layer="892" from-port="0" to-layer="938" to-port="0"/>
		<edge from-layer="893" from-port="0" to-layer="928" to-port="0"/>
		<edge from-layer="894" from-port="1" to-layer="897" to-port="0"/>
		<edge from-layer="895" from-port="0" to-layer="897" to-port="1"/>
		<edge from-layer="896" from-port="0" to-layer="897" to-port="2"/>
		<edge from-layer="897" from-port="3" to-layer="899" to-port="0"/>
		<edge from-layer="898" from-port="0" to-layer="899" to-port="1"/>
		<edge from-layer="899" from-port="2" to-layer="927" to-port="0"/>
		<edge from-layer="900" from-port="1" to-layer="904" to-port="0"/>
		<edge from-layer="901" from-port="0" to-layer="904" to-port="1"/>
		<edge from-layer="902" from-port="0" to-layer="904" to-port="2"/>
		<edge from-layer="903" from-port="0" to-layer="904" to-port="3"/>
		<edge from-layer="904" from-port="4" to-layer="906" to-port="0"/>
		<edge from-layer="905" from-port="0" to-layer="906" to-port="1"/>
		<edge from-layer="906" from-port="2" to-layer="908" to-port="0"/>
		<edge from-layer="907" from-port="0" to-layer="908" to-port="1"/>
		<edge from-layer="908" from-port="2" to-layer="927" to-port="1"/>
		<edge from-layer="909" from-port="1" to-layer="913" to-port="0"/>
		<edge from-layer="910" from-port="0" to-layer="913" to-port="1"/>
		<edge from-layer="911" from-port="0" to-layer="913" to-port="2"/>
		<edge from-layer="912" from-port="0" to-layer="913" to-port="3"/>
		<edge from-layer="913" from-port="4" to-layer="915" to-port="0"/>
		<edge from-layer="914" from-port="0" to-layer="915" to-port="1"/>
		<edge from-layer="915" from-port="2" to-layer="917" to-port="0"/>
		<edge from-layer="916" from-port="0" to-layer="917" to-port="1"/>
		<edge from-layer="917" from-port="2" to-layer="927" to-port="2"/>
		<edge from-layer="918" from-port="1" to-layer="922" to-port="0"/>
		<edge from-layer="919" from-port="0" to-layer="922" to-port="1"/>
		<edge from-layer="920" from-port="0" to-layer="922" to-port="2"/>
		<edge from-layer="921" from-port="0" to-layer="922" to-port="3"/>
		<edge from-layer="922" from-port="4" to-layer="924" to-port="0"/>
		<edge from-layer="923" from-port="0" to-layer="924" to-port="1"/>
		<edge from-layer="924" from-port="2" to-layer="926" to-port="0"/>
		<edge from-layer="925" from-port="0" to-layer="926" to-port="1"/>
		<edge from-layer="926" from-port="2" to-layer="927" to-port="3"/>
		<edge from-layer="927" from-port="4" to-layer="928" to-port="1"/>
		<edge from-layer="928" from-port="2" to-layer="940" to-port="1"/>
		<edge from-layer="928" from-port="2" to-layer="929" to-port="1"/>
		<edge from-layer="928" from-port="2" to-layer="939" to-port="1"/>
		<edge from-layer="929" from-port="2" to-layer="931" to-port="0"/>
		<edge from-layer="930" from-port="0" to-layer="931" to-port="1"/>
		<edge from-layer="931" from-port="2" to-layer="933" to-port="0"/>
		<edge from-layer="932" from-port="0" to-layer="933" to-port="1"/>
		<edge from-layer="933" from-port="2" to-layer="934" to-port="0"/>
		<edge from-layer="934" from-port="1" to-layer="937" to-port="0"/>
		<edge from-layer="935" from-port="0" to-layer="937" to-port="1"/>
		<edge from-layer="936" from-port="0" to-layer="937" to-port="2"/>
		<edge from-layer="937" from-port="4" to-layer="947" to-port="0"/>
		<edge from-layer="937" from-port="3" to-layer="940" to-port="0"/>
		<edge from-layer="937" from-port="4" to-layer="938" to-port="1"/>
		<edge from-layer="938" from-port="2" to-layer="939" to-port="0"/>
		<edge from-layer="939" from-port="2" to-layer="948" to-port="0"/>
		<edge from-layer="940" from-port="2" to-layer="941" to-port="1"/>
		<edge from-layer="941" from-port="2" to-layer="943" to-port="0"/>
		<edge from-layer="942" from-port="0" to-layer="943" to-port="1"/>
		<edge from-layer="943" from-port="2" to-layer="945" to-port="0"/>
		<edge from-layer="944" from-port="0" to-layer="945" to-port="1"/>
		<edge from-layer="945" from-port="2" to-layer="946" to-port="0"/>
		<edge from-layer="946" from-port="1" to-layer="947" to-port="1"/>
		<edge from-layer="947" from-port="2" to-layer="948" to-port="1"/>
		<edge from-layer="948" from-port="2" to-layer="949" to-port="1"/>
		<edge from-layer="949" from-port="2" to-layer="950" to-port="0"/>
		<edge from-layer="949" from-port="2" to-layer="964" to-port="0"/>
		<edge from-layer="950" from-port="1" to-layer="951" to-port="0"/>
		<edge from-layer="951" from-port="1" to-layer="953" to-port="0"/>
		<edge from-layer="952" from-port="0" to-layer="953" to-port="1"/>
		<edge from-layer="953" from-port="2" to-layer="955" to-port="0"/>
		<edge from-layer="954" from-port="0" to-layer="955" to-port="1"/>
		<edge from-layer="955" from-port="2" to-layer="956" to-port="0"/>
		<edge from-layer="956" from-port="1" to-layer="957" to-port="0"/>
		<edge from-layer="957" from-port="1" to-layer="961" to-port="0"/>
		<edge from-layer="958" from-port="0" to-layer="961" to-port="1"/>
		<edge from-layer="959" from-port="0" to-layer="961" to-port="2"/>
		<edge from-layer="960" from-port="0" to-layer="961" to-port="3"/>
		<edge from-layer="961" from-port="4" to-layer="964" to-port="1"/>
		<edge from-layer="962" from-port="0" to-layer="964" to-port="2"/>
		<edge from-layer="963" from-port="0" to-layer="964" to-port="3"/>
		<edge from-layer="964" from-port="4" to-layer="981" to-port="0"/>
		<edge from-layer="965" from-port="0" to-layer="981" to-port="1"/>
		<edge from-layer="966" from-port="0" to-layer="979" to-port="0"/>
		<edge from-layer="967" from-port="0" to-layer="979" to-port="1"/>
		<edge from-layer="968" from-port="1" to-layer="971" to-port="0"/>
		<edge from-layer="969" from-port="0" to-layer="971" to-port="1"/>
		<edge from-layer="970" from-port="0" to-layer="971" to-port="2"/>
		<edge from-layer="971" from-port="3" to-layer="973" to-port="0"/>
		<edge from-layer="972" from-port="0" to-layer="973" to-port="1"/>
		<edge from-layer="973" from-port="2" to-layer="974" to-port="0"/>
		<edge from-layer="974" from-port="1" to-layer="977" to-port="0"/>
		<edge from-layer="975" from-port="0" to-layer="977" to-port="1"/>
		<edge from-layer="976" from-port="0" to-layer="977" to-port="2"/>
		<edge from-layer="977" from-port="3" to-layer="979" to-port="2"/>
		<edge from-layer="978" from-port="0" to-layer="979" to-port="3"/>
		<edge from-layer="979" from-port="4" to-layer="981" to-port="2"/>
		<edge from-layer="980" from-port="0" to-layer="981" to-port="3"/>
		<edge from-layer="981" from-port="4" to-layer="998" to-port="0"/>
		<edge from-layer="982" from-port="0" to-layer="998" to-port="1"/>
		<edge from-layer="983" from-port="0" to-layer="996" to-port="0"/>
		<edge from-layer="984" from-port="0" to-layer="996" to-port="1"/>
		<edge from-layer="985" from-port="0" to-layer="996" to-port="2"/>
		<edge from-layer="986" from-port="1" to-layer="989" to-port="0"/>
		<edge from-layer="987" from-port="0" to-layer="989" to-port="1"/>
		<edge from-layer="988" from-port="0" to-layer="989" to-port="2"/>
		<edge from-layer="989" from-port="3" to-layer="991" to-port="0"/>
		<edge from-layer="990" from-port="0" to-layer="991" to-port="1"/>
		<edge from-layer="991" from-port="2" to-layer="992" to-port="0"/>
		<edge from-layer="992" from-port="1" to-layer="995" to-port="0"/>
		<edge from-layer="993" from-port="0" to-layer="995" to-port="1"/>
		<edge from-layer="994" from-port="0" to-layer="995" to-port="2"/>
		<edge from-layer="995" from-port="3" to-layer="996" to-port="3"/>
		<edge from-layer="996" from-port="4" to-layer="998" to-port="2"/>
		<edge from-layer="997" from-port="0" to-layer="998" to-port="3"/>
		<edge from-layer="998" from-port="4" to-layer="999" to-port="0"/>
		<edge from-layer="999" from-port="2" to-layer="1001" to-port="0"/>
		<edge from-layer="1000" from-port="0" to-layer="1001" to-port="1"/>
		<edge from-layer="1001" from-port="2" to-layer="1003" to-port="0"/>
		<edge from-layer="1002" from-port="0" to-layer="1003" to-port="1"/>
		<edge from-layer="1003" from-port="2" to-layer="1004" to-port="0"/>
		<edge from-layer="1004" from-port="1" to-layer="1006" to-port="0"/>
		<edge from-layer="1005" from-port="0" to-layer="1006" to-port="1"/>
		<edge from-layer="1006" from-port="2" to-layer="1008" to-port="0"/>
		<edge from-layer="1007" from-port="0" to-layer="1008" to-port="1"/>
		<edge from-layer="1008" from-port="2" to-layer="1009" to-port="0"/>
		<edge from-layer="1009" from-port="1" to-layer="1011" to-port="0"/>
		<edge from-layer="1009" from-port="1" to-layer="1032" to-port="2"/>
		<edge from-layer="1010" from-port="0" to-layer="1011" to-port="1"/>
		<edge from-layer="1011" from-port="2" to-layer="1013" to-port="0"/>
		<edge from-layer="1012" from-port="0" to-layer="1013" to-port="1"/>
		<edge from-layer="1013" from-port="2" to-layer="1016" to-port="0"/>
		<edge from-layer="1014" from-port="0" to-layer="1016" to-port="1"/>
		<edge from-layer="1015" from-port="0" to-layer="1016" to-port="2"/>
		<edge from-layer="1016" from-port="3" to-layer="1017" to-port="0"/>
		<edge from-layer="1016" from-port="4" to-layer="1017" to-port="1"/>
		<edge from-layer="1017" from-port="2" to-layer="1018" to-port="1"/>
		<edge from-layer="1017" from-port="2" to-layer="1024" to-port="0"/>
		<edge from-layer="1018" from-port="2" to-layer="1020" to-port="0"/>
		<edge from-layer="1019" from-port="0" to-layer="1020" to-port="1"/>
		<edge from-layer="1020" from-port="2" to-layer="1026" to-port="0"/>
		<edge from-layer="1021" from-port="0" to-layer="1022" to-port="1"/>
		<edge from-layer="1022" from-port="2" to-layer="1030" to-port="1"/>
		<edge from-layer="1022" from-port="2" to-layer="1030" to-port="0"/>
		<edge from-layer="1022" from-port="2" to-layer="1025" to-port="0"/>
		<edge from-layer="1022" from-port="2" to-layer="1086" to-port="1"/>
		<edge from-layer="1023" from-port="0" to-layer="1024" to-port="1"/>
		<edge from-layer="1024" from-port="2" to-layer="1025" to-port="1"/>
		<edge from-layer="1024" from-port="2" to-layer="1087" to-port="0"/>
		<edge from-layer="1025" from-port="2" to-layer="1026" to-port="1"/>
		<edge from-layer="1026" from-port="2" to-layer="1032" to-port="0"/>
		<edge from-layer="1027" from-port="2" to-layer="1029" to-port="0"/>
		<edge from-layer="1028" from-port="0" to-layer="1029" to-port="1"/>
		<edge from-layer="1029" from-port="2" to-layer="1031" to-port="0"/>
		<edge from-layer="1030" from-port="2" to-layer="1031" to-port="1"/>
		<edge from-layer="1031" from-port="2" to-layer="1032" to-port="1"/>
		<edge from-layer="1032" from-port="3" to-layer="1034" to-port="0"/>
		<edge from-layer="1033" from-port="0" to-layer="1034" to-port="1"/>
		<edge from-layer="1034" from-port="2" to-layer="1036" to-port="0"/>
		<edge from-layer="1035" from-port="0" to-layer="1036" to-port="1"/>
		<edge from-layer="1036" from-port="2" to-layer="1037" to-port="0"/>
		<edge from-layer="1037" from-port="1" to-layer="1039" to-port="0"/>
		<edge from-layer="1038" from-port="0" to-layer="1039" to-port="1"/>
		<edge from-layer="1039" from-port="2" to-layer="1041" to-port="0"/>
		<edge from-layer="1040" from-port="0" to-layer="1041" to-port="1"/>
		<edge from-layer="1041" from-port="2" to-layer="1042" to-port="0"/>
		<edge from-layer="1042" from-port="1" to-layer="1044" to-port="0"/>
		<edge from-layer="1043" from-port="0" to-layer="1044" to-port="1"/>
		<edge from-layer="1044" from-port="2" to-layer="1046" to-port="0"/>
		<edge from-layer="1045" from-port="0" to-layer="1046" to-port="1"/>
		<edge from-layer="1046" from-port="2" to-layer="1047" to-port="0"/>
		<edge from-layer="1046" from-port="2" to-layer="1071" to-port="0"/>
		<edge from-layer="1046" from-port="2" to-layer="1081" to-port="0"/>
		<edge from-layer="1046" from-port="2" to-layer="1086" to-port="0"/>
		<edge from-layer="1047" from-port="1" to-layer="1051" to-port="0"/>
		<edge from-layer="1048" from-port="0" to-layer="1051" to-port="1"/>
		<edge from-layer="1049" from-port="0" to-layer="1051" to-port="2"/>
		<edge from-layer="1050" from-port="0" to-layer="1051" to-port="3"/>
		<edge from-layer="1051" from-port="4" to-layer="1065" to-port="0"/>
		<edge from-layer="1052" from-port="1" to-layer="1055" to-port="0"/>
		<edge from-layer="1053" from-port="0" to-layer="1055" to-port="1"/>
		<edge from-layer="1054" from-port="0" to-layer="1055" to-port="2"/>
		<edge from-layer="1055" from-port="3" to-layer="1057" to-port="0"/>
		<edge from-layer="1055" from-port="3" to-layer="1094" to-port="0"/>
		<edge from-layer="1056" from-port="0" to-layer="1057" to-port="1"/>
		<edge from-layer="1057" from-port="2" to-layer="1064" to-port="0"/>
		<edge from-layer="1058" from-port="1" to-layer="1061" to-port="0"/>
		<edge from-layer="1059" from-port="0" to-layer="1061" to-port="1"/>
		<edge from-layer="1060" from-port="0" to-layer="1061" to-port="2"/>
		<edge from-layer="1061" from-port="3" to-layer="1063" to-port="0"/>
		<edge from-layer="1061" from-port="3" to-layer="1096" to-port="0"/>
		<edge from-layer="1062" from-port="0" to-layer="1063" to-port="1"/>
		<edge from-layer="1063" from-port="2" to-layer="1064" to-port="1"/>
		<edge from-layer="1064" from-port="2" to-layer="1065" to-port="1"/>
		<edge from-layer="1065" from-port="2" to-layer="1070" to-port="0"/>
		<edge from-layer="1065" from-port="2" to-layer="1069" to-port="0"/>
		<edge from-layer="1066" from-port="0" to-layer="1069" to-port="1"/>
		<edge from-layer="1067" from-port="0" to-layer="1069" to-port="2"/>
		<edge from-layer="1068" from-port="0" to-layer="1069" to-port="3"/>
		<edge from-layer="1069" from-port="4" to-layer="1081" to-port="1"/>
		<edge from-layer="1070" from-port="1" to-layer="1073" to-port="0"/>
		<edge from-layer="1071" from-port="1" to-layer="1072" to-port="0"/>
		<edge from-layer="1072" from-port="1" to-layer="1073" to-port="1"/>
		<edge from-layer="1073" from-port="2" to-layer="1075" to-port="0"/>
		<edge from-layer="1074" from-port="0" to-layer="1075" to-port="1"/>
		<edge from-layer="1075" from-port="2" to-layer="1079" to-port="0"/>
		<edge from-layer="1076" from-port="0" to-layer="1079" to-port="1"/>
		<edge from-layer="1077" from-port="0" to-layer="1079" to-port="2"/>
		<edge from-layer="1078" from-port="0" to-layer="1079" to-port="3"/>
		<edge from-layer="1079" from-port="4" to-layer="1081" to-port="2"/>
		<edge from-layer="1080" from-port="0" to-layer="1081" to-port="3"/>
		<edge from-layer="1081" from-port="4" to-layer="1085" to-port="0"/>
		<edge from-layer="1082" from-port="0" to-layer="1083" to-port="1"/>
		<edge from-layer="1083" from-port="2" to-layer="1084" to-port="1"/>
		<edge from-layer="1084" from-port="2" to-layer="1085" to-port="1"/>
		<edge from-layer="1085" from-port="2" to-layer="1115" to-port="0"/>
		<edge from-layer="1086" from-port="2" to-layer="1087" to-port="1"/>
		<edge from-layer="1087" from-port="2" to-layer="1088" to-port="0"/>
		<edge from-layer="1087" from-port="2" to-layer="1104" to-port="0"/>
		<edge from-layer="1087" from-port="2" to-layer="1114" to-port="0"/>
		<edge from-layer="1088" from-port="1" to-layer="1092" to-port="0"/>
		<edge from-layer="1089" from-port="0" to-layer="1092" to-port="1"/>
		<edge from-layer="1090" from-port="0" to-layer="1092" to-port="2"/>
		<edge from-layer="1091" from-port="0" to-layer="1092" to-port="3"/>
		<edge from-layer="1092" from-port="4" to-layer="1098" to-port="0"/>
		<edge from-layer="1093" from-port="0" to-layer="1094" to-port="1"/>
		<edge from-layer="1094" from-port="2" to-layer="1097" to-port="0"/>
		<edge from-layer="1095" from-port="0" to-layer="1096" to-port="1"/>
		<edge from-layer="1096" from-port="2" to-layer="1097" to-port="1"/>
		<edge from-layer="1097" from-port="2" to-layer="1098" to-port="1"/>
		<edge from-layer="1098" from-port="2" to-layer="1103" to-port="0"/>
		<edge from-layer="1098" from-port="2" to-layer="1102" to-port="0"/>
		<edge from-layer="1099" from-port="0" to-layer="1102" to-port="1"/>
		<edge from-layer="1100" from-port="0" to-layer="1102" to-port="2"/>
		<edge from-layer="1101" from-port="0" to-layer="1102" to-port="3"/>
		<edge from-layer="1102" from-port="4" to-layer="1114" to-port="1"/>
		<edge from-layer="1103" from-port="1" to-layer="1106" to-port="0"/>
		<edge from-layer="1104" from-port="1" to-layer="1105" to-port="0"/>
		<edge from-layer="1105" from-port="1" to-layer="1106" to-port="1"/>
		<edge from-layer="1106" from-port="2" to-layer="1108" to-port="0"/>
		<edge from-layer="1107" from-port="0" to-layer="1108" to-port="1"/>
		<edge from-layer="1108" from-port="2" to-layer="1112" to-port="0"/>
		<edge from-layer="1109" from-port="0" to-layer="1112" to-port="1"/>
		<edge from-layer="1110" from-port="0" to-layer="1112" to-port="2"/>
		<edge from-layer="1111" from-port="0" to-layer="1112" to-port="3"/>
		<edge from-layer="1112" from-port="4" to-layer="1114" to-port="2"/>
		<edge from-layer="1113" from-port="0" to-layer="1114" to-port="3"/>
		<edge from-layer="1114" from-port="4" to-layer="1115" to-port="1"/>
		<edge from-layer="1115" from-port="2" to-layer="1118" to-port="0"/>
		<edge from-layer="1116" from-port="0" to-layer="1118" to-port="1"/>
		<edge from-layer="1117" from-port="0" to-layer="1118" to-port="2"/>
		<edge from-layer="1118" from-port="4" to-layer="1119" to-port="0"/>
		<edge from-layer="1119" from-port="1" to-layer="1120" to-port="0"/>
	</edges>
	<meta_data>
		<MO_version value="2021.4.0-3839-cd81789d294-releases/2021/4"/>
		<cli_parameters>
			<caffe_parser_path value="DIR"/>
			<data_type value="FP16"/>
			<disable_nhwc_to_nchw value="False"/>
			<disable_omitting_optional value="False"/>
			<disable_resnet_optimization value="False"/>
			<disable_weights_compression value="False"/>
			<enable_concat_optimization value="False"/>
			<enable_flattening_nested_params value="False"/>
			<enable_ssd_gluoncv value="False"/>
			<extensions value="DIR"/>
			<framework value="onnx"/>
			<freeze_placeholder_with_value value="{}"/>
			<generate_deprecated_IR_V7 value="False"/>
			<input value="src"/>
			<input_model value="DIR\robust.onnx"/>
			<input_model_is_text value="False"/>
			<input_shape value="[1,3,1080,1920]"/>
			<k value="DIR\CustomLayersMapping.xml"/>
			<keep_shape_ops value="True"/>
			<legacy_ir_generation value="False"/>
			<legacy_mxnet_model value="False"/>
			<log_level value="ERROR"/>
			<mean_scale_values value="{'src': {'mean': None, 'scale': array([255., 255., 255.])}}"/>
			<mean_values value="()"/>
			<model_name value="robust"/>
			<output value="['pha']"/>
			<output_dir value="DIR"/>
			<placeholder_data_types value="{}"/>
			<placeholder_shapes value="{'src': array([   1,    3, 1080, 1920], dtype=int64)}"/>
			<progress value="False"/>
			<remove_memory value="False"/>
			<remove_output_softmax value="False"/>
			<reverse_input_channels value="True"/>
			<save_params_from_nd value="False"/>
			<scale_values value="src[255,255,255]"/>
			<silent value="False"/>
			<static_shape value="False"/>
			<stream_output value="False"/>
			<transform value=""/>
			<unset unset_cli_parameters="batch, counts, disable_fusing, disable_gfusing, finegrain_fusing, input_checkpoint, input_meta_graph, input_proto, input_symbol, mean_file, mean_file_offsets, move_to_preprocess, nd_prefix_name, pretrained_model_name, saved_model_dir, saved_model_tags, scale, tensorboard_logdir, tensorflow_custom_layer_libraries, tensorflow_custom_operations_config_update, tensorflow_object_detection_api_pipeline_config, tensorflow_use_custom_operations_config, transformations_config"/>
		</cli_parameters>
	</meta_data>
</net>
